_model.pt (torch, 6779 bytes, 10 tensors)

layers.0.weight f4 [16, 5]
0	0x3e09be7d	0.13451572
1	0xbe810a9f	-0.25203416
2	0x3e9df673	0.30852088
3	0x3ebabbce	0.3647141
4	0xbefe5b4e	-0.49679035
5	0xbebcdf91	-0.36889318
6	0x3d39c6f8	0.045355767
7	0xbe97ed89	-0.29673412
8	0xbecb5beb	-0.39718565
9	0x3ec0f159	0.37684134
10	0x3f002278	0.50052595
11	0x3e4d4976	0.20047554
12	0xbf0df011	-0.5544444
13	0xbed15559	-0.40885428
14	0x3e68c6de	0.22732112
15	0xbdfd708f	-0.123749845
16	0xbf00a022	-0.50244343
17	0x3e1b7ee2	0.1518512
18	0x3f1a67d0	0.60314655
19	0x3e4beba4	0.19914109
20	0x3f1798ed	0.5921772
21	0xbe77db29	-0.24204697
22	0xbeacc935	-0.3374726
23	0x3ee729a9	0.45148972
24	0xbea94913	-0.33063564
25	0xbda3d859	-0.080002494
26	0xbe99514d	-0.2994484
27	0x3f396851	0.724248
28	0xbd81d1bd	-0.063388325
29	0x3ed94d88	0.42441964
30	0x3e6ac515	0.22926743
31	0x3e753894	0.23947364
32	0xbbf98a95	-0.007615397
33	0xbf800d89	-1.0004131
34	0x3f2220b2	0.6333114
35	0xbe734caf	-0.23759721
36	0x3e165252	0.1467984
37	0xbf349aa2	-0.7054845
38	0x3c2d9b4c	0.010596108
39	0x3d445cf9	0.047940228
40	0x3ece055d	0.40238467
41	0x3e8e0354	0.27736914
42	0xbeb9cba5	-0.3628818
43	0x3e5a7a2d	0.21335669
44	0x3eafc03f	0.3432636
45	0x3ebcc3b2	0.36868054
46	0xbf2ef627	-0.6834435
47	0x3f21f491	0.63263804
48	0xbe4fa5af	-0.20278047
49	0x3eff7708	0.498955
50	0x3d3ce7f1	0.046119634
51	0x3d5a2b30	0.053263843
52	0x3ed06b86	0.40707034
53	0xbd00aeb2	-0.031416602
54	0x3f2f6b48	0.68523073
55	0x3eeb8b5d	0.46004763
56	0x3ec1d044	0.37854207
57	0x3ed710c2	0.42004973
58	0xbe5a40f5	-0.21313842
59	0x3d239c07	0.03994372
60	0x3d19cceb	0.03754894
61	0xbd78795b	-0.06066261
62	0xbf3f582d	-0.7474392
63	0x3e5e17e8	0.21688807
64	0x3e9cb2a0	0.3060503
65	0xbe37bcce	-0.17943117
66	0xbf3c7511	-0.7361613
67	0x3ec3106f	0.38098475
68	0x3e8f4eb2	0.27989727
69	0xbeec1d0c	-0.4611591
70	0x3f153850	0.5828905
71	0xbf17a325	-0.59233314
72	0xbe1b6fbc	-0.15179342
73	0xbe33c32e	-0.17554924
74	0xbe064850	-0.13113523
75	0xbe642617	-0.22280155
76	0x3e29c974	0.16580755
77	0x3f043d98	0.51656485
78	0x3f1cc19e	0.61232936
79	0x3eb0ea59	0.34553793

layers.0.bias f4 [16]
0	0xbdbab1e6	-0.09115963
1	0x3d88829e	0.06665538
2	0xbe8c5e99	-0.27415922
3	0xbe2f0c34	-0.17094499
4	0xbd8f03ba	-0.06983133
5	0xbd265357	-0.040606823
6	0xbd36d334	-0.044635013
7	0xbd495d78	-0.049161404
8	0xbdca3251	-0.09872878
9	0xbddc5a92	-0.107594624
10	0xbc842f0e	-0.016135719
11	0xbdb0d19e	-0.08633731
12	0xbcd8e03c	-0.02647411
13	0xbea2b72b	-0.3178037
14	0xbe338541	-0.17531301
15	0x3e89de1d	0.2692727

layers.2.weight f4 [16, 16]
0	0x3edbbc53	0.42917117
1	0xbee43957	-0.44574997
2	0xbe319c52	-0.17344788
3	0xbef6b5a9	-0.4818547
4	0xbe71b1fb	-0.2360305
5	0xbe788093	-0.24267797
6	0x3d91396d	0.07091031
7	0xbc4d3227	-0.012524164
8	0x3e24c0fb	0.16089241
9	0x3e8de764	0.277156
10	0xbf03c679	-0.5147472
11	0x3ed29842	0.41131788
12	0xbd80b21d	-0.062839724
13	0x3e7f6809	0.2494203
14	0x3e2d5a9b	0.16929094
15	0x3ee58812	0.44830376
16	0x3ec398aa	0.3820241
17	0xbf018af6	-0.5060266
18	0xbf13ef7d	-0.57787305
19	0x3edb1510	0.42789507
20	0xbe7cac4c	-0.24675101
21	0xbebc8637	-0.36821148
22	0x3ebc4816	0.36773747
23	0xbeea8864	-0.45807183
24	0x3ee697c7	0.45037672
25	0xbe11afd9	-0.14227237
26	0xbe9d1c41	-0.3068562
27	0x3e5a213c	0.2130174
28	0xbd295bc0	-0.041347265
29	0xbe8f641a	-0.2800606
30	0xbf1c7a69	-0.61124283
31	0xbe05675a	-0.13027707
32	0xbeb3ef18	-0.35143352
33	0xbc543cc0	-0.012953937
34	0x3eff6ade	0.4988622
35	0x3e36bfc4	0.1784659
36	0x3c48ce97	0.012256286
37	0xbeb14452	-0.34622437
38	0xbf16101c	-0.5861833
39	0x3e201f08	0.15636837
40	0xbf1b24bd	-0.60602933
41	0x3eef6622	0.4675761
42	0xbea9a412	-0.33132988
43	0x3e135e88	0.1439153
44	0xbc23ee3c	-0.01000553
45	0xbf02aa70	-0.51041317
46	0xbebe2b53	-0.3714243
47	0x3dd6983a	0.10478254
48	0x3d485699	0.04891071
49	0xbd2f55ec	-0.04280655
50	0xbc851b69	-0.016248422
51	0xbef7b67f	-0.4838142
52	0x3eb41db5	0.35178915
53	0xbcb5843b	-0.022157779
54	0x3e6af49f	0.22944878
55	0xbe97928d	-0.29603997
56	0x3e90b0ce	0.2825989
57	0x3ec9b22d	0.3939375
58	0x3e9f33a3	0.31094083
59	0x3ed35011	0.41272023
60	0x3f0c783a	0.5487095
61	0x3e9fa362	0.3117934
62	0x3d43433f	0.047671553
63	0x3f3704c2	0.71491635
64	0xbe51a8e3	-0.20474581
65	0x3dff8923	0.12477329
66	0x3da3e26d	0.08002172
67	0x3eb59035	0.35461584
68	0xbea06a3a	-0.31331044
69	0x3dfa869d	0.12232707
70	0xbeae1bbc	-0.34005535
71	0x3eb37ffe	0.35058588
72	0xbe0ebe7f	-0.13939856
73	0xbe1c6330	-0.15272212
74	0x3e734d72	0.23760012
75	0x3e83e0b9	0.25757387
76	0xbe832c0b	-0.2561954
77	0x3ea234fe	0.31681055
78	0x3d97600b	0.073913656
79	0xbebb0e2f	-0.3653426
80	0xbe68240a	-0.22669998
81	0x3ef1624c	0.47145307
82	0x3e79ffab	0.24413936
83	0x3effa22f	0.49928424
84	0xbe779a8f	-0.24180053
85	0x3eeba92a	0.460275
86	0x3ec75dc2	0.3893872
87	0x3e5ffd3f	0.2187395
88	0xbe7d8c5c	-0.24760574
89	0xbed6cb72	-0.4195209
90	0xbe1f6480	-0.15565681
91	0xbde8afc5	-0.113616504
92	0xbe8a96e3	-0.27068242
93	0x3e8de318	0.2771232
94	0xbf431758	-0.76207495
95	0xbe9c5317	-0.30532143
96	0xbef7b0ec	-0.48377168
97	0xbe01ae01	-0.12664033
98	0xbcb02e4c	-0.021506451
99	0xbeb14d4c	-0.34629285
100	0x3df8309c	0.121186465
101	0x3edd603f	0.43237492
102	0x3e95063d	0.29106322
103	0xbf168877	-0.5880198
104	0xbed67649	-0.4188712
105	0x3ec2d545	0.38053337
106	0x3ef91a6b	0.48652968
107	0x3e8e47a4	0.27789032
108	0xbf3902bc	-0.722698
109	0xbe135fba	-0.14391986
110	0x3e90f67d	0.28313056
111	0x3cc2375c	0.023708038
112	0x3ee00d9c	0.43760383
113	0x3f1e7928	0.6190362
114	0xbe24f150	-0.16107678
115	0x3e404833	0.18777542
116	0x3ca5d04e	0.020240929
117	0x3e6efe44	0.23339182
118	0x3ef7b396	0.483792
119	0x3dbe1587	0.0928145
120	0x3eec7825	0.46185413
121	0x3e5ea909	0.2174417
122	0xbd22b24c	-0.03972082
123	0x3f0e70be	0.5564078
124	0xbec8d9b1	-0.39228585
125	0xbf007709	-0.50181633
126	0x3e86ba4f	0.26314017
127	0x3f25fa91	0.6483546
128	0xbefa9e68	-0.4894898
129	0x3d86d780	0.06584072
130	0xbebbc86c	-0.36676347
131	0x3e6a05ee	0.22853824
132	0xbeddedfc	-0.4334563
133	0xbf110893	-0.5665371
134	0xbe0dd5f5	-0.1385115
135	0x3f110ad9	0.5665718
136	0xbe6d63f7	-0.23182665
137	0xbf157090	-0.5837488
138	0xbe4c16c6	-0.19930562
139	0x3e187957	0.14890037
140	0x3e90c845	0.28277794
141	0x3ef8c38f	0.485867
142	0x3e2fdeb2	0.17174795
143	0x3e8881df	0.26661584
144	0xbe1fd80e	-0.15609762
145	0xbe569fcc	-0.20959395
146	0xbddf8107	-0.10913282
147	0x3ef9d8d0	0.48798227
148	0x3e5b084d	0.21389885
149	0x3de04f59	0.10952634
150	0xbd886a31	-0.066608794
151	0xbed2b2d0	-0.41152048
152	0xbe3f0183	-0.1865292
153	0xbec714ae	-0.38882965
154	0x3ef73d78	0.48289084
155	0xbe7967da	-0.24356022
156	0x3e0d2e76	0.13787255
157	0x3eac8263	0.33693227
158	0xbeb43121	-0.35193732
159	0x3e06e012	0.13171414
160	0xbe974d95	-0.29551378
161	0xbec920b3	-0.3928276
162	0x3e637d5f	0.22215794
163	0x3df7a2f0	0.12091625
164	0x3ee4410e	0.44580883
165	0x3bbbc4aa	0.0057302313
166	0xbdc92a74	-0.098225504
167	0x3ede4f01	0.4341965
168	0xbdf2de4a	-0.118588045
169	0xbecf3ca7	-0.40475962
170	0x3ee58bda	0.4483326
171	0xbea63997	-0.32465813
172	0xbf07cb9a	-0.53045046
173	0x3efc9cb9	0.4933832
174	0xbf05787f	-0.5213699
175	0xbe834b82	-0.25643545
176	0x3f00672e	0.5015744
177	0xbec83339	-0.3910158
178	0x3eff5016	0.49865788
179	0x3f1c534c	0.610646
180	0x3ebe18d0	0.37128305
181	0xbf069ca8	-0.5258279
182	0xbe6dbb2e	-0.23215935
183	0x3f02f851	0.5116015
184	0xbec54d28	-0.38535428
185	0xbd1aeb56	-0.03782209
186	0xbefbb24c	-0.49159467
187	0xbe510b60	-0.20414495
188	0x3db0eaf3	0.08638563
189	0x3da9ab9f	0.08284687
190	0x3e924d13	0.28574428
191	0x3eb2b709	0.3490527
192	0xbef0bc9e	-0.47018903
193	0x3efcef9e	0.49401563
194	0x3e334e68	0.17510378
195	0xbe0007c8	-0.12502968
196	0x3c8baf00	0.01705122
197	0xbedea0b6	-0.43481988
198	0xbd9be4f0	-0.07612026
199	0x3ef8a886	0.48566073
200	0xbea28627	-0.31742975
201	0xbf01d984	-0.5072253
202	0x3e851600	0.25993347
203	0xbebd6ec8	-0.36998582
204	0xbe90cd78	-0.2828176
205	0x3f18eadb	0.5973336
206	0xbf0e3c23	-0.5556051
207	0xbeb65c7e	-0.3561744
208	0x3e78fad9	0.24314441
209	0xbd0a9571	-0.033833925
210	0x3db08874	0.08619776
211	0x3ec55989	0.38544872
212	0x3c4cb71f	0.012494831
213	0xbf26e4fc	-0.6519315
214	0xbd190d36	-0.037366115
215	0xbf06cb0c	-0.52653575
216	0xbb9a6bf7	-0.0047125774
217	0xbdf5e9ed	-0.120075084
218	0xbef320a0	-0.47485828
219	0x3e92a023	0.286378
220	0x3d935fb3	0.071959876
221	0xbcc86ce7	-0.024465991
222	0x3e9b7f0e	0.30370373
223	0x3f13a480	0.5767288
224	0x3da6ac2b	0.08138307
225	0x3d08cdb3	0.033399295
226	0xbd7468cf	-0.059670266
227	0xbcbd827c	-0.023133509
228	0x3e6aadc3	0.22917847
229	0xbf3819fd	-0.71914655
230	0x3d16dbaf	0.0368306
231	0x3efb543c	0.49087703
232	0x3ca88d11	0.020575078
233	0xbecb68b0	-0.39728308
234	0x3e27e6ed	0.16396685
235	0xbe52e69e	-0.20595786
236	0xbeca69c0	-0.39533806
237	0xbee97c4f	-0.45602652
238	0x3db3b2a4	0.08774307
239	0x3e07ed18	0.13274038
240	0xbf19d20b	-0.60086125
241	0x3ec027da	0.37530404
242	0x3f003dd9	0.5009437
243	0xbe85adda	-0.261092
244	0xbeeb13a6	-0.45913428
245	0xbd6714a0	-0.056416154
246	0xbe438ee2	-0.19097474
247	0x3dfd71f0	0.123752475
248	0xbefe95e0	-0.4972372
249	0xbf026eeb	-0.509505
250	0xbe905264	-0.2818786
251	0xbef0fede	-0.47069448
252	0x3e41888c	0.18899745
253	0x3effe1fe	0.49977106
254	0x3d01f7f0	0.031730592
255	0x3e940dac	0.2891668

layers.2.bias f4 [16]
0	0xbe008144	-0.12549311
1	0xbd11bddb	-0.03558145
2	0xbce304f9	-0.027712332
3	0x3c948969	0.018131929
4	0xbd94940f	-0.072548024
5	0xbd249bef	-0.040187772
6	0xbe0f1623	-0.13973288
7	0x3db725e8	0.08942777
8	0xbd98bea3	-0.07458236
9	0xbd80e901	-0.06294442
10	0xbd80e48b	-0.06293591
11	0x3ce85cd5	0.028364578
12	0x00000000	0.0
13	0xbe0049a0	-0.12528086
14	0xbe199c6d	-0.15001078
15	0x00000000	0.0

layers.4.weight f4 [16, 16]
0	0x3d883a79	0.06651778
1	0xbe52bb64	-0.20579296
2	0xbec754f0	-0.3893199
3	0x3df990b6	0.121858045
4	0xbe05df63	-0.13073497
5	0xbf19c847	-0.60071224
6	0x3f06d886	0.5267414
7	0xbf0045d2	-0.5010654
8	0x3e9bf720	0.3046198
9	0x3d50d2cb	0.050982278
10	0x3ee9ef1d	0.4569024
11	0xbe913ca3	-0.28366575
12	0x3e287ee4	0.16454655
13	0xbf0d7066	-0.5524963
14	0xbee85cd4	-0.45383322
15	0xbc4d4cc0	-0.012530506
16	0x3ef2913c	0.4737643
17	0xbd020654	-0.031744316
18	0xbd09ff90	-0.03369099
19	0x3e76753e	0.24068162
20	0xbe25dfc4	-0.16198641
21	0xbc3ae821	-0.011407883
22	0xbec2a625	-0.38017383
23	0xbee46cd9	-0.44614294
24	0x3f065f39	0.5248905
25	0xbebfbc7a	-0.37448484
26	0xbef83568	-0.48478246
27	0x3ddbede4	0.107387334
28	0x39c73800	0.0003799796
29	0x3d90a7a6	0.070632264
30	0xbf070242	-0.5273782
31	0x3eb003ae	0.34377807
32	0x3e9d50a1	0.30725577
33	0x3cbd892d	0.0231367
34	0xbe786d62	-0.24260476
35	0x3e8e752a	0.27823764
36	0x3e556fbf	0.20843409
37	0xbebe12e7	-0.37123796
38	0x3b4135ff	0.0029481647
39	0x3e13234c	0.14368933
40	0xbe3de3ed	-0.18543978
41	0x3e5ecf4f	0.2175877
42	0x3ea80803	0.32818612
43	0x3eb014fb	0.34391007
44	0xbef03a6c	-0.46919572
45	0x3ee3cb32	0.44490963
46	0x3ce8da08	0.028424278
47	0xbd1d6db0	-0.038434684
48	0x3db879e4	0.09007624
49	0x3e36d5e5	0.17855032
50	0xbef3d5ed	-0.4762415
51	0xbef2cecc	-0.47423398
52	0xbdb7f00e	-0.08981334
53	0x3ef6db55	0.48214212
54	0xbed36137	-0.41285107
55	0x3f16b156	0.58864343
56	0xbe602dde	-0.21892497
57	0x3e974370	0.29543638
58	0x3c0ea0b7	0.00870531
59	0xbed56353	-0.4167734
60	0x3eedbaae	0.46431488
61	0xbed3027b	-0.4121283
62	0xbd8bca48	-0.068256915
63	0xbe1ed24c	-0.1550991
64	0x3f0082de	0.5019969
65	0xbef0647d	-0.46951666
66	0xbf119bcf	-0.5687837
67	0x3d89e1c5	0.06732515
68	0xbe3dd7a2	-0.18539289
69	0xbecd7e74	-0.4013554
70	0xbebd261b	-0.36943135
71	0xbf0dfa85	-0.5546039
72	0x3f01fd89	0.5077749
73	0xbef7021f	-0.48243806
74	0x3e1a25f7	0.15053545
75	0x3ea4af71	0.321651
76	0x3d64cbc0	0.055858374
77	0x3e3eb632	0.1862419
78	0x3e8060a4	0.2507373
79	0xbf0f5434	-0.5598786
80	0x3ee08d0e	0.43857616
81	0x3e14ec1c	0.14543194
82	0x3f13ccc5	0.5773433
83	0xbea16c74	-0.31528056
84	0xbe9b7036	-0.30359048
85	0x3f0bd0f5	0.5461572
86	0xbf1bbe8d	-0.6083763
87	0xbebc3054	-0.3675562
88	0x3ed8714e	0.42273945
89	0x3e80fd34	0.2519318
90	0xbee4064c	-0.44536054
91	0xbeb89f01	-0.3605881
92	0x3ee52346	0.44753474
93	0x3e6b6498	0.22987592
94	0xbe1325fa	-0.14369956
95	0xbefc5e60	-0.49290752
96	0xbf690d9e	-0.91036403
97	0x3d47d414	0.048786238
98	0x3dad1750	0.08451712
99	0x3dd1fb36	0.10252993
100	0xbe3a4558	-0.18190515
101	0x3f258f63	0.64671916
102	0xbc03cce9	-0.00804446
103	0xbd8061b3	-0.06268635
104	0x3eb1eadc	0.34749496
105	0xbe746bb8	-0.23869216
106	0xbf4f59da	-0.8099648
107	0x3e16783c	0.14694303
108	0x3e21e918	0.15811574
109	0xbdec0b46	-0.11525588
110	0xbdb45f09	-0.08807189
111	0xbdf4a3fc	-0.1194534
112	0xbdd19bd8	-0.10234803
113	0xbebe16e8	-0.3712685
114	0x3de19268	0.11014253
115	0xbc9e17c2	-0.019298438
116	0x3f0f9888	0.5609212
117	0xbeada6d2	-0.33916336
118	0x3e82601e	0.25463957
119	0xbf10077f	-0.5626144
120	0xbf28f4b0	-0.65998363
121	0x3e96c405	0.29446426
122	0x3e351c43	0.17686562
123	0x3c85ec8d	0.016348148
124	0x3dd048a0	0.10170102
125	0x3f21f1e3	0.63259715
126	0xbf067f0d	-0.52537614
127	0xbe07b5ec	-0.13252991
128	0xbece24ca	-0.40262443
129	0xbe69bcfd	-0.22826
130	0xbe703ccc	-0.23460692
131	0x3e9baead	0.30406705
132	0x3e0cddad	0.13756438
133	0x3e17b098	0.14813459
134	0x3dbef860	0.093247175
135	0x3d83041a	0.06397267
136	0x3d7d56bc	0.061850294
137	0x3d5719ec	0.052514955
138	0x3e874241	0.26417735
139	0x3ece9ced	0.403541
140	0x3dc82fb8	0.09774727
141	0xbe15e26f	-0.14637159
142	0x3ec41485	0.38296905
143	0xbed49678	-0.4152105
144	0x3ec9c565	0.39408413
145	0xbecd9444	-0.4015218
146	0x3ea39d1c	0.31955802
147	0x3e1a237a	0.15052596
148	0x3e1efe85	0.15526779
149	0xbf0b2873	-0.54358596
150	0xbea40472	-0.32034642
151	0xbea36b92	-0.31918007
152	0x3d38818f	0.04504543
153	0x3f0a8bc1	0.541195
154	0x3ce01a3d	0.027356261
155	0xbe84602d	-0.25854626
156	0xbd145e90	-0.036222994
157	0x3ec77ac1	0.3896084
158	0xbdbc75e6	-0.09202175
159	0x3e7be348	0.2459842
160	0x3dfeb908	0.12437636
161	0x3f088756	0.53331506
162	0x3ef4a25b	0.47780117
163	0x3efa5168	0.48890233
164	0x3ee4f0ad	0.4471487
165	0xbe2a0387	-0.16602908
166	0x3eb69a9c	0.35664833
167	0xbea1fe57	-0.31639358
168	0x3f37dbdf	0.7181987
169	0xbeadd0cc	-0.33948362
170	0x3ee5c24d	0.44874802
171	0x3dae08e4	0.084977895
172	0xbd4864b0	-0.048924148
173	0x3f02da4e	0.51114357
174	0xbf1c3c28	-0.6102929
175	0x3ea43f9e	0.32079786
176	0xbc8460dc	-0.016159467
177	0xbeab265c	-0.33427703
178	0x3f262914	0.6490643
179	0x3eece5be	0.4626903
180	0xbf05a794	-0.5220883
181	0x3ea47fcc	0.3212875
182	0x3ee368e6	0.4441597
183	0x3eb01f3e	0.34398836
184	0xbea7f302	-0.32802588
185	0xbea47918	-0.32123637
186	0xbce7633d	-0.028245563
187	0x3d82d1db	0.06387683
188	0x3f19dd17	0.6010298
189	0x3db5dcc1	0.08879996
190	0x3f079b32	0.52971184
191	0xbec6762c	-0.38762033
192	0x3cfbe0a0	0.030746758
193	0xbde88874	-0.11354151
194	0xbdbc15d8	-0.09183854
195	0x3e5e8bcc	0.21733016
196	0xbf1b7c0f	-0.60736173
197	0xbe8d279a	-0.27569276
198	0x3e7cc0a8	0.24682868
199	0xbef24aba	-0.47322637
200	0xbf159778	-0.5843425
201	0xbeb56208	-0.35426354
202	0xbe199fba	-0.15002337
203	0xbe984d53	-0.29746494
204	0x3ed43d66	0.41453093
205	0xbd2b5850	-0.04183227
206	0x3d633630	0.0554716
207	0xbdcaad10	-0.0989629
208	0xbebb4104	-0.3657304
209	0x3e46b588	0.19405186
210	0xbe49772c	-0.19674367
211	0xbf02e229	-0.51126343
212	0x3bffb000	0.0078029633
213	0x3e874e9e	0.26427168
214	0xbf0af44c	-0.5427902
215	0xbebbea89	-0.36702374
216	0xbea48ace	-0.3213715
217	0x3ed80c1e	0.42196745
218	0xbef48d69	-0.47764137
219	0xbdb954d8	-0.09049386
220	0x3d31fee0	0.04345596
221	0xbe4ae59a	-0.19814149
222	0x3eab6bee	0.3348078
223	0xbe8b65ff	-0.27226254
224	0x3eebf307	0.46083853
225	0xbdad7f46	-0.08471541
226	0xbe8eb5d1	-0.2787309
227	0xbde7d694	-0.113202244
228	0x3e17d574	0.1482752
229	0x3ea16cb6	0.31528252
230	0x3dd12bb4	0.10213414
231	0xbded898e	-0.11598502
232	0x3e876d98	0.264508
233	0xbdc8cb15	-0.0980436
234	0x3d213691	0.03935868
235	0xbec2277b	-0.37920746
236	0xbe821329	-0.25405243
237	0xbe4a9fc8	-0.19787514
238	0xbed4489e	-0.41461653
239	0x3efc453a	0.49271566
240	0xbe2cc5ff	-0.16872405
241	0x3e316905	0.17325218
242	0x3de5e750	0.1122576
243	0xbf29e0b6	-0.66358507
244	0xbf0d7fae	-0.5527295
245	0xbdf3ff9b	-0.11913987
246	0x3e7b90a6	0.24566898
247	0x3e84c038	0.259279
248	0x3eae8b05	0.34090438
249	0x3ebc6590	0.36796236
250	0x3d5b1a01	0.053491596
251	0x3e2aee73	0.16692524
252	0x3e0e5c10	0.13902307
253	0xbeb62d50	-0.35581446
254	0x3eefcddd	0.4683675
255	0x3e7cbfbc	0.24682516

layers.4.bias f4 [16]
0	0xbd73410c	-0.059388205
1	0xbd9a8ae3	-0.07546022
2	0x3e2b6e61	0.16741325
3	0x3e6b624c	0.22986716
4	0xbd878911	-0.0661794
5	0x00000000	0.0
6	0xbe1ee844	-0.1551829
7	0xbcea7ebc	-0.028624885
8	0x3e24b406	0.16084298
9	0xbe1c8f2f	-0.15288995
10	0x3c245337	0.010029606
11	0x3dba2c32	0.09090461
12	0x00000000	0.0
13	0x00000000	0.0
14	0x3e3b1970	0.18271422
15	0xbe297734	-0.16549379

layers.6.weight f4 [16, 16]
0	0xbe1cf77c	-0.15328783
1	0x3ec7ed94	0.39048445
2	0xbda041cd	-0.078250505
3	0xbe2ad94e	-0.16684458
4	0xbecd7ee5	-0.40135875
5	0xbeac1db8	-0.33616424
6	0x3c2653c4	0.010151807
7	0xbeb0b691	-0.34514287
8	0x3eebf23c	0.46083248
9	0xbe969c1c	-0.29415977
10	0x3e7a1506	0.24422082
11	0x3e5f5fec	0.21813935
12	0xbef8c289	-0.4858592
13	0x3f08848d	0.53327256
14	0xbea8230e	-0.32839245
15	0x3e2ef0a0	0.17083979
16	0xbe301bf5	-0.17198165
17	0xbef4fc8e	-0.47848934
18	0x3e97737a	0.2958029
19	0x3da6eb19	0.0815031
20	0x3d231ad5	0.03982051
21	0x3dc50560	0.09620166
22	0xbeea4e59	-0.457629
23	0x3c122b72	0.008921491
24	0x3e9d0421	0.30667213
25	0x3ee3c108	0.4448321
26	0xbd63c536	-0.055607997
27	0x3ed76a7d	0.42073432
28	0xbea23434	-0.31680453
29	0xbe91de91	-0.28490117
30	0x3eb6f1a3	0.3573123
31	0xbea43cb9	-0.32077578
32	0xbeae3f67	-0.34032747
33	0x3e983c22	0.29733378
34	0xbe64f86a	-0.22360387
35	0xbe2dce68	-0.16973269
36	0xbe1c9a44	-0.15293223
37	0x3efc92f2	0.4933086
38	0x3efd1f21	0.49437812
39	0xbed7ca44	-0.42146504
40	0xbf0e0213	-0.55471915
41	0xbf098949	-0.53725106
42	0xbf088d00	-0.5334015
43	0x3eb9ce7d	0.3629035
44	0xbf0673ad	-0.5252026
45	0x3eea0506	0.45706958
46	0x3eda4acc	0.4263519
47	0xbce532c9	-0.027978318
48	0xbe12948a	-0.14314476
49	0xbeb91fd7	-0.36157104
50	0x3e974988	0.29548287
51	0x3ef53d5c	0.47898376
52	0x3e1d2fd3	0.15350275
53	0xbec51c92	-0.3849836
54	0x3f05e25f	0.5229854
55	0x3e9a560b	0.3014377
56	0x3eada134	0.3391205
57	0x3e929265	0.28627315
58	0x3e36434b	0.17799108
59	0x3c8c3406	0.01711465
60	0x3f199ad1	0.60001856
61	0xbe9d6fed	-0.30749455
62	0xbd0ebf6c	-0.034850523
63	0xbec8542a	-0.39126712
64	0xbf1c90bb	-0.6115834
65	0xbee208e0	-0.44147396
66	0x3eecd10d	0.46253243
67	0xbc5c46b3	-0.01344459
68	0xbe62d4a1	-0.22151424
69	0xbe54bacc	-0.20774382
70	0xbd1d1b89	-0.038356338
71	0xbde3b5e7	-0.111186795
72	0xbf2061bb	-0.62649125
73	0x3e002603	0.125145
74	0xbecc2c97	-0.3987777
75	0xbe058afa	-0.13041297
76	0xbdcb0428	-0.09912902
77	0x3ec9d62a	0.39421207
78	0x3d8a9a4e	0.067677125
79	0xbf19b466	-0.6004089
80	0x3f13e654	0.5777333
81	0xbf04325e	-0.51639354
82	0x3eed6c6f	0.4637179
83	0x3f195701	0.5989838
84	0xbe49e739	-0.1971711
85	0xbde13f50	-0.10998404
86	0x3e854452	0.26028687
87	0x3f153cdc	0.5829599
88	0x3f1d21e7	0.61379856
89	0xbdd0fc9b	-0.10204431
90	0x3efbb2b8	0.4915979
91	0x3e19cdb0	0.1501987
92	0xbe9e7599	-0.30949095
93	0x3eb50866	0.3535797
94	0x3e8216d7	0.2540805
95	0xbe951365	-0.2911636
96	0xbeb3b2da	-0.3509739
97	0xbe421c30	-0.18956065
98	0xbec239c0	-0.37934685
99	0xbeda8848	-0.426821
100	0x3e94126e	0.2892031
101	0xbeddad9e	-0.43296522
102	0xbeac21d4	-0.3361956
103	0x3e08167c	0.13289827
104	0x3d3c4799	0.04596672
105	0x3e20cc55	0.15702946
106	0xbe29f920	-0.1659894
107	0x3e389cc2	0.18028548
108	0xbdae0018	-0.08496112
109	0x3f0e60a9	0.5561624
110	0xbc8025dd	-0.015643055
111	0x3ebe8a58	0.37214923
112	0x3e801ef6	0.2502362
113	0x3eb9fa68	0.36323857
114	0xbf0b7b9e	-0.544855
115	0x3e5c03fe	0.21485898
116	0x3d235c00	0.03988266
117	0xbdd13d60	-0.102167845
118	0xbf05d8f5	-0.52284175
119	0x3ef300ca	0.4746154
120	0x3d6b690f	0.05747324
121	0xbefada14	-0.48994505
122	0xbf0bd39e	-0.5461978
123	0x3db529e2	0.08845879
124	0xbe4be748	-0.19912446
125	0x3e0fd6c8	0.14046776
126	0x3dd74913	0.10511985
127	0xbf2d7f90	-0.6777277
128	0xbdbc9e90	-0.09209931
129	0x3f0189bf	0.5060081
130	0x3eca45b5	0.39506307
131	0x3efc7fb6	0.49316186
132	0xbdbba728	-0.09162742
133	0x3ef3dcf2	0.47629505
134	0xbe483e94	-0.19555122
135	0x3e653b98	0.22386014
136	0xbe790013	-0.24316435
137	0xbefc6541	-0.49296
138	0xbe1401c9	-0.14453806
139	0xbf17e985	-0.593407
140	0xbf19775e	-0.59947765
141	0x3df05ea0	0.11736798
142	0xbd24f100	-0.040268898
143	0x3e8b715c	0.27234924
144	0x3f155b3d	0.58342344
145	0xbe86e41c	-0.2634591
146	0x3e88e40e	0.26736492
147	0x3e98687e	0.2976722
148	0xbee6962b	-0.45036444
149	0x3ef47162	0.47742754
150	0x3e817116	0.2528159
151	0xbe444d92	-0.19170216
152	0xbe8bc1be	-0.2729625
153	0x3e23f2af	0.16010545
154	0x3e8d136b	0.27553877
155	0x3e802e35	0.25035253
156	0x3d582030	0.05276507
157	0x3d073df0	0.033018053
158	0xbe2f2177	-0.1710261
159	0x3e2765ce	0.16347429
160	0x3d6b4e90	0.05744797
161	0xbe9bdee8	-0.304435
162	0xbee80bdc	-0.45321548
163	0x3e162970	0.14664245
164	0x3d95f1e0	0.073215246
165	0x3f11db97	0.5697569
166	0x3d8ab338	0.067724645
167	0x3f1c8861	0.611456
168	0xbe77ecd4	-0.24211437
169	0xbedc88bc	-0.4307307
170	0xbda45168	-0.080233395
171	0xbe6497dc	-0.22323555
172	0xbdd09b20	-0.10185838
173	0xbe4084b6	-0.18800625
174	0x3f0f5b15	0.55998355
175	0x3e8b2988	0.27180123
176	0x3b95e757	0.004574697
177	0x3ddcc762	0.10780217
178	0x3f1b64cf	0.60700697
179	0x3edc97e3	0.4308463
180	0xbdb833bf	-0.08994245
181	0xbf160b0a	-0.58610594
182	0xbeee8918	-0.4658897
183	0xbe0afbb5	-0.13572581
184	0x3e5a40c8	0.21313775
185	0x3e45b0f6	0.19305786
186	0x3e907de8	0.2822106
187	0x3ea7fff7	0.32812473
188	0xbe860288	-0.26173806
189	0x3e972a18	0.29524302
190	0x3c42daad	0.011892957
191	0x3ea55126	0.32288474
192	0x3f0719ad	0.52773553
193	0xbeaabe41	-0.33348277
194	0xbcafbc38	-0.021452054
195	0xbcd18add	-0.02557891
196	0x3f07d2c4	0.5305598
197	0xbef552b0	-0.47914648
198	0x3ec322ba	0.38112432
199	0xbeccae63	-0.39976797
200	0xbef54087	-0.47900793
201	0xbf0e12d3	-0.55497473
202	0x3d4eee39	0.050520156
203	0x3ee81bd4	0.4533373
204	0xbe9e2c38	-0.3089311
205	0x3d33e0a0	0.04391539
206	0xbeeaa74a	-0.45830756
207	0xbee7fbf7	-0.4530942
208	0x3e7746e8	0.24148142
209	0xbdb3c6d8	-0.08778161
210	0xbdcbe1a8	-0.0995515
211	0xbeb170c1	-0.34656337
212	0x3ec2d046	0.38049525
213	0xbef019b0	-0.46894598
214	0xbe9044fa	-0.28177625
215	0x3ecbdd46	0.39817256
216	0x3e8a0bf8	0.26962256
217	0xbf1056be	-0.5638236
218	0xbf184811	-0.59484965
219	0xbeb53526	-0.35392112
220	0xbf16b831	-0.58874804
221	0x3edbb73e	0.4291324
222	0xbe986005	-0.29760757
223	0x3e79623c	0.2435388
224	0xbee3f879	-0.44525507
225	0x3e88af66	0.26696318
226	0x3f1b416b	0.60646695
227	0x3e3ae2a6	0.18250522
228	0x3f18131b	0.5940415
229	0xbe0677c6	-0.13131627
230	0xbe509972	-0.20371035
231	0xbed6b0e6	-0.41931838
232	0xbe69ead4	-0.22843486
233	0xbe85dc75	-0.26144758
234	0x3c2c4144	0.010513607
235	0x3d7b933f	0.06141972
236	0xbe1f4cda	-0.1555666
237	0xbe8190d7	-0.25305817
238	0x3c6890d7	0.014194689
239	0x3d9f0349	0.077642985
240	0xbf0e1782	-0.5550462
241	0xbe729ea3	-0.23693328
242	0x3e8c6b82	0.27425772
243	0xbf134c88	-0.5753865
244	0x3f0e6dd7	0.5563635
245	0xbd8829f0	-0.06648624
246	0x3e235f5d	0.15954347
247	0xbe025c9e	-0.12730643
248	0xbee42c2f	-0.4456496
249	0x3e825f56	0.2546336
250	0x3e008afd	0.1255302
251	0xbec943e0	-0.39309597
252	0x3e809ba4	0.25118744
253	0xbea43291	-0.3206983
254	0xbee63120	-0.44959354
255	0xbf1e0a83	-0.6173479

layers.6.bias f4 [16]
0	0x3d553417	0.05205163
1	0x3e331032	0.17486647
2	0x3c2a55bd	0.010396418
3	0x3d091d88	0.03347543
4	0xbddec340	-0.10877085
5	0x3e624b0a	0.22098938
6	0xbd1db16d	-0.038499285
7	0xbdf523c5	-0.11969713
8	0x3b213508	0.002459826
9	0xbc80360d	-0.015650773
10	0x00000000	0.0
11	0x3e31221e	0.17298171
12	0xbde8399e	-0.113391146
13	0x00000000	0.0
14	0x3e389a6a	0.18027654
15	0xbd97fc4f	-0.07421171

layers.8.weight f4 [5, 16]
0	0x3f27f622	0.65609944
1	0x3f380a67	0.7189087
2	0x3f186f4b	0.5954482
3	0x3f1e3a23	0.6180746
4	0x3f3c451c	0.7354295
5	0x3e219f12	0.15783337
6	0xbef860c9	-0.4851134
7	0xbf1063c6	-0.5640224
8	0x3ee6e116	0.45093602
9	0xbed36a26	-0.41291922
10	0xbdc5ff10	-0.0966779
11	0x3dce3256	0.100681946
12	0x3deef6ec	0.1166819
13	0xbf2f9ec7	-0.6860165
14	0x3f3a2279	0.7270885
15	0xbd09af6f	-0.033614572
16	0xbdd3323d	-0.103123166
17	0xbe7794a9	-0.24177803
18	0x3d8567af	0.06513917
19	0xbe1cd68f	-0.15316223
20	0xbec82a1c	-0.39094627
21	0x3f0e98e8	0.55702066
22	0x3e4ee104	0.20203024
23	0x3e6c5369	0.23078693
24	0xbf193ee5	-0.59861594
25	0x3f3da61d	0.74081594
26	0xbe6f15d8	-0.23348176
27	0x3edfad83	0.43687066
28	0xbe602b98	-0.2189163
29	0xbdcab670	-0.098980784
30	0x3e33a2f7	0.17542635
31	0x3e195aa9	0.1497599
32	0x3d24297f	0.040078636
33	0x3c92d84b	0.017925402
34	0xbea04996	-0.31306142
35	0xbd7d3a91	-0.06182343
36	0xbef60044	-0.48047078
37	0x3f3b11e0	0.7307415
38	0xbdaa1d5f	-0.08306383
39	0x3d97ffbd	0.07421825
40	0xbf1a20c9	-0.60206276
41	0xbec9735d	-0.39345828
42	0xbefd1923	-0.4943324
43	0x3ee43b21	0.44576362
44	0x3ef52240	0.47877693
45	0x3bb56e80	0.0055368543
46	0x3f25fd4c	0.64839625
47	0xbf1f57c4	-0.62243295
48	0xbf183cf4	-0.5946801
49	0x3ebea7c2	0.37237364
50	0xbea9e847	-0.33185026
51	0xbe74accd	-0.23894043
52	0x3efab3eb	0.48965392
53	0x3e0db7bc	0.1383962
54	0x3f02638e	0.5093316
55	0xbe8e74fc	-0.27823627
56	0x3d4c10db	0.049820762
57	0x3f412256	0.7544302
58	0x3d713c10	0.05889517
59	0x3f0b2ad7	0.54362243
60	0x3f093ccc	0.53608394
61	0x3f1b22cb	0.60599965
62	0x3f08356c	0.53206515
63	0xbeed8500	-0.46390533
64	0x3eb3832b	0.3506101
65	0x3e0088fe	0.12552258
66	0xbecfb573	-0.40568122
67	0xbe6bf527	-0.23042737
68	0x3ec37c48	0.38180757
69	0x3f06a0de	0.52589214
70	0x3eaa50a2	0.33264643
71	0x3ef65c43	0.48117265
72	0x3e325d75	0.17418464
73	0x3f2f686f	0.6851873
74	0x3ec7368e	0.3890881
75	0x3d53a179	0.051667664
76	0xbe80e6e8	-0.25176167
77	0xbf210d55	-0.6291097
78	0x3f2dca03	0.6788637
79	0xbe04962c	-0.12947911

layers.8.bias f4 [5]
0	0x3eb5e650	0.35527277
1	0x3e8469d1	0.25861982
2	0x3e76fa67	0.24118958
3	0x3e881f13	0.26586208
4	0x3e9a3abe	0.30122942
