dqn5_best.pt (torch, 7391 bytes, 10 tensors)

layers.0.weight f4 [16, 5]
00000000: fbe7 ee3d 2259 9dbe eabb c13e e270 e73e
00000010: d4c1 02bf 87e5 8fbe c46f 233e 89ed 97be
00000020: eb5b cbbe e7e2 be3e 9e4f 183f 7e9a 8d3e
00000030: 1faa cfbe afa8 37be 695f b63e 7cb0 dbbc
00000040: 9cf5 fdbe 025b fb3d ec6c 183f 4f46 683e
00000050: 33f6 213f 8fde 51be 7a69 6cbe 8ea2 063f
00000060: d8a0 c2be cbbe 3a3b c807 41be 0773 333f
00000070: bdd1 81bd 9cf8 f53e f109 8b3e 304d 993e
00000080: c96c d7bc f191 51bf 2d79 243f af4c 73be
00000090: 5252 163e a29a 34bf 4c9b 2d3c f95c 443d
000000a0: ed9a f53e 664a b43e f81f fabe 310f 423e
000000b0: 60ea c73e 5a6f cc3e 432e 2dbf f802 243f
000000c0: 5a76 a53c cc1a eb3e e5c0 973d 0c1d cc3d
000000d0: f923 d83e a1df d7bd 00da 263f e306 fd3e
000000e0: 3eca d03e 8cdb de3e 9581 72bd 24f7 1e3d
000000f0: 4014 ca3d 746c 98bd 3ef1 33bf 7380 923e
00000100: 9edc 8a3e 997c dbbc dc84 2abf a2a3 0b3f
00000110: f829 a83e 0c1d ecbe a7c1 1b3f 6edb 13bf
00000120: f95f acbd a4c6 a13d 0156 27be e68f 4cbe
00000130: ac2c 9b3d 294f fb3e 5bd0 003f 2ead 6e3e
0.116653405 -0.30732065 0.3783868 0.4520331 -0.5107701 -0.28104803 0.15960604 -0.29673412
-0.39718565 0.37282488 0.59496486 0.2765693 -0.4055948 -0.17935441 0.35619667 -0.026817553
-0.49601448 0.12273218 0.595412 0.2268307 0.63266295 -0.20495056 -0.23087111 0.5259179
-0.3801334 0.002849507 -0.18850625 0.7009739 -0.063388325 0.48041236 0.27156022 0.29941702
-0.02629699 -0.81863314 0.642474 -0.23759721 0.1467984 -0.7054845 0.010596108 0.047940228
0.47969761 0.35213012 -0.48852515 0.18951108 0.39046 0.39928705 -0.67648715 0.6406703
0.020198036 0.45918882 0.074098386 0.09966478 0.42214945 -0.10540701 0.6517639 0.49419317
0.407793 0.43526876 -0.05920561 0.03880991 0.09867144 -0.07442561 -0.7028998 0.28613624
0.27121443 -0.026792811 -0.6660898 0.5454656 0.3284452 -0.4611591 0.60842365 -0.577567
-0.08416743 0.07899216 -0.16341402 -0.19976768 0.0757688 0.49083832 0.50317925 0.2330825

layers.0.bias f4 [16]
00000000: 0981 c5b9 6948 803d f7bf 64bd d112 81bd
00000010: 4ac7 9dbc 38d0 8b3d b9bd 2ebc 785d 49bd
00000020: c1f5 c4bd e4de b9bd 1ce1 343c 6bca d8bc
00000030: 69ae 3dbc 3ff9 fdbd ac1b 98bd 785c 523e
-0.00037670907 0.06263811 -0.055847134 -0.06302417 -0.019260067 0.06826824 -0.010665351 -0.049161404
-0.09617186 -0.09075716 0.011039998 -0.026463708 -0.011577227 -0.124010555 -0.07427153 0.20543087

layers.2.weight f4 [16, 16]
00000000: 3092 f33e ef2b 04bf 0c98 1dbe 154d 16bf
00000010: 23e2 55be ac23 9bbe a720 c83d 2732 4dbc
00000020: f7c3 433e 7ff2 a33e 30fa 0bbf 1839 da3e
00000030: c67d fd3b 26c5 0f3e 5a83 493e dc2f d83e
00000040: 261a c13e f68a 01bf 229f 0bbf fe47 dd3e
00000050: c8e3 3abe 3786 bcbe 9f82 c53e 6488 eabe
00000060: e1d4 053f 3036 12be b6b7 9abe c18f 673e
00000070: 7492 b83c eb3c e1be c0c4 13bf 7940 19be
00000080: 350e a6be c03c 54bc de6a ff3e 488b 523e
00000090: 6045 223d 5244 b1be 1c10 16bf 081f 203e
000000a0: ca92 14bf 2266 ef3e b23e 9bbe 885e 133e
000000b0: 200b 983c 70aa 02bf 532b bebe 708b 073e
000000c0: d76f 063e 84b3 14be aae2 383c cfb8 f4be
000000d0: 6f39 c53e db51 08be ecb7 853e 8d92 97be
000000e0: 2df4 a03e d26a e23e 9185 9e3e 295f e43e
000000f0: 2a0b 1a3f b5e5 c63e ff35 9e3d 5c17 1e3f
00000100: 8ab3 cbbd fba4 813e ed3b 273e 84e1 9e3e
00000110: b55b 69be 617d 113e 3908 85be fe7f b33e
00000120: 9b21 80bd cf99 72bd 2efc b13e 09cd b23e
00000130: 2919 25be aef9 cc3e b0ae 213e 3989 a5be
00000140: 2091 46be 390c 043f d53e c03e 1e9a ab3e
00000150: 883d 56be cf6c 033f 15f8 023f 3ffd 5f3e
00000160: a2c6 febd 7e33 b3be b14e 3abd a0a4 ba3d
00000170: 5a52 79be c9fa 903e 6206 3bbf cf1c 72be
00000180: 2ae7 d8be e754 49be 247c f33b c289 90be
00000190: 7446 1c3e 9678 a43e b75d a73e 7788 16bf
000001a0: 2d14 c6be 439d dc3e a18f 003f eb7a 9f3e
000001b0: 4006 2fbf 7eed 0cbe e274 a03e e2f5 b0bd
000001c0: 5928 003f 3720 163f 2be3 18be ce9e 2c3e
000001d0: 6d48 123d 4f10 5b3e 54b3 033f 8715 be3d
000001e0: 1835 fc3e f964 7f3e 0c63 23bd 56cc 113f
000001f0: 062e bebe 4749 02bf 76b2 8a3e ce16 1f3f
00000200: 2d00 f0be 80d7 863d 6cc8 bbbe 92aa 813e
00000210: 05b7 d3be 9308 11bf f5d5 0dbe d90a 113f
00000220: 0204 5cbe 9070 15bf c616 4cbe 5779 183e
00000230: e7a8 9a3e cfd5 fe3e b2de 2f3e f0a8 943e
00000240: 1ab8 c63a 668d 48be 784d 71bd 27bb ef3e
00000250: 0786 233e baaa 613e 70f1 303b d0b2 d2be
00000260: c89f dcbd 0427 8dbe aeb8 123f 89f4 a9bd
00000270: 93ea ee3d aba1 d63e 40ea 7bbe e914 853e
00000280: 954d 97be b320 c9be fc12 773e f0a2 f73d
00000290: 0e58 ee3e aac4 bb3b f528 a2bd 014f de3e
000002a0: 78b7 cbbd a73c cfbe c1db ee3e e46e 9cbe
000002b0: 8079 02bf b99c fc3e 6225 00bf 824b 83be
000002c0: 87e3 0e3f 3933 c8be 7d23 053f 1087 1e3f
000002d0: 59e4 cc3e 62da cbbe 1f44 5dbe 51f8 023f
000002e0: b746 babe 5679 32bb 1cb1 fdbe 03f3 37be
000002f0: e2ce 0a3e 9be1 9e3d fe37 9e3e 3ac4 2b3e
00000300: 9ebc f0be 9eef fc3e 684e 333e c807 00be
00000310: 00af 8b3c b6a0 debe f0e4 9bbd 86a8 f83e
00000320: 2786 a2be 84d9 01bf 0016 853e c86e bdbe
00000330: 78cd 90be dbea 183f 233c 0ebf 7e5c b6be
00000340: 2c40 9d3e 7195 0abd b310 d73d 4d78 e43e
00000350: 351b 253d a9ec 19bf 228d acbc 0ccb 06bf
00000360: 27a9 983c 01e9 a3bd 98fc fbbe 7727 9e3e
00000370: 5b6b 023e cca3 02bd 60bf a83e 956a f33e
00000380: 4e36 623e b3cd 083d 7448 7a3c cf8a 033d
00000390: a19b a63e d2f0 d7be 2566 d33d 3c54 fb3e
000003a0: 0c38 c53d 199a 95be 5905 7a3e 9e27 07be
000003b0: e8b7 a2be a710 c0be 6116 423e 8421 cdbb
000003c0: 0bd2 19bf da27 c03e d93d 003f daad 85be
000003d0: a613 ebbe a014 67bd e28e 43be f071 fd3d
000003e0: e095 febe eb6e 02bf 6452 90be defe f0be
000003f0: 8c88 413e fee1 ff3e f0f7 013d ac0d 943e
0.4757247 -0.5162954 -0.15390033 -0.5871137 -0.20887046 -0.30300653 0.09771853 -0.012524164
0.19117723 0.32020947 -0.5467863 0.42621684 0.0077359406 0.1404005 0.19679013 0.42224014
0.37715262 -0.5060266 -0.5453969 0.43218988 -0.18250954 -0.36821148 0.38576218 -0.45807183
0.5227795 -0.14278483 -0.30218285 0.22613432 0.022530772 -0.4399179 -0.5772209 -0.14966
-0.32432714 -0.012953937 0.4988622 0.20560944 0.039616942 -0.34622437 -0.5861833 0.15636837
-0.5803648 0.4675761 -0.3032127 0.1439153 0.018559992 -0.51041317 -0.3714243 0.13236785
0.13128601 -0.14521605 0.01128451 -0.47797248 0.3852038 -0.13312475 0.26116884 -0.29603997
0.3143629 0.44222122 0.30961278 0.4460385 0.60173285 0.38847128 0.07725143 0.61754394
-0.09946354 0.25321183 0.16331454 0.3103143 -0.2278889 0.14207985 -0.25982836 0.35058588
-0.0625641 -0.059228715 0.3476271 0.34922054 -0.16122879 0.4003424 0.15789294 -0.32331255
-0.19391298 0.5158115 0.37547937 0.3351602 -0.2092191 0.51337904 0.51159793 0.2187395
-0.1244023 -0.35000223 -0.045485202 0.09113431 -0.24347821 0.28316334 -0.73056614 -0.23643802
-0.42363864 -0.19661294 0.00743057 -0.282301 0.1526125 0.3212325 0.32688686 -0.5880198
-0.38687268 0.4308873 0.5021916 0.31148466 -0.6836891 -0.13762471 0.31339175 -0.086406484
0.50061566 0.58642906 -0.14930408 0.16857454 0.0357136 0.2139294 0.5144551 0.0928145
0.49259257 0.24940862 -0.03988938 0.56952417 -0.37144488 -0.5089306 0.2708928 0.6214417
-0.46875134 0.06584072 -0.36676347 0.25325447 -0.4135057 -0.5665371 -0.1385115 0.5665718
-0.21485904 -0.5837488 -0.19930562 0.14890037 0.30206987 0.49772498 0.17174795 0.2903514
0.0015161068 -0.19585189 -0.05891177 0.46822473 0.15969096 0.22037783 0.0026999377 -0.41152048
-0.10772663 -0.2756883 0.5731305 -0.082985945 0.11665835 0.41920218 -0.24601078 0.25992516
-0.29551378 -0.3928276 0.24128336 0.12091625 0.46551555 0.0057302313 -0.07917968 0.4341965
-0.09947103 -0.40475962 0.46652034 -0.30553353 -0.50966644 0.4933832 -0.5005704 -0.25643545
0.5581593 -0.3910158 0.52007276 0.6192484 0.40017965 -0.3981505 -0.21608017 0.5116015
-0.36382076 -0.0027232966 -0.49549186 -0.17963795 0.13555482 0.077578746 0.30902094 0.16774073
-0.47018903 0.49401563 0.17510378 -0.12502968 0.01705122 -0.43481988 -0.07612026 0.48566073
-0.31742975 -0.5072253 0.25993347 -0.36998582 -0.2828176 0.5973336 -0.5556051 -0.3561744
0.30713022 -0.033833925 0.10501232 0.44623032 0.04030915 -0.6012674 -0.021063391 -0.52653575
0.018635346 -0.08003426 -0.4921615 0.30889484 0.12736265 -0.03189449 0.32958508 0.47542253
0.22091028 0.033399295 0.015276063 0.0321148 0.3254061 -0.4217592 0.10322217 0.49087703
0.09629831 -0.2921913 0.24416102 -0.13198707 -0.31780934 -0.37512705 0.1895385 -0.006260099
-0.60086125 0.37530404 0.5009437 -0.261092 -0.45913428 -0.056416154 -0.19097474 0.123752475
-0.4972372 -0.509505 -0.2818786 -0.47069448 0.18899745 0.49977106 0.031730592 0.2891668

layers.2.bias f4 [16]
00000000: d701 91bd fd3a 13bb 0000 0000 a869 613d
00000010: a7b4 5c3d 90bf fc3c 81a2 b5bd 958d a53d
00000020: 1d63 59bd 2e81 803c 7c6a 32bd 924d 883d
00000030: 0000 0000 bd90 0ebd cbc6 b6bd 0000 0000
-0.07080429 -0.002246558 0.0 0.055032402 0.05388322 0.030853063 -0.08868886 0.08083645
-0.053073037 0.015686598 -0.043558583 0.0665542 0.0 -0.034806002 -0.089246355 0.0

layers.4.weight f4 [16, 16]
00000000: 793a 883d 64bb 52be f054 c7be b690 f93d
00000010: 63df 05be 47c8 19bf 86d8 063f d245 00bf
00000020: 20f7 9b3e cbd2 503d 1def e93e a33c 91be
00000030: e47e 283e 6670 0dbf d45c e8be c04c 4dbc
00000040: c366 013f 5406 02bd 90ff 09bd 4775 8b3e
00000050: 023c 06be 21e8 3abc 9866 b2be 0a32 d4be
00000060: 395f 063f 7abc bfbe 6835 f8be c177 0e3e
00000070: 0038 c739 5d99 d13d 61de fdbe ae03 b03e
00000080: 7916 af3e d63a 603d ad21 a0be 31d6 943e
00000090: 7918 3f3e e0be 82be cadb 903c fdb6 253e
000000a0: 1481 3fbe 6707 9f3e f4ab b73e a4ec cb3e
000000b0: 6c3a f0be 52ef f43e 6e02 233d b06d 1dbd
000000c0: c93a 543e 7ec1 073e b7e0 0bbf 08b0 e6be
000000d0: 7d5c c8bd 41b5 163f bcba b4be 5766 223f
000000e0: de2d 60be b5c7 dd3e b7a0 0e3c dafb 11bf
000000f0: aeba ed3e d2e9 1dbf 1884 1ebe 4cd2 1ebe
00000100: 0aa0 013f 7d64 f0be cf9b 11bf 74aa 953d
00000110: a1fa 3bbe 747e cdbe 1abc bcbe 7a59 0cbf
00000120: 89fd 013f 840d f7be f725 1a3e 9a0f ac3e
00000130: c0cb 643d f354 473e df1b 823e 3454 0fbf
00000140: 0e8d e03e 1cec 143e c5cc 133f 746c a1be
00000150: 3670 9bbe f5d0 0b3f 8dbe 1bbf 5430 bcbe
00000160: 4e71 d83e 34fd 803e 4c06 e4be 019f b8be
00000170: 4623 e53e 9864 6b3e fa25 13be 605e fcbe
00000180: 7b8a 3fbf af70 073e 5017 ad3d f1d2 153e
00000190: 08a7 edbd e047 313f 3f19 a53c d37e b9bc
000001a0: dcea b13e 61fa aabe 06e6 47bf 0e6f 7b3e
000001b0: 18e9 213e cf3a c7bc 62a4 cdbb fca3 f4bd
000001c0: 11d5 8ebd 31c0 acbe 6892 e13d 7df7 aa3c
000001d0: 8898 0f3f d2a6 adbe 1e60 823e 275c 05bf
000001e0: ed79 29bf a405 a83e 431c 353e 259e 5e3d
000001f0: a048 d03d 9710 2c3f c9d1 f7be ecb5 07be
00000200: 4f16 cabe f4d9 afbe 7818 98be 7ff5 a73e
00000210: aad5 713e 8e4b 043c 9ce2 013e df27 b13d
00000220: cb17 763d 12af 0d3e a7bf 6c3e 46f2 d83e
00000230: b82f c83d 956d 11be d1e4 f83e 7896 d4be
00000240: 9e15 e83e 5de5 b5be 1c9d a33e e793 543e
00000250: 73b5 4f3e 6ab6 00bf b16d 8abe b2b1 85be
00000260: 5b33 403d 8cad 203f 4f05 873d 5ad9 5dbe
00000270: 905e 14bd bbde e33e 3d16 32bd 48e3 7b3e
00000280: 83bb 5c3e a14a 133f 0259 d13e 72e2 0c3f
00000290: a5e3 ed3e 2bf3 22be ff03 dd3e 4a58 81be
000002a0: 2e61 373f 7697 9cbe b049 f53e eef9 413e
000002b0: b064 48bd dd0e 153f 9a36 16bf 9e3f a43e
000002c0: 60b2 e93c 3389 7ebe e148 143f ab26 f93e
000002d0: 665d 0cbf c536 fc3e 1338 f03e 2dc8 bf3e
000002e0: 3162 a8be f353 43be a970 3a3b 0011 003e
000002f0: 17dd 193f 410e 0b3e 4290 0d3f 2c76 c6be
00000300: a0e0 fb3c 7488 e8bd d815 bcbd cc8b 5e3e
00000310: 0f7c 1bbf 9a27 8dbe a8c0 7c3e ba4a f2be
00000320: 7897 15bf 0862 b5be ba9f 19be 534d 98be
00000330: 663d d43e 5058 2bbd 3036 633d 10ad cabd
00000340: 0441 bbbe 88b5 463e 2c77 49be 29e2 02bf
00000350: 00b0 ff3b 9e4e 873e 4cf4 0abf 89ea bbbe
00000360: ce8a a4be 1e0c d83e 698d f4be d854 b9bd
00000370: e0fe 313d 9ae5 4abe ee6b ab3e ff65 8bbe
00000380: 90c3 f83e 467f adbd d1b5 8ebe e33e debd
00000390: ed91 2c3e 541b dc3e d583 d73d c953 d2bd
000003a0: 986d 873e 0115 07be 9136 213d 39b3 9bbe
000003b0: 2913 82be c645 68bd 4bd6 bcbe 3a45 fc3e
000003c0: c148 c5bd 0db5 613e 50e7 e53d 106d 12bf
000003d0: 873a f2be e169 0cbd 230c a43e bbb6 b43e
000003e0: c888 ae3e e570 e73e 011a 5b3d cdbe 613e
000003f0: 105c 0e3e a5b2 9bbe 3c8f 023f bcbf 7c3e
0.06651778 -0.20579296 -0.3893199 0.121858045 -0.13073497 -0.60071224 0.5267414 -0.5010654
0.3046198 0.050982278 0.4569024 -0.28366575 0.16454655 -0.5524963 -0.45383322 -0.012530506
0.50547427 -0.031744316 -0.03369099 0.27237913 -0.13108829 -0.011407883 -0.34843898 -0.41444427
0.5248905 -0.37448484 -0.48478246 0.1391287 0.0003799796 0.1023433 -0.49583724 0.34377807
0.34196833 0.05474361 -0.31275693 0.29069665 0.1866168 -0.2553625 0.017682929 0.16183086
-0.18701583 0.31060335 0.35873377 0.3982898 -0.46919572 0.47838837 0.03979724 -0.038434684
0.2072555 0.13257405 -0.5463976 -0.45056176 -0.09783266 0.5887032 -0.35298717 0.6343741
-0.21892497 0.43316427 0.00870531 -0.5702492 0.46431488 -0.61684906 -0.15480077 -0.1550991
0.50634825 -0.46951666 -0.5687837 0.07307902 -0.18357326 -0.4013554 -0.3686226 -0.5482403
0.5077749 -0.482525 0.15053545 0.33605653 0.055858374 0.19466 0.2541189 -0.5598786
0.43857616 0.14543194 0.5773433 -0.31528056 -0.30359048 0.5461572 -0.6083763 -0.3675562
0.42273945 0.2519318 -0.44536054 -0.3605881 0.44753474 0.22987592 -0.14369956 -0.49290752
-0.7482068 0.13226579 0.08451712 0.14631249 -0.11604124 0.692503 0.02015364 -0.022643482
0.34749496 -0.3339415 -0.7808536 0.24554083 0.15811574 -0.024320034 -0.0062756995 -0.1194534
-0.06974233 -0.3374038 0.11014253 0.020869965 0.5609212 -0.33916336 0.25463957 -0.5209374
-0.6620167 0.32816803 0.17686562 0.054350037 0.10170102 0.67212814 -0.4840224 -0.13252991
-0.39470145 -0.34345973 -0.29706168 0.32804486 0.23616663 0.008074654 0.12684101 0.08650183
0.060081284 0.13836315 0.23119985 0.4237234 0.09774727 -0.14201958 0.48612073 -0.4152105
0.45328993 -0.35526553 0.31955802 0.20759545 0.20284061 -0.5027834 -0.27036813 -0.26112133
0.046923976 0.6276481 0.065928094 -0.21664944 -0.036222994 0.44505867 -0.04347824 0.2459842
0.21555905 0.5753575 0.4088822 0.5503303 0.46462741 -0.15913074 0.4316711 -0.25262672
0.7163266 -0.30584306 0.47907782 0.18942997 -0.048924148 0.58225805 -0.58677065 0.32079786
0.028527439 -0.24857025 0.57923704 0.48662314 -0.54830015 0.49260536 0.4691778 0.3745741
-0.32887414 -0.19074993 0.0028448498 0.12506485 0.6010298 0.13579656 0.55298245 -0.38762033
0.030746758 -0.11354151 -0.09183854 0.21733016 -0.60736173 -0.27569276 0.24682868 -0.47322637
-0.5843425 -0.35426354 -0.15002337 -0.29746494 0.41453093 -0.04183227 0.0554716 -0.0989629
-0.3657304 0.19405186 -0.19674367 -0.51126343 0.0078029633 0.26427168 -0.5427902 -0.36702374
-0.3213715 0.42196745 -0.47764137 -0.09049386 0.04345596 -0.19814149 0.3348078 -0.27226254
0.48586702 -0.08471541 -0.2787309 -0.108518384 0.16852541 0.429896 0.10523192 -0.10269887
0.264508 -0.13191606 0.03935868 -0.30410174 -0.25405243 -0.056707166 -0.36882243 0.49271566
-0.09633017 0.22041722 0.1122576 -0.57197666 -0.47310278 -0.03428066 0.3204051 0.35295662
0.3408873 0.4520332 0.053491596 0.22045441 0.13902307 -0.30409732 0.5099981 0.24682516

layers.4.bias f4 [16]
00000000: 0c41 73bd 512c 33bd 7f11 173e 4ed8 2c3e
00000010: d855 09bc 0000 0000 84d5 03be cdb2 103c
00000020: 87cc 193e e343 a2bd 22c1 3a3d b6a2 b13d
00000030: 0000 0000 0000 0000 b712 093e 102f 9fbd
-0.059388205 -0.043743435 0.14752768 0.16879389 -0.008382283 0.0 -0.12874418 0.008831692
0.15019427 -0.079231046 0.045594342 0.08673613 0.0 0.0 0.13386045 -0.07772648

layers.6.weight f4 [16, 16]
00000000: 7cf7 1cbe 0b99 d53e b64d abbd 2c3f 1fbe
00000010: cf9a c2be b81d acbe bf1f 873d 1a61 a2be
00000020: b77a 013f a990 90be b70f 6f3e 910b 5e3e
00000030: 89c2 f8be 8d84 083f febb 76be 5e39 bb3e
00000040: f51b 30be 5df5 00bf 495e 953e e10e 3b3e
00000050: ae82 5b3d 6005 c53d f70a a4be 7101 583d
00000060: 1b61 933e d463 fa3e f340 88bd 621f d43e
00000070: 3434 a2be 91de 91be cd9e e23e 57f2 36be
00000080: 673f aebe 223c 983e 6af8 64be 68ce 2dbe
00000090: 449a 1cbe f292 fc3e 211f fd3e 44ca d7be
000000a0: 1302 0ebf 4989 09bf 008d 08bf 7dce b93e
000000b0: ad73 06bf 0605 ea3e cc4a da3e c932 e5bc
000000c0: 8a94 12be 5f68 afbe 3bbe 8c3e 3819 e03e
000000d0: b2c4 2d3e 921c c5be 544a a53e f559 a73e
000000e0: e8c8 b53e 8103 9c3e 99c4 163e e003 c63a
000000f0: d19a 193f ed6f 9dbe f0c0 543d c2c9 c3be
00000100: bb90 1cbf e008 e2be 2f07 023f 9715 963c
00000110: a1d4 62be ccba 54be 891b 1dbd e7b5 e3bd
00000120: 30c2 14bf 2c0d 0e3e 18ed b4be 2f11 aebd
00000130: 2804 cbbd 2ad6 c93e 4e9a 8a3d 66b4 19bf
00000140: 54e6 133f 78f7 05bf 57a5 073f 139f 1b3f
00000150: 0ac8 43be 503f e1bd 1061 913e 27cb 213f
00000160: 924e 2c3f 228b fabd c930 103f cf0f 4b3e
00000170: 9975 9ebe 6608 b53e 6cc1 ab3e 110a 8bbe
00000180: dab2 b3be 301c 42be c039 c2be 4888 dabe
00000190: 6e12 943e 9ead ddbe d421 acbe 7c16 083e
000001a0: 9947 3c3d 55cc 203e 20f9 29be c29c 383e
000001b0: 1800 aebd a960 0e3f dd25 80bc 588a be3e
000001c0: f61e 803e 68fa b93e 9e7b 0bbf fe03 5c3e
000001d0: 005c 233d 603d d1bd f5d8 05bf ca00 f33e
000001e0: 0f69 6b3d 14da fabe 9ed3 0bbf e229 b53d
000001f0: 48e7 4bbe c8d6 0f3e 1349 d73d 907f 2dbf
00000200: 909e bcbd bf89 013f 8658 c83e 16a0 f73e
00000210: 28a7 bbbd f2dc f33e 943e 48be 983b 653e
00000220: 30bf 75be 4165 fcbe f828 1dbe 49c6 18bf
00000230: 5e77 19bf a05e f03d 00f1 24bd 5c71 8b3e
00000240: 3d5b 153f b170 92be 6e84 973e 357f b33e
00000250: 9035 e9be 6271 f43e 7888 e73e cc35 71be
00000260: e82b 95be bf94 513e 6b2e a03e eae4 873e
00000270: 3020 583d f03d 073d 74a8 27be 6d19 dc3d
00000280: 904e 6b3d e8de 9bbe dc0b e8be 7029 163e
00000290: e0f1 953d 97db 113f 38b3 8a3d 6188 1c3f
000002a0: d4ec 77be bc88 dcbe 6851 a4bd dc97 64be
000002b0: 209b d0bd b684 40be 155b 0f3f 8829 8b3e
000002c0: 57e7 953b 88c4 a13d 3f03 243f 0a26 ff3e
000002d0: 6ac7 aebd 0a0b 16bf 4121 eebe aef8 a6bd
000002e0: 035c 563e 488e 363e 6094 a23e ae76 b23e
000002f0: 8802 86be 182a 973e a501 c63d de07 753e
00000300: ad19 073f 94a4 b8be 167c 51bb be23 5ebd
00000310: 1b0d 0a3f b052 f5be 253f 933e 63ae ccbe
00000320: 4fb2 fcbe ca4d 16bf 5d64 8b3d 7e05 f23e
00000330: 382c 9ebe a0e0 333d 4586 f2be 63fd cfbe
00000340: e846 773e d8c6 b3bd a8e1 cbbd c170 b1be
00000350: 46d0 c23e b019 f0be fa44 90be 46dd cb3e
00000360: f80b 8a3e be56 10bf 1148 18bf 2635 b5be
00000370: 31b8 16bf 3eb7 db3e 0560 98be 3c62 793e
00000380: 79f8 e3be d3e8 7d3e a10e 1d3f 2f9c 8e3e
00000390: b703 1e3f c677 06be 1f87 0dbd 239c b5be
000003a0: bac5 6dbe 41d3 83be 5b59 703c 3e96 723d
000003b0: da4c 1fbe d790 81be cad8 0c3e 8a07 413e
000003c0: 8217 0ebf a39e 72be 826b 8c3e 884c 13bf
000003d0: d76d 0e3f f029 88bd 5d5f 233e 9e5c 02be
000003e0: 2f2c e4be 565f 823e fd8a 003e e043 c9be
000003f0: a49b 803e 9132 a4be 2031 e6be 830a 1ebf
-0.15328783 0.41718325 -0.083644316 -0.15551442 -0.38008735 -0.33616424 0.06597852 -0.31714708
0.50577873 -0.28235367 0.23345838 0.216841 -0.4858592 0.53327256 -0.24095151 0.36567205
-0.17198165 -0.50374395 0.29173496 0.18267395 0.053591423 0.09620166 -0.32039616 0.05273575
0.28785023 0.48904288 -0.06653013 0.41430193 -0.31680453 -0.28490117 0.4426178 -0.17865883
-0.34032747 0.29733378 -0.22360387 -0.16973269 -0.15293223 0.4933086 0.49437812 -0.42146504
-0.55471915 -0.53725106 -0.5334015 0.3629035 -0.5252026 0.45706958 0.4263519 -0.027978318
-0.14314476 -0.34259316 0.27488884 0.4376924 0.16969565 -0.3849836 0.3228327 0.3268582
0.35504842 0.30471423 0.14723434 0.0015107356 0.60001856 -0.30749455 0.051941812 -0.38239866
-0.6115834 -0.44147396 0.5079221 0.018320842 -0.22151424 -0.20774382 -0.038356338 -0.111186795
-0.58108807 0.13872212 -0.35337138 -0.08499371 -0.09912902 0.39421207 0.067677125 -0.6004089
0.5777333 -0.5233073 0.52986664 0.60789603 -0.19119278 -0.10998404 0.28394365 0.6320061
0.6730739 -0.12233569 0.5632444 0.19830249 -0.30949095 0.3535797 0.33546007 -0.27156118
-0.3509739 -0.18956065 -0.37934685 -0.426821 0.2892031 -0.43296522 -0.3361956 0.13289827
0.04596672 0.15702946 -0.1659894 0.18028548 -0.08496112 0.5561624 -0.015643055 0.37214923
0.2502362 0.36323857 -0.544855 0.21485898 0.03988266 -0.102167845 -0.52284175 0.4746154
0.05747324 -0.48994505 -0.5461978 0.08845879 -0.19912446 0.14046776 0.10511985 -0.6777277
-0.09209931 0.5060081 0.39130038 0.48364323 -0.09162742 0.47629505 -0.19555122 0.22386014
-0.23998713 -0.49296 -0.1534766 -0.5967756 -0.59947765 0.11736798 -0.040268898 0.27234924
0.58342344 -0.28601602 0.29593223 0.3505799 -0.45548677 0.47742754 0.45221305 -0.23555678
-0.2913506 0.20466898 0.31285414 0.26541835 0.05276507 0.033018053 -0.16372854 0.10747037
0.05744797 -0.304435 -0.45321548 0.14664245 0.073215246 0.5697569 0.067724645 0.611456
-0.24211437 -0.4307307 -0.080233395 -0.22323555 -0.10185838 -0.18800625 0.55998355 0.27180123
0.004574697 0.078988135 0.64067453 0.4983371 -0.08534129 -0.58610594 -0.46509746 -0.08152901
0.20933537 0.17827713 0.31753826 0.3485617 -0.26173806 0.29524302 0.096682824 0.23928782
0.52773553 -0.36063063 -0.003196483 -0.054233305 0.5392625 -0.47914648 0.28759113 -0.39976797
-0.4935479 -0.58712447 0.06806252 0.47269815 -0.3089311 0.04391539 -0.47368065 -0.40623006
0.24148142 -0.08778161 -0.0995515 -0.34656337 0.38049525 -0.46894598 -0.28177625 0.39817256
0.26962256 -0.5638236 -0.59484965 -0.35392112 -0.58874804 0.4291324 -0.29760757 0.2435388
-0.44525507 0.24795847 0.61350447 0.27853534 0.6172442 -0.13131627 -0.03455269 -0.35470685
-0.23219958 -0.2574711 0.0146697415 0.059225313 -0.1555666 -0.25305817 0.13754573 0.18850532
-0.5550462 -0.23693328 0.27425772 -0.5753865 0.5563635 -0.06648624 0.15954347 -0.12730643
-0.4456496 0.2546336 0.1255302 -0.39309597 0.25118744 -0.3206983 -0.44959354 -0.6173479

layers.6.bias f4 [16]
00000000: f1f3 933c 6636 a43d bd55 2a3c b659 c7bc
00000010: 14c0 81bd e8aa 563e 6db1 1dbd c523 f5bd
00000020: 0000 0000 c38b 24bc 0000 0000 3bc2 393e
00000030: edd0 ebbd 0000 0000 72ed ea3d 4ffc 97bd
0.018060656 0.08018188 0.010396418 -0.02433477 -0.06335464 0.20963633 -0.038499285 -0.11969713
0.0 -0.010043087 0.0 0.181405 -0.11514459 0.0 0.1147107 -0.07421171

layers.8.weight f4 [5, 16]
00000000: 8602 233f 40d1 303f 4b6f 183f 1889 193f
00000010: 1c45 3c3f aab3 ee3d c960 f8be c663 10bf
00000020: 16e1 e63e c1e0 eebe 10ff c5bd f18f 683d
00000030: 7e01 8a3d c79e 2fbf 1ebe 313f 6faf 09bd
00000040: 3ae2 c4bd 0aa1 77be af67 853d 7d80 11be
00000050: 1c2a c8be fe30 123f 04e1 4e3e 6953 6c3e
00000060: fcca 08bf 3fa4 423f d815 6fbe ae91 e53e
00000070: 5fd8 5fbe 70b6 cabd f907 473e a95a 193e
00000080: 167c 523c 0b4e 0abd 9649 a0be 3c72 dabd
00000090: 4400 f6be 2817 333f 5f1d aabd bdff 973d
000000a0: 911b 22bf cadf ddbe 2319 fdbe abd8 d13e
000000b0: a240 fa3e 806e b53b 1a14 1d3f c457 1fbf
000000c0: 46be 20bf 96a2 bd3e 47e8 a9be 4673 81be
000000d0: e1bc ff3e 9a21 073e 8e63 023f fc74 8ebe
000000e0: b004 ba3d a101 463f 103c 713d 87b6 0b3f
000000f0: db48 1a3f cb22 1b3f 0e7d 0c3f 0085 edbe
00000100: 3f06 aa3e 15d4 c43d 73b5 cfbe 26d0 81be
00000110: 90bf d33e a23d 023f a250 aa3e 435c f63e
00000120: 1470 793e 1f15 2d3f 8e36 c73e 3f73 dc3c
00000130: 8efc 8ebe 550d 21bf bc5e 273f 2c96 04be
0.63675725 0.6906929 0.5954482 0.59974813 0.7354295 0.11655362 -0.4851134 -0.5640224
0.45093602 -0.4665585 -0.0966779 0.0567779 0.06738566 -0.6860165 0.6943072 -0.033614572
-0.09613462 -0.24182525 0.06513917 -0.1420917 -0.39094627 0.57106006 0.20203024 0.23078693
-0.5343473 0.7603187 -0.23348176 0.44837707 -0.21859883 -0.098980784 0.19436635 0.1497599
0.012846967 -0.033765834 -0.31306142 -0.1066632 -0.48047078 0.6995721 -0.08306383 0.07421825
-0.63323313 -0.433348 -0.4943324 0.40985617 0.48877436 0.0055368543 0.613588 -0.62243295
-0.62790334 0.37038106 -0.33185026 -0.2528326 0.4994879 0.13196412 0.5093316 -0.27823627
0.09082925 0.77346236 0.05889517 0.5457539 0.6026742 0.60599965 0.5487832 -0.46390533
0.3320789 0.09610764 -0.40568122 -0.25354117 0.41357088 0.50875294 0.33264643 0.48117265
0.2435916 0.67610353 0.3890881 0.026910422 -0.2792706 -0.6291097 0.6537893 -0.12947911

layers.8.bias f4 [5]
00000000: 907f 133e c2fc df3d 23ad 1d3e ad04 473e
00000010: 6e29 113e
0.1440413 0.109368816 0.15398078 0.19435377 0.1417596
