stocks_google.pt (torch, 988117 bytes, 12 tensors)

layers.0.weight f4 [128, 1400]
000000 21 d5 98 3b e7 03 1b bd 17 b0 22 3d a3 1e 7a 3d
       0.004664079 -0.03784552 0.039718714 0.061064374
000010 24 f2 08 bd da f8 74 bc 84 a9 6e 3d 59 70 7a 3d
       -0.03343405 -0.014951909 0.05826713 0.0611423
000020 4b f4 8d 3d 17 b5 30 3d 04 66 79 3c 44 89 54 3d
       0.06931361 0.04314145 0.015222076 0.05188872
000030 86 d4 92 bd 42 53 99 bd 7a 72 05 3d b9 0d c7 bc
       -0.07169442 -0.07486583 0.032579876 -0.024298536
000040 75 73 54 bd f2 64 44 bd 44 e4 8d bd 71 b8 33 bd
       -0.05186792 -0.04794783 -0.06928304 -0.04387707
000050 43 c7 9a bd 7d 4d f9 bb de a6 45 bd fa e6 51 bc
       -0.075575374 -0.0076081143 -0.04825484 -0.012811417
000060 2f 55 be 3c f4 c6 5f bd 02 d0 97 bd 99 4c 24 3c
       0.023233978 -0.054633096 -0.07412721 0.010028028
000070 d0 02 10 3d 9d ae 09 3d f9 05 c5 bc 1b 0a 88 bc
       0.035158932 0.03361379 -0.0240507 -0.016606381
000080 98 de 7d bd 27 0d b1 3d 77 f2 6d 3c 41 e8 f8 bc
       -0.06197986 0.08645087 0.01452314 -0.030384185
000090 9f 94 d5 3c d3 e1 7a 3d 60 3f c6 3c 79 0d 82 bd
       0.026071845 0.06125052 0.024200141 -0.06350226
0000a0 db 8c 0f bc 0a 94 6e bd 15 c8 28 bd dc 0f e2 bc
       -0.00876161 -0.05824665 -0.041206438 -0.027595453
0000b0 0e ea be 3d 41 04 9b 3d 61 51 2d 3b ea ed 80 bd
       0.09321986 0.07569171 0.002644621 -0.062953785
0000c0 46 02 4c 3c c4 69 81 bd ab 12 3e 3d 99 b5 3c 3d
       0.012451714 -0.06319001 0.046404522 0.046071623
0000d0 16 29 03 3c b4 2c cd bd a5 4f d1 bb cb 71 e4 bc
       0.008005401 -0.10018292 -0.006387668 -0.027886292
0000e0 11 85 68 3d 0c 1f a9 3d 7f a6 72 bd 7c 49 7d bd
       0.056767527 0.08257875 -0.059240814 -0.06183766
0000f0 e3 ef a1 bd 3b b7 f8 bc c5 b3 44 3d f0 1a 38 3c
       -0.07907083 -0.030360809 0.048023004 0.011236891
000100 07 93 3a bd d4 58 7b 3c 00 b8 74 bd f3 e8 51 ba
       -0.045550372 0.0153410025 -0.05974579 -0.00080074294
000110 e4 58 2b 3d ba be 88 bd 02 82 94 bd 83 05 0b ba
       0.04183282 -0.06677003 -0.072513595 -0.00053032505
000120 0b ab 54 bc ba c7 93 bc a6 ec 40 bc c7 d1 5f 3d
       -0.012980233 -0.018039573 -0.011775171 0.05464342
000130 27 f8 97 3c 4c dd 46 3d 87 7d 33 3c 33 b9 22 bd
       0.018550945 0.04855089 0.010955221 -0.0397274
000140 29 e3 ab 3d 03 b2 8e bd 34 ab b8 3b 41 6c 8c bd
       0.08392937 -0.06967547 0.0056356434 -0.06856585
000150 df 28 2c bd e9 63 c1 bb 41 43 38 3c 32 23 84 bd
       -0.042031165 -0.005901803 0.011246503 -0.064520255
000160 bd 55 6e bb fa f3 83 3c 3d f4 58 3d 20 2c 9f 3c
       -0.0036367022 0.016107548 0.0529673 0.01943022
000170 4f 7d 9e 3d 93 d9 1b bd 4a d2 fa bc ae c7 6c bc
       0.077387445 -0.03804929 -0.030617852 -0.014451904
000180 9c 73 0f 3c d5 fd b7 3d 74 3c 3a bc e4 73 99 3b
       0.008755591 0.089839615 -0.011366952 0.0046830047
000190 5f cc 8c bd 3d 60 b7 3d 37 4e 70 bd 9f 2a 8e 3d
       -0.06874918 0.08953903 -0.05866834 0.06941723
0001a0 16 cf 57 3d 37 ed b5 3d 70 8e 72 bd f8 d4 e1 3b
       0.052687727 0.08883136 -0.05921787 0.006891843
0001b0 5c 6a d2 3c f2 e0 6c bd 2d 45 85 bc 93 90 ec bc
       0.025685482 -0.057831712 -0.016268337 -0.028877532
0001c0 cb fd 5c bd 4c 79 31 3d db e3 2c bd df 0b 8f bd
       -0.053952973 0.04332857 -0.042209487 -0.06984686
0001d0 3a 3d 8d 3c af 6e 7c 3d 35 c3 35 bd 2f 4a 50 3d
       0.01724111 0.061628994 -0.044375617 0.050851997
0001e0 1e 5f b0 3d 28 ab 91 bb aa 41 17 3d de 93 4d 3d
       0.08611892 -0.0044454522 0.036927857 0.050189845
0001f0 6f 33 7c 3d 92 0e 38 3d 11 57 78 bd 40 9e 05 3d
       0.06157249 0.04493577 -0.060629908 0.032621622
000200 f4 12 25 bd bb e8 3d bd 4c 9f 96 bd 35 37 9e 3c
       -0.04030128 -0.046364527 -0.07354602 0.019313434
000210 7c 31 90 bc f9 61 c6 3d 85 87 bb 3c c0 e5 b4 bc
       -0.017601721 0.096866556 0.02289177 -0.02208221
000220 a9 6d 53 3d a9 10 93 bc fe 4f 9e 3d 31 22 6c 3c
       0.051618252 -0.01795228 0.07730101 0.014412449
000230 7f b9 8a bd 9a 28 9c bd 91 f7 51 3b 61 8f 23 3c
       -0.06773662 -0.07624932 0.003203843 0.009982915
000240 23 30 46 3d e9 c2 27 3d 29 b1 31 3c c0 54 92 bd
       0.04838575 0.040957365 0.010845461 -0.07145071
000250 e2 99 c5 3d 19 6d 2d bd de 7e 11 bd 47 dd 2d bb
       0.096484914 -0.04234037 -0.03552138 -0.0026529597
000260 9f c8 90 bd 67 cc 71 3c e4 66 a4 3c 8b 3f 12 3d
       -0.070695154 0.014758206 0.020068593 0.03570513
000270 78 40 99 3d ed 1d bc 3d 23 1f 9e 3c 5e d5 75 bc
       0.074829996 0.091853954 0.019301957 -0.015004484
000280 e1 0b 79 bc cf 28 2c 3c 4e db 0f 3d f7 c4 54 3c
       -0.015200586 0.010507776 0.035121255 0.012986413
000290 22 03 aa bd 64 b2 ce 3c f7 fe f9 3c 9f d1 cd bd
       -0.08301379 0.025231548 0.030517085 -0.10049748
0002a0 d3 41 19 bd b7 c0 87 3d e0 70 25 bd f3 28 8e bd
       -0.03741629 0.06628554 -0.04039085 -0.06941404
0002b0 05 41 5a bc 30 63 7e 3d f5 39 b6 3d ee a9 e1 3c
       -0.013321166 0.06210631 0.08897773 0.02754685
0002c0 fb 78 19 bd 76 d6 20 bd 1d 9f ed 3c eb 93 38 3d
       -0.03746889 -0.039267026 0.029006535 0.04506294
0002d0 b0 6e aa bd ac 05 96 3d 4b 35 c3 bc 6e 92 81 3d
       -0.08321893 0.073253006 -0.023829123 0.06326757
0002e0 60 db 97 bd 1e 43 e6 3c 4a ae ad bc f3 8e b9 3b
       -0.07414889 0.028108176 -0.021201272 0.005662793
0002f0 d8 71 1e bd df b5 11 bc 8a 76 94 bd ac 17 a7 3d
       -0.03868279 -0.008893459 -0.07249172 0.08158812
000300 c9 92 6b 3d 16 12 91 bd cd 8b 8d 3d 4b e6 4d bd
       0.057513032 -0.07083528 0.069114305 -0.050268453
000310 01 7b 4f 3d 50 41 84 bd 79 4f a0 bc d2 7a a9 3d
       0.050654415 -0.0645777 -0.019569146 0.08275379
000320 9b 28 74 3c 08 f8 fe 3c fa e3 8e 3d 16 7e f2 bc
       0.014902259 0.03112413 0.06977077 -0.029601138
000330 40 06 0e 3c c3 49 08 3d a5 b7 e9 3c 91 7c 51 3c
       0.008668482 0.03327347 0.028529951 0.012786047
000340 a6 de a3 bc 2c 93 09 bd af 11 77 bd 02 5d 90 3c
       -0.020003628 -0.03358762 -0.0603196 0.017622475
000350 e3 24 bd 3d 2a 7e 99 bc 80 86 20 3c 0e c2 75 bd
       0.09235551 -0.018736918 0.009797692 -0.059999518
000360 d3 bf b2 3d a0 e4 3f bd 74 e4 52 3c f1 cc a1 3d
       0.08727994 -0.046848893 0.01287185 0.079004176
000370 a7 51 b6 bb bc a5 7b 3d c6 c6 a4 bd d5 a5 cb 3c
       -0.005563933 0.061437353 -0.080457255 0.024859348
000380 f0 ee 9c 3d 5b 06 df ba 84 55 2b ba 66 25 8e 3d
       0.07662761 -0.0017015444 -0.0006535875 0.06940727
000390 9f 05 05 3c d6 98 a4 bd 55 7f 1a bd 67 77 2c bc
       0.008119016 -0.08036964 -0.03771909 -0.010526515
0003a0 86 00 03 3d 10 97 bf bc c1 09 a2 3d ea 11 16 3d
       0.03198292 -0.023387462 0.07912017 0.036638178
0003b0 9e e3 39 bd 2f 78 16 bd 7f fe 30 bc 0f e4 2a 3c
       -0.04538309 -0.03673571 -0.010802864 0.01043035
0003c0 c4 dd 8f bd 85 2f 60 bc 41 da 1c bc a2 5e 93 bd
       -0.0702472 -0.013683205 -0.00957352 -0.07195784
0003d0 85 bc 5a 3c 74 2b 16 bd 6a 42 20 3c 15 40 7d 3d
       0.013350611 -0.036662534 0.009781459 0.06182869
0003e0 ec b2 01 bd 08 c6 9b bd 72 a9 92 3c af 12 a9 3d
       -0.031664774 -0.07606131 0.017903063 0.08255517
0003f0 82 97 79 bd 70 9c 88 bd 0a 90 b3 bc c7 67 8d bd
       -0.060935505 -0.06670463 -0.02191927 -0.069045596

layers.0.bias f4 [128]
000000 7b 04 82 bc 02 17 08 bd 39 b8 53 3c 03 7f cc bc
       -0.015871277 -0.033225067 0.01292234 -0.024962908
000010 45 b7 f4 3b 02 39 8e 3c 12 23 28 bb 17 1a 07 bb
       0.0074681365 0.017361168 -0.002565567 -0.0020614916
000020 19 fe 76 b9 d7 6a 50 bc b5 b0 83 3b e9 15 77 3c
       -0.00023555047 -0.012720785 0.004018868 0.015080907
000030 fc 6f 81 3a 0d f5 e1 3c aa 51 8d bb ae a6 18 3b
       0.0009875293 0.02758267 -0.0043127136 0.0023292708
000040 4e 47 d9 3c 5c d8 f0 b9 4d 5a 14 ba f2 6f 8f bc
       0.026523259 -0.00045937567 -0.0005659208 -0.017509434
000050 1f f6 31 bd 69 95 f5 3c 5e c2 75 3c 12 23 1a bc
       -0.04344761 0.02997847 0.014999954 -0.0094077755
000060 bd fd 6d 3c 7a 9d 20 3c 45 da bc bc 76 75 6e 3c
       0.014525828 0.00980317 -0.023053298 0.014554372
000070 68 eb 91 3a 37 17 8a 3b f7 d3 b0 3c 93 72 af 3c
       0.0011132779 0.004214193 0.021585448 0.021416938
000080 10 cf 68 3c 52 19 1d bd 91 a8 03 bd 76 40 a0 3c
       0.014209524 -0.038354225 -0.03214318 0.019561987
000090 1c e8 93 3c 49 4c 5e 3d b0 1b aa 3c 25 fd 99 3c
       0.018055014 0.05427197 0.020765156 0.018797467
0000a0 7d 5b 0b bd 63 5d 23 bd dd ec b3 3c 23 fb 4a bd
       -0.034022797 -0.039883982 0.021963531 -0.04955591
0000b0 b9 4a 9d 3c 72 88 73 bc 2e 14 96 3c 49 19 71 bc
       0.01920067 -0.014864074 0.01832017 -0.014715501
0000c0 df a9 aa 3c 1b 34 9f bc d8 a7 83 3c f2 85 03 bd
       0.020832954 -0.019434026 0.016071245 -0.032110162
0000d0 d5 9c 95 bb 8c 95 ee bb 74 a4 78 3c 70 51 6c 3c
       -0.004565815 -0.007281011 0.015175927 0.014423713
0000e0 1e 19 a1 3b 50 47 c8 ba fc e2 94 3c e7 57 2c bd
       0.0049163243 -0.0015280042 0.01817464 -0.042076018
0000f0 30 1a a3 bc 59 14 01 3d d2 48 69 3c 40 ab 16 ba
       -0.019909948 0.031513546 0.014238553 -0.0005747564
000100 2a 00 91 3a 1f c2 ca bc 61 dd 03 3b 74 bc d4 3a
       0.0011062671 -0.024750767 0.0020120966 0.001623048
000110 60 e5 a8 3c 2b 17 52 3c ac af 87 3c 7a 0c c1 bc
       0.020617187 0.0128229065 0.016563259 -0.02356552
000120 f8 88 05 bd 15 03 30 3b a6 86 90 bc 2e f9 59 3c
       -0.032601327 0.0026857306 -0.01764233 0.013304038
000130 6d 5d a7 3c 4c d3 5c bc 47 d6 8e 3c c4 33 5f 3c
       0.020430291 -0.0134781115 0.01743616 0.013623182
000140 2c 0f 9a 3c 67 73 39 bd 41 3c 97 3c 12 90 7c 3c
       0.018806063 -0.045276072 0.018461348 0.015415208
000150 08 09 1e bc 42 88 f4 3a de 58 a4 3c 4c 20 f1 bc
       -0.009645708 0.0018656331 0.020061906 -0.029434346
000160 32 11 94 3c 7c d1 bb bc fd b0 cf bc d1 13 6c 3c
       0.018074606 -0.022927038 -0.02535295 0.0144090215
000170 72 11 be 3b 64 d3 48 bb d3 2f c4 bc df cc 9c bc
       0.0058004195 -0.0030643577 -0.023948586 -0.019140659
000180 26 dc 7b bb 02 ee 39 bc 87 66 b0 3c 3d 20 9d 3c
       -0.003843078 -0.011348249 0.021533264 0.019180411
000190 b3 a1 49 bb eb 83 a6 3c d7 a7 fb bc f8 a1 ca 3c
       -0.0030766546 0.020326575 -0.03071968 0.024735436
0001a0 9d 61 20 bc ae fe de bc 58 43 94 bc 2b 50 b5 3c
       -0.009788898 -0.02722105 -0.018098518 0.022132954
0001b0 3b b0 b3 bc 27 cd 89 3c fa 67 26 bc 3a 1d a7 3c
       -0.02193462 0.016821457 -0.010156626 0.020399678
0001c0 e5 80 86 3b 1c e8 87 bb 68 5a 06 ba 53 f7 a5 3c
       0.004104721 -0.0041475426 -0.0005125166 0.020259535
0001d0 a6 5b 1e bd b8 cc 09 39 d8 c9 44 38 a8 38 94 bc
       -0.03866162 0.00013141602 4.6918023e-05 -0.018093422
0001e0 0f 9a 67 bb d4 51 55 bb 02 cc de bc 90 bc 98 bb
       -0.0035339629 -0.0032549994 -0.027196888 -0.0046611503
0001f0 51 30 6b 3c 8e 2b a9 3a 34 71 8d 3c cd fd 20 3b
       0.014354781 0.0012906657 0.017265894 0.002456534

layers.2.weight f4 [128, 128]
000000 40 c8 34 3e db 90 3b bd 8b ff ad 3d 09 cd 03 be
       0.17654514 -0.04579244 0.084960066 -0.12871183
000010 26 c5 3f 3e b8 cc 18 3e a1 cd 43 3e cb b5 12 3e
       0.1872755 0.14921844 0.1912141 0.14327161
000020 ed de bd bd 4b 7b b1 3d 0c a2 1c be 3a 5f 0a be
       -0.09271035 0.086660944 -0.15296191 -0.13512889
000030 66 bb ea 3d 17 9b 27 be a9 64 4c bd 94 3e 21 bd
       0.11461525 -0.16367756 -0.049900685 -0.03936632
000040 d9 04 25 bd 9e 3e 62 bd f2 14 07 3e f9 ea e2 bc
       -0.040287826 -0.055235498 0.13191584 -0.027699934
000050 b3 53 c1 bd 44 7f ef 3d 98 b8 44 be cf c7 d9 bd
       -0.094397925 0.11694196 -0.19211042 -0.106338136
000060 5d 49 b9 3b 95 99 7c bc 9a c7 e0 3d 5e a9 38 3e
       0.0056544975 -0.015417476 0.10975571 0.18033358
000070 2a 47 ec bc dc 4f 4b bd 9c 9b a2 3c 48 af 57 be
       -0.028842527 -0.049636707 0.019849591 -0.21062958
000080 a9 4c 43 3e 13 0b 9d bd 2d ea 45 be 2e 8d 17 3e
       0.19072212 -0.07668128 -0.19327612 0.1479995
000090 16 29 6c be 4e ec 01 3e 26 32 26 bd d2 2f ae bd
       -0.23062548 0.126878 -0.04057517 -0.08505215
0000a0 1e 3c c0 bc af 89 8c bb 17 f1 fa bd eb f7 34 bd
       -0.023466166 -0.004288874 -0.122530155 -0.044181745
0000b0 56 a4 4a 3e e0 26 7e 3d 6f da 15 3e 1e e8 d3 bc
       0.19789252 0.062048793 0.14634107 -0.025867518
0000c0 10 bf 3f 3e 8b 68 ac 3c b4 00 23 be 18 07 30 bd
       0.18725228 0.021045944 -0.15918237 -0.042975515
0000d0 27 21 3a be 43 38 26 3e 17 69 56 3d aa b0 0c 3e
       -0.18176709 0.162324 0.052346315 0.13739267
0000e0 78 3e d2 3d 78 21 2d 3e 4b 84 f9 bd 25 c9 08 be
       0.10265821 0.16907299 -0.12183436 -0.1335798
0000f0 84 0f 21 3b d4 32 2f be 32 e7 ca bc 50 ed d1 bd
       0.0024575898 -0.17109233 -0.024768446 -0.10250342
000100 99 68 9e bd d1 1a 3b be 1f 40 4c 3d e6 e8 c9 3d
       -0.07734794 -0.18271948 0.04986584 0.09858875
000110 7e 47 a7 3c 41 ef 46 3e be c1 cc bd bd f8 2b be
       0.020419832 0.19427206 -0.09997891 -0.16794105
000120 1d 60 39 3e 89 d0 95 3d 6a 08 14 be fa 38 c8 bd
       0.1810307 0.073151655 -0.14456335 -0.097764924
000130 86 b9 34 be 43 ea f1 3d 99 0d a1 3d 06 0a 22 3e
       -0.17648897 0.1181226 0.07863922 0.15824136
000140 a0 39 10 be 59 05 a7 3c b1 a8 85 bd 10 fa 11 bd
       -0.14084482 0.020388292 -0.06526316 -0.03563887
000150 08 e5 45 3e 72 73 0f be ee f7 30 be b3 e5 43 be
       0.1932565 -0.14008883 -0.17282078 -0.19130592
000160 a0 87 cd bd 59 ca a0 3d a8 69 8e bd 0b 77 ff 3d
       -0.10035634 0.07851095 -0.06953746 0.124738775
000170 78 7c 01 3d 03 6c f5 3c 46 97 0a 3e 64 1d 3b be
       0.031612843 0.02995873 0.13534269 -0.1827293
000180 a5 8e 12 3e 4d 0d 4e 3e d9 a6 7d bd 17 30 64 be
       0.14312227 0.20122261 -0.061926696 -0.2228397
000190 be 29 b9 bd e4 86 24 be 93 8c 9c 3d a8 a6 ad 3d
       -0.09041165 -0.16067082 0.07644 0.08479053
0001a0 00 6c 90 3d 12 a0 57 be f7 00 df 3d 3c d6 a2 bd
       0.07051849 -0.21057156 0.10888856 -0.07951018
0001b0 fa a4 8c 3c a5 4d d1 3c 85 a7 90 3d a3 11 3e 3e
       0.01716851 0.02554972 0.07063202 0.18561415
0001c0 07 7f a8 3b eb 4b 2e 3d b2 a0 0c be 2e b8 07 be
       0.005142096 0.04255287 -0.13733175 -0.13253853
0001d0 c5 85 63 3d 67 87 f8 bd a8 c8 54 bd e4 58 01 3e
       0.055547494 -0.12135201 -0.051949173 0.12631565
0001e0 2c 0b e1 3d 24 95 e5 bb a3 26 76 3d cf ed e8 3d
       0.10988459 -0.0070063043 0.06009544 0.113734834
0001f0 a7 f0 43 be 18 70 ce 3d 61 87 06 bd b8 2c 56 3e
       -0.1913477 0.10079974 -0.03284395 0.20915496
000200 7c 0d 82 bd e1 43 a6 bd e9 37 db bc a8 59 61 3e
       -0.06350228 -0.081184156 -0.026760058 0.22006857
000210 44 bc 59 bc 85 ea 39 be c2 25 4b 3e 68 02 4f 3e
       -0.013289515 -0.18155868 0.19838622 0.20215762
000220 bf 60 88 bd 14 6c d2 bc 19 e8 2b 3d 8d 09 a5 bd
       -0.06659078 -0.025686301 0.041969392 -0.08058462
000230 4b 2b 1c 3e 7f 59 1a bd b1 99 a4 bd 58 1b 1e be
       0.1525089 -0.037683006 -0.08037127 -0.15440118
000240 67 d5 2a bd 56 2a 4f 3e d6 e6 23 3d f5 70 fb 3c
       -0.041707423 0.20230994 0.040015064 0.03069351
000250 96 57 4b 3d 3e f1 84 bc b8 50 37 be bc d9 bf bd
       0.049644075 -0.016228314 -0.17901886 -0.093677014
000260 c7 7b 3e 3d 75 9d 42 be d1 1a fb bd 01 43 d1 3a
       0.046504762 -0.19005378 -0.12260974 0.0015965403
000270 e0 94 6d 3d 60 81 9c 3c c9 bc b5 3d 46 4f c8 3d
       0.058003306 0.01910466 0.088738985 0.09780745
000280 eb d3 09 be a4 9d 07 3e a8 a4 53 be 62 ca 51 3e
       -0.13459747 0.13243729 -0.2066828 0.20487359
000290 b0 33 43 3e 42 af e1 bd 02 1a cf 3c e2 89 c0 3d
       0.19062686 -0.11019756 0.025280956 0.09401299
0002a0 b7 00 29 be 10 87 24 be 3f c6 ec bd 22 5e 79 3d
       -0.16504179 -0.16067147 -0.1156125 0.060880788
0002b0 d8 80 0c bb 74 e6 23 3e 15 04 13 3e 31 8f c3 3d
       -0.0021439102 0.1600588 0.14357026 0.09548796
0002c0 22 06 4f 3e bf da 16 3d 93 22 39 bd a5 8b c6 3d
       0.20217183 0.036829706 -0.04519899 0.09694604
0002d0 51 81 dc bd fd 86 23 3b 83 53 65 3c 2b 84 74 bd
       -0.10766853 0.0024952285 0.0139969615 -0.059696358
0002e0 f5 ff 21 be 4d 20 b4 bb ef a9 23 be 7c 94 bb 3d
       -0.15820296 -0.0054970146 -0.15982793 0.091591805
0002f0 38 7c 4b 3e d4 62 f3 3d e2 a6 f4 3b eb e1 02 3e
       0.19871604 0.11884084 0.007466183 0.12781493
000300 e5 f2 4e 3e 19 38 5c 3d 70 b1 3a be 09 e6 bb bc
       0.20209844 0.053764436 -0.1823175 -0.022936838
000310 77 a0 0f 3e ee 20 2c 3e 38 14 24 3e da 7b 36 3e
       0.14026056 0.16809437 0.16023338 0.17820683
000320 6f 34 60 3d 24 3e dd 3d e0 a1 28 3d f0 c7 ee 3d
       0.054737505 0.10802868 0.04117 0.11659229
000330 b5 d3 31 bd c2 b2 bf 3d cb b2 e1 bd 9f cb f8 bd
       -0.04341479 0.09360267 -0.1102043 -0.12148213
000340 fc 94 f3 bd 36 8a dc bd ac c9 17 3e c3 6e bf 3d
       -0.11893651 -0.10768549 0.14823025 0.09347298
000350 48 72 df 3d 69 62 cc 3c 9f e3 37 3c e7 dc f0 3d
       0.10910469 0.02494927 0.011223703 0.11760884
000360 b4 78 c3 3d ed a3 de bd cf 75 25 3e 65 53 0e 3e
       0.09544507 -0.1087111 0.16158222 0.13899
000370 22 27 4d be 23 f0 52 be 21 05 d3 bd 97 4d 12 bd
       -0.20034459 -0.20599417 -0.10303713 -0.035718527
000380 70 25 fa bd bc 18 0a 3b 82 01 01 be d4 92 90 3d
       -0.12214172 0.0021071872 -0.12598231 0.07059255
000390 02 3e 6b 3d 3a 21 19 3d 06 68 de 3c 5a b4 ed 3d
       0.057432182 0.037385203 0.027149212 0.11606665
0003a0 46 99 07 be fa cf 3c bd 5d 64 97 bd 16 da e2 bd
       -0.13242063 -0.04609678 -0.0739219 -0.11076753
0003b0 6e 56 7f 3b 14 dc 3c be f1 50 84 3d 60 60 40 3d
       0.0038961428 -0.18443328 0.06460751 0.04696691
0003c0 db 3c 05 3e 86 87 36 3e 85 bf 60 3e 34 5f 4c bd
       0.13011496 0.17825136 0.21948059 -0.04989548
0003d0 16 b9 16 be 58 76 5b 3e 9d b7 1b bd 51 d8 56 3e
       -0.14719042 0.21431863 -0.038016904 0.20980956
0003e0 c5 7b 5d 3e e4 d9 65 bd 30 8b 9e 3d a4 4b 4a 3e
       0.21629246 -0.056116 0.07741392 0.19755417
0003f0 79 e7 26 be 80 8d 32 3e 4e d0 2b 3e e9 05 a7 bb
       -0.16299237 0.1743679 0.1677868 -0.00509714

layers.2.bias f4 [128]
000000 2a 00 16 bc 13 03 be 3c f7 a3 5a 3c 73 c8 3f bc
       -0.009155313 0.023194825 0.013344756 -0.011705506
000010 1c f8 d5 ba 48 fb 0e bc ac b0 c7 bb 42 2c a6 bc
       -0.0016324553 -0.008726902 -0.006094059 -0.020284776
000020 09 30 e1 3c 27 7c 9a bb 5b 92 fa 3c 9c 71 f7 3a
       0.027488725 -0.004714507 0.030587366 0.0018878463
000030 4e 19 b7 3b ed ce 49 bc d3 e4 b2 bc 41 6b 95 3c
       0.0055877334 -0.012317401 -0.021837628 0.01823962
000040 f1 b6 02 3d d6 73 c6 bc 97 72 e5 3a 6f 60 48 bc
       0.031912748 -0.024225157 0.0017505464 -0.012230023
000050 a0 f2 17 ba d6 b4 fe 3b e0 96 9d 3c af 20 29 bc
       -0.0005796347 0.007773022 0.019236982 -0.010322734
000060 6c 47 04 3b f1 11 62 bc 13 4d 39 3b 21 9b 5e 3b
       0.0020184172 -0.013798223 0.00282747 0.0033966976
000070 f3 25 e7 bb 25 8d 17 bc 0f b7 5f 3b ba b6 c4 bc
       -0.0070540844 -0.00924996 0.003413621 -0.024012912
000080 77 ee d6 3c ec b4 fe 3c ad d1 48 3b ee 04 b8 bc
       0.026236756 0.03109213 0.0030642555 -0.022463288
000090 d3 c7 3b bc 53 91 2c 3c 33 9b 63 bc ea 14 c8 3c
       -0.011461216 0.010532695 -0.013891983 0.024424035
0000a0 7f 33 d2 bc 67 84 82 3c e6 4f cc bc c9 3d 3d bb
       -0.02565932 0.015932275 -0.024940442 -0.0028875938
0000b0 bc cb aa bc c3 d4 4d bc 0a ce 91 bc ce 18 6b bc
       -0.020849101 -0.012562933 -0.017798442 -0.014349176
0000c0 56 99 ec bb 08 47 f7 bb fb b8 6a bc 07 47 37 3c
       -0.0072204275 -0.0075463094 -0.014326329 0.011186368
0000d0 86 4c 0d 3d 4f c0 a4 3c f0 d1 67 bb 79 e8 ab bc
       0.034496807 0.020111231 -0.0035372935 -0.020984875
0000e0 48 94 12 bb 74 f5 8f bc 77 6e 91 ba 7a b8 61 bb
       -0.0022366215 -0.017573096 -0.0011095543 -0.0034442232
0000f0 09 bb bd 3a 0a 23 94 bb b9 af ad 3c 66 98 f8 3c
       0.0014475296 -0.0045207785 0.021201955 0.030346107
000100 cc 6b 0e 3d 00 00 00 00 0b cf a4 3c e7 e5 25 bc
       0.03477077 0.0 0.020118257 -0.010125614
000110 88 c0 09 3d 14 5b 02 3d 65 c8 c7 3b 5c 7c ae bb
       0.033630878 0.03182514 0.006096887 -0.0053248834
000120 41 4f b2 bc 7b bb d8 bc 2d c7 4c bc 65 c7 31 bc
       -0.021766307 -0.026456585 -0.012498659 -0.010850762
000130 f1 27 50 bc 91 ba ce 3c 38 87 c4 bb 77 c8 90 3c
       -0.012704835 0.025235446 -0.0059975646 0.017673714
000140 f7 c3 70 bc 07 02 3c bc 8c 48 d9 3c f9 60 9d bc
       -0.014695159 -0.011475093 0.02652385 -0.01921128
000150 4c 26 98 3c 8e 68 b6 bc 51 5d 8b bc e6 9b 7d 3b
       0.018572949 -0.022266652 -0.01701227 0.003869766
000160 4d f1 d5 bc 85 b5 35 3c e2 b8 a3 3c 04 63 ba 3c
       -0.026116038 0.011090641 0.01998562 0.022752292
000170 c7 1a 07 bc 2c f3 1a bd ad 72 86 3c 96 4d ec bb
       -0.00824613 -0.037829563 0.016412104 -0.0072113974
000180 98 fa 33 3d 02 b6 bd 3c 21 c9 17 bb d2 9a 18 bd
       0.043940157 0.023158077 -0.0023160654 -0.037257023
000190 9e 7b d5 bc da 4f 8b bc 2b b8 e3 3c 2e 57 ef 3c
       -0.026059922 -0.01700585 0.027797779 0.029216375
0001a0 aa 45 8f 3b 22 38 84 3c cd 9e 58 bc 7c d0 a0 3c
       0.0043723183 0.016140047 -0.013221455 0.019630663
0001b0 4e 76 0e bc 8d 8a 89 39 bf a6 8a 3c 1e f0 3a bc
       -0.008695198 0.00026233905 0.016925214 -0.011409787
0001c0 a0 ec 80 3c fe 88 4d 3b d6 74 82 3c 92 05 af 3c
       0.015737832 0.0031362171 0.015924852 0.02136496
0001d0 8e 2f 15 3d 2e b0 c5 bc d7 14 f9 ba 1d 08 93 bc
       0.036422305 -0.02413186 -0.0019003403 -0.017948205
0001e0 49 fb d0 bc c5 a1 01 bc 5c 3f c9 bc 6e 29 00 3d
       -0.025510447 -0.007912104 -0.024566345 0.03128951
0001f0 89 58 0c 3b 52 55 2a bb 9d 95 ad 3c 71 ef 0a bc
       0.0021415076 -0.0025990796 0.021189505 -0.008479939

layers.4.weight f4 [128, 128]
000000 51 f1 41 be 2e 8b fc 3d d2 f6 02 3d 4d 9d e7 bd
       -0.18939711 0.12331234 0.031973667 -0.113092996
000010 46 04 ab bd 8d cb 48 3d e1 b6 6d bd 5b fd 44 3e
       -0.083504245 0.049022246 -0.058035735 0.19237272
000020 96 16 4b 3e cd a3 3c 3d 5b 62 fb 3d fa a5 d5 3d
       0.19832835 0.04605465 0.12274619 0.10432048
000030 44 ed c0 3d d7 c6 72 bd ae ec 0f 3e 9f 9e 26 be
       0.09420255 -0.05927166 0.1405513 -0.16271447
000040 a0 40 d6 3c 83 fe 8e bd 6c 7f 36 be ab 03 8e bd
       0.026153862 -0.06982138 -0.17822045 -0.06934293
000050 26 b4 a2 3b f1 9f ff 3d 74 b4 e6 3d 54 29 ac 3d
       0.004965323 0.12481678 0.112648875 0.0840632
000060 db db 32 be 98 6c ab bd f3 40 32 3e 56 86 6d be
       -0.1746668 -0.08370322 0.17407589 -0.23195776
000070 4a b6 ee bd 38 24 b5 bd 77 f5 26 be e6 91 a4 3c
       -0.11655863 -0.08844799 -0.16304575 0.020089101
000080 ea d4 8b 3d 37 aa 72 bd 96 2e 55 3e bf 3d 41 be
       0.068277195 -0.05924436 0.20818552 -0.1887121
000090 c8 38 07 be a0 9f 2a 3e 3f 82 46 be 23 f7 ff 3c
       -0.13205254 0.16662455 -0.19385622 0.031245774
0000a0 35 84 47 3e 2f d6 8e bc 22 04 d9 bd 88 d5 d4 3d
       0.19484027 -0.017436115 -0.105964914 0.1039229
0000b0 12 6a 0e 3e 5f d6 98 bc 74 13 9d bd da 8d 08 3e
       0.1390765 -0.018656908 -0.07669726 0.13335362
0000c0 b3 15 12 bd b5 bc 4d 3e 14 e7 cc 3c 2a 07 4b 3e
       -0.035665225 0.20091517 0.02501253 0.19826952
0000d0 da 86 31 be ad de 4b 3e 0e 88 30 be b4 ec c2 3d
       -0.17336598 0.19909163 -0.172394 0.09517804
0000e0 8a ba b2 bd c5 a6 b9 3d 1e 0f fc bd fa 04 41 be
       -0.08726986 0.09065012 -0.12307571 -0.18849555
0000f0 d5 cd db bc 6a 86 68 3c 09 80 04 bd f4 c0 4d bd
       -0.026831547 0.014192203 -0.032348666 -0.050232843
000100 0d b2 2b 3d 50 3f 86 bc a4 8c 59 be be 48 07 be
       0.04191785 -0.016387612 -0.21245056 -0.13211343
000110 29 19 6d 3e b2 c8 20 3e b2 dc 12 3e 7e 2d e9 bd
       0.23154129 0.15701559 0.14342001 -0.1138563
000120 4a 62 2b be 4c 9e c6 bc b3 5e 01 3e 54 8c 44 3e
       -0.16736713 -0.024245404 0.12633781 0.19194156
000130 f7 af 35 be c2 33 22 bd 6e 7d 21 3e 34 05 7e bd
       -0.17742907 -0.03960014 0.15770504 -0.06201668
000140 f7 69 17 bc 47 47 9c 3d a6 2a f3 bd b3 d6 a9 3d
       -0.009241573 0.076307826 -0.11873369 0.08292904
000150 bc 2f b2 bd 18 1d a1 bd 37 75 4e 3d 0b 4f 4f be
       -0.08700511 -0.07866877 0.050404754 -0.20244996
000160 74 19 15 3e 76 bd 94 3d 5e c3 92 bd b1 ae 3c 3d
       0.14560491 0.07262699 -0.071661696 0.046065036
000170 b0 9e 1d be aa eb db bd 90 24 4e 3e 97 2d 15 be
       -0.15392566 -0.10738309 0.20131135 -0.14568172
000180 26 7a 18 be ce 0c a6 3d c7 42 44 be ea 94 56 3e
       -0.14890346 0.08107911 -0.19166099 0.20955244
000190 a2 77 5b 3d e7 f2 ff bc 9d 48 02 be 5c b0 79 3d
       0.053580888 -0.031243755 -0.12723012 0.060959205
0001a0 3b 85 10 be d8 ed c4 bd 49 b7 c4 3d ce 26 75 3d
       -0.14113323 -0.096156776 0.09605271 0.05985146
0001b0 ac c8 4a be f9 4f e3 bc ff 1a 17 3e e5 9c 3a 3e
       -0.19803113 -0.027748095 0.14756392 0.18223913
0001c0 1b a4 5d 3e 5d db 05 3e 4f c1 19 be a8 5b b8 bd
       0.21644633 0.13071962 -0.15015148 -0.09001857
0001d0 f9 e4 12 be e0 a3 8e 3d 25 e8 15 3e 01 f5 fe bd
       -0.14345159 0.069648504 0.14639337 -0.124490745
0001e0 be 4d 1d 3e 64 64 85 3d 1f b4 4d 3e 38 e4 62 3e
       0.15361688 0.065132886 0.20088242 0.22157371
0001f0 15 04 3b bc 21 63 5b bc ab a3 49 3e 85 1e 32 bd
       -0.011414547 -0.013390333 0.1969134 -0.043486137
000200 0d 4b 3f 3e e9 5d 28 be ae be 57 bd a7 4f 5a 3e
       0.18680973 -0.16442074 -0.05267208 0.21319447
000210 fa b3 91 bd 4d c8 fd bd 88 e8 1f be 22 c4 fb 3d
       -0.07114406 -0.1239172 -0.15616047 0.12293269
000220 b6 ef b0 bd 8b 9a 2c 3d 8d 5b a6 bd c4 dd 3e be
       -0.08639471 0.04213957 -0.08122931 -0.18639284
000230 b2 82 9d 3d 7f 24 3b 3d 9e 12 92 bd 2b 42 28 be
       0.07690944 0.045689102 -0.07132457 -0.16431491
000240 b8 e6 d6 bd f0 6d ca 3c f3 9c bd bd 77 90 55 be
       -0.10493225 0.024710625 -0.09258451 -0.2085589
000250 33 ff 4e 3e 62 ed e1 bc 9f a2 e6 bd 4a ae 8b 3b
       0.20214538 -0.027579013 -0.11261486 0.0042627202
000260 76 d3 49 bc 35 38 de 3d 27 ee 16 bb d5 17 3b 3e
       -0.012318483 0.108505644 -0.0023030133 0.1827081
000270 d0 da b2 bd 2c e3 0c bd ed 72 4c bd 10 cb 1f 3e
       -0.087331414 -0.034396335 -0.04991429 0.15604806
000280 09 60 bf bc e0 62 19 be a0 10 8f 3c e2 08 fb 3d
       -0.023361223 -0.14979124 0.017463982 0.12257554
000290 64 2a 0c be 40 97 4f 3e 28 ef 30 3d e7 c8 01 be
       -0.13688046 0.20272541 0.043196827 -0.12674294
0002a0 7f 6d 5e 3e c7 03 3e be 68 29 4d 3e e0 09 4c 3e
       0.21721457 -0.18556128 0.20035326 0.19925642
0002b0 88 a0 01 3e fe e1 ab 3d 3a 4b 7e 3d 19 bc 58 3d
       0.12658894 0.08392714 0.06208346 0.05291376
0002c0 56 6d 0f be dc 6a 7f 3c 44 39 90 bc 6e 5d 8e bc
       -0.14006552 0.015589442 -0.017605431 -0.017378535
0002d0 d8 33 26 3e ac ec 9f bd c4 72 05 3e 69 7c 07 3e
       0.16230714 -0.078088135 0.13032061 0.13231052
0002e0 3d a2 2c be 03 a6 da 3d fe e3 bd bd f2 10 17 be
       -0.16858764 0.106761955 -0.09272002 -0.14752558
0002f0 cd 4b dd bd 7b 1d 42 bd c1 76 a2 bd ab bf 2a be
       -0.108054735 -0.047391396 -0.07932807 -0.16674678
000300 de be c9 bd 41 aa 4d 3e 57 cb bf 3d 22 90 18 be
       -0.09850858 0.20084478 0.09364956 -0.14898732
000310 5d 6b c3 3d f5 89 15 3e 5f a5 fb bd f2 44 41 be
       0.09541962 0.14603408 -0.122874014 -0.18873957
000320 e8 68 a2 3c 4a e8 79 3d 09 04 38 bd a0 ec 2f 3d
       0.019825414 0.061012544 -0.044925723 0.042950273
000330 fa ad 0f be 20 e7 a5 bc 5e 17 82 3d e9 06 8e bd
       -0.1403121 -0.02025181 0.06352113 -0.06934912
000340 2f c5 35 3e d3 d4 0c be 1d 2b fe 3d 34 00 c5 bd
       0.17751001 -0.13753061 0.12410567 -0.09619179
000350 2b d4 ff bd 76 1e 0c be b9 4b e8 3d a4 6a 56 3e
       -0.1249164 -0.13683495 0.11342568 0.20939118
000360 61 c5 2f be d1 5d 1c 3e 4b 91 b0 3d 95 84 fe 3d
       -0.17165138 0.15270163 0.086214624 0.12427632
000370 71 23 53 3e c2 52 84 3c 45 10 25 3c 42 57 40 be
       0.20618989 0.016152743 0.01007468 -0.18783286
000380 4f 90 e4 bd df b1 a0 3d 11 3c 39 3d 63 f0 ae 3d
       -0.11160337 0.07846426 0.0452233 0.08541944
000390 40 2b 3a 3e 2d 88 b3 bd 11 91 6d be d5 62 39 3e
       0.18180561 -0.08766208 -0.2319987 0.18104108
0003a0 ee 73 36 be 42 f6 6d be 6f ea 07 be ee 2b c2 ba
       -0.17817661 -0.23238471 -0.13273023 -0.0014814117
0003b0 1f c5 0e 3e 14 6b 49 be b5 c2 c3 bd dc 0f 02 3e
       0.13942383 -0.19669753 -0.09558622 0.12701362
0003c0 ac 6c 97 3d b0 c7 06 be d6 9c ad 3d 99 b1 ba 3d
       0.073937744 -0.13162112 0.0847718 0.09115905
0003d0 2c a3 92 3d 79 1d b0 3d 87 6f 08 be 72 88 20 be
       0.07160029 0.085993715 -0.13323794 -0.1567705
0003e0 03 a2 b9 3d 21 5b 44 be 02 99 21 3e f4 59 57 be
       0.090641044 -0.19175388 0.15781024 -0.21030408
0003f0 f0 6a b4 3c ac 8c 32 3e d2 fa 82 bd fc 42 f5 3c
       0.022023648 0.17436475 -0.063954964 0.029939167

layers.4.bias f4 [128]
000000 7a 64 ea 3c 36 98 be 3b e4 43 12 3d fd d3 d9 38
       0.028612364 0.005816485 0.035709277 0.00010386852
000010 16 39 04 3d d8 0d 02 bd 9c 43 20 3d 11 eb c2 bb
       0.032281004 -0.031751484 0.039126977 -0.0059484323
000020 d2 7a 1b 3d 93 f0 e6 bb 36 8c af 3b ba be c4 39
       0.037958927 -0.0070477217 0.0053572906 0.00037526136
000030 0e c7 8d 3c ab 2e e1 3c 48 43 93 bc 15 a5 0b 3c
       0.01730683 0.027488073 -0.017976418 0.008523245
000040 6b 68 3a 3a 00 83 8a 3b 70 28 0c bc c9 65 fb 3c
       0.00071108964 0.004227042 -0.008554563 0.030688183
000050 2d 86 85 bc 4a ea ab bb b1 f0 37 3c e6 07 de 3c
       -0.016299332 -0.0052464353 0.011226819 0.027103376
000060 13 84 c3 bb d6 c9 c4 bb 27 76 ce 3b 11 2d 21 bc
       -0.005966672 -0.006005506 0.006300706 -0.009837405
000070 7b 7a ec 3c 00 00 00 00 97 2a 8e bc 0b e9 61 3b
       0.028866997 0.0 -0.017354293 0.003447118
000080 12 a1 c2 3c 33 3a fd 3c 7e 71 95 bc ea da 32 bc
       0.023758445 0.03091154 -0.018242594 -0.010916451
000090 37 9b e3 bc 5c 44 1c bc c1 9d a2 3c e0 e6 f8 3c
       -0.027783973 -0.0095377825 0.019850614 0.030383527
0000a0 08 03 15 3d df 51 f7 bb 27 87 74 bc 66 f8 09 3d
       0.036379844 -0.0075476016 -0.014924801 0.033684157
0000b0 b3 55 b0 3b e1 17 eb 3c 0f 83 06 bc a2 c0 12 3d
       0.00538131 0.02869791 -0.008209958 0.03582824
0000c0 ed ff 0f bd a6 7d 12 bd 99 dc 10 bc d3 9c 03 bb
       -0.03515618 -0.03576436 -0.008841657 -0.0020082488
0000d0 f9 c4 ba 3c a4 62 b3 bc b0 2b 53 bc 23 a2 82 bc
       0.022799002 -0.021897621 -0.012888834 -0.015946453
0000e0 f7 f1 ce bb e7 eb 51 bc d5 c3 a5 bb 3b d9 04 3d
       -0.0063154656 -0.012812591 -0.0050587454 0.03243373
0000f0 c1 43 c6 bc f7 29 01 3d cb 4b 47 bc 85 69 88 3c
       -0.02420223 0.03153416 -0.012164067 0.016651878
000100 54 dc 1d bc 67 f2 95 bc d2 d9 1c bb 7e 8a da bc
       -0.00963505 -0.018304063 -0.0023933542 -0.026677366
000110 56 c0 4b bc 61 42 3c 3c 69 8f 0d bc 4a 4c 6f bc
       -0.012435993 0.011490435 -0.008640149 -0.014605591
000120 d9 8b a8 bb fd 7b 7d bc 3e 7a 2e 3c 90 f3 5a bc
       -0.0051436243 -0.015471456 0.010649262 -0.013363734
000130 03 e7 76 3b e6 b4 04 3d 91 53 73 bc 13 b3 43 3b
       0.0037674315 0.03239908 -0.014851467 0.0029861375
000140 e1 82 07 3d e9 2f 12 3d d5 d1 a4 3c 34 9e f8 3c
       0.0330838 0.035690222 0.020119587 0.030348875
000150 c9 8c 06 3d 57 ac 2c bb 00 53 02 bc 28 ef 34 bb
       0.032849107 -0.002634784 -0.007954359 -0.0027608369
000160 29 ff 4f bb 71 5c a4 bb 41 23 65 bb 00 00 00 00
       -0.003173778 -0.0050159027 -0.003496364 0.0
000170 df 24 35 3d 70 59 a5 3c fc e2 ba bc fc 75 ca 3b
       0.044224616 0.020184249 -0.022813313 0.0061786156
000180 a3 b0 f6 3c c9 21 e5 3c 6a 79 02 3c 02 55 f7 bb
       0.030113524 0.027970212 0.007963518 -0.0075479755
000190 fb 3e aa bc af aa c3 bc a1 21 f1 3c fc c1 88 bb
       -0.020781985 -0.0238851 0.02943498 -0.0041735154
0001a0 72 29 82 bc 90 31 cd bb d6 c9 c4 bb 2d 68 89 bc
       -0.015888903 -0.006262012 -0.006005506 -0.016773308
0001b0 66 a4 63 bc 17 83 9b bc f1 8c f2 3c e7 09 5e bc
       -0.013894176 -0.018983407 0.029608222 -0.013552166
0001c0 56 bb 06 bc ad b7 1e bc d1 c9 c4 3b f9 b9 94 bc
       -0.008223375 -0.009687346 0.0060055037 -0.018155085
0001d0 66 2c df bc fd c1 f5 bb b3 c9 98 3c f5 65 83 bc
       -0.02724285 -0.007499932 0.018650865 -0.016039828
0001e0 cf 8f 7b 3c e5 1b 90 bb 41 d8 1c 3d eb ff 24 3a
       0.015354111 -0.0043978565 0.038292173 0.0006294238
0001f0 1e fa c1 bb 20 33 b0 bc fc e6 1b bc 91 60 0f bc
       -0.005919709 -0.021508753 -0.00951552 -0.008751051

layers.6.weight f4 [128, 128]
000000 13 30 a7 39 98 17 0b 3e 64 27 29 3e 34 b8 96 bd
       0.0003188854 0.13583219 0.16518933 -0.07359353
000010 28 f0 63 be a9 12 fe 3d 13 3d 2d 3e c2 3e 39 3e
       -0.22259581 0.12405903 0.16917829 0.18090346
000020 59 09 a9 3b 03 19 ad bc 8f 95 23 3e 86 e9 14 be
       0.005158585 -0.02113009 0.15975021 -0.14542207
000030 75 80 3e 3e 10 a6 3d be 7c 85 25 bd ad 7e c7 bd
       0.1860369 -0.18520379 -0.040410504 -0.09740958
000040 16 80 37 be 5d 60 8d 3c d4 35 09 3e 84 1e 2f bd
       -0.17919955 0.017257864 0.1339944 -0.04275371
000050 40 d3 f1 bd fd 77 34 3e b9 fb 19 3d d3 5f 19 3e
       -0.11807871 0.17623897 0.037593577 0.1497796
000060 63 18 ba 3d 04 3a 41 bd f1 3b 70 bd d1 6b 2a 3e
       0.09086683 -0.04717447 -0.058650915 0.16642691
000070 4b 3d b1 3d 72 81 1d be 68 a5 09 bc 57 0a 51 3d
       0.08654269 -0.1538141 -0.008401252 0.05103525
000080 b8 9b 3d be 00 a9 dc bd 0b bf 93 3d 79 0f 29 3e
       -0.18516433 -0.10774422 0.07214173 0.16509809
000090 85 07 55 3d bd 22 47 be 78 cf 3b be c4 6c 3f be
       0.052009124 -0.19446845 -0.18340862 -0.18693835
0000a0 c9 c4 d5 bd 99 1b e1 3c da 84 0c be 1c 0f 24 3d
       -0.104379244 0.02747898 -0.13722554 0.040053472
0000b0 2c 35 40 bb 37 5d 2b 3e 95 58 42 3e 1a de 2c be
       -0.0029328568 0.16734777 0.18979104 -0.168816
0000c0 fc 57 07 be 0e 48 98 3d 23 f9 1d 3e c3 da 10 3e
       -0.13217157 0.07435618 0.1542707 0.14145951
0000d0 4b 99 54 3d 0a 94 72 3d 57 3c 24 be 0d 00 12 be
       0.051904004 0.059223212 -0.16038643 -0.14257832
0000e0 97 e6 00 3d fb a2 f2 3d 80 2a db bd b4 27 41 3d
       0.031469908 0.11847492 -0.107014656 0.047157004
0000f0 22 72 fa bc b0 cb 46 3e 4d ff 36 bd 12 33 22 bd
       -0.030572 0.19413638 -0.044677068 -0.039599486
000100 85 99 4e be 58 a7 0f bd 4c 78 2c 3e 4f a0 0c 3c
       -0.2017575 -0.0350717 0.16842765 0.008583142
000110 18 0f 82 bd 00 a1 5b be 4c 34 32 3e 5b 86 b3 3d
       -0.06350535 -0.21448135 0.17402762 0.08765861
000120 7e 49 06 bd b9 a0 3d be a0 ca 46 be 4f c4 ee 3d
       -0.03278493 -0.18518342 -0.19413233 0.11658537
000130 98 94 26 3b d5 aa 3f be 0a 09 0f 3e 50 1c 53 be
       0.0025418159 -0.18717511 0.13968292 -0.20616269
000140 f4 37 3c 3e 69 51 c4 3d a5 f1 24 3e ad d9 e2 3c
       0.1838072 0.0958584 0.16107805 0.027691687
000150 e9 62 bc bc d9 09 9c 3d a9 65 8f 3d bc 28 c2 bd
       -0.022996383 0.07619066 0.07001812 -0.09480426
000160 ad eb 02 3e 2c 61 96 bd e0 71 b3 bd 00 b6 64 3a
       0.12785216 -0.07342753 -0.08761954 0.000872463
000170 14 3f 9a 3c a0 ad 3f be 03 ec 83 bc 4a ad c5 3d
       0.018828906 -0.18718576 -0.01610375 0.09652193
000180 58 99 82 3d 6c 8f 80 3d b4 0e f5 3d d1 72 71 3e
       0.06376904 0.062773556 0.11965695 0.23578955
000190 88 f2 31 be 6f 6c f5 ba aa e8 15 bc bd f4 36 be
       -0.17377675 -0.0018724332 -0.00914971 -0.17866798
0001a0 78 e6 2c 3e bb df c2 bd 00 9e 3f be a9 ee 6b 3e
       0.16884792 -0.095153295 -0.18712616 0.2304026
0001b0 89 e8 1e 3e 09 27 30 be e9 6c 32 be 63 8f 4b bd
       0.15518393 -0.1720239 -0.17424358 -0.04969729
0001c0 f8 5a 8a 3d 6f 8c 3b 3e 28 90 a2 bd 7e 7f d8 bd
       0.06755632 0.1831529 -0.07937652 -0.10571192
0001d0 f5 76 3c 3e c5 ea 16 bd 20 57 a8 3d ed 6f 1e be
       0.18404754 -0.036844987 0.08219743 -0.15472384
0001e0 46 aa d3 bd db 71 90 bd b5 b7 45 bd e5 e3 a8 3d
       -0.103352115 -0.07052966 -0.0482709 0.082465924
0001f0 87 5c 27 bd de 66 48 be b2 fc 5f 3e b6 7b 4e 3e
       -0.040859725 -0.1957049 0.2187374 0.2016438
000200 dc f8 2e be c3 25 27 bd 0b 1f 80 bd 9d a4 42 3e
       -0.1708712 -0.040807497 -0.06255921 0.19008107
000210 14 1a fb bd bc 83 69 3e 51 9a cf bd 4d ac 2b 3e
       -0.122608334 0.22804159 -0.101368554 0.16764946
000220 93 38 59 be 74 aa f5 bb dc d2 3d 3e a9 69 14 3d
       -0.21212988 -0.0074971262 0.18537468 0.036233578
000230 ec 58 e3 bc bb 1d 38 bd 55 d1 4f be 6a 57 09 be
       -0.027752362 -0.04495023 -0.20294698 -0.13412252
000240 6c 4f 5a 3d 6a 08 a6 bd 54 12 2d bd fb 5f 2a bd
       0.0532984 -0.081070736 -0.042253807 -0.04159544
000250 40 ae d4 3d 2f a1 6b bd a4 0b e5 3d ce bf 0d be
       0.10384798 -0.057526764 0.11183861 -0.13842699
000260 c2 07 e2 3d 40 9c 24 3b 32 05 6c 3d 63 bf de bd
       0.11036636 0.0025117546 0.057622142 -0.10876348
000270 2d 15 cd 3d 33 29 32 be bc b4 bf bd 2d ea 5d 3e
       0.100138046 -0.17398529 -0.09360644 0.21671362
000280 2a 5b f3 3d 57 77 fe bd b5 80 da 3d 01 c2 01 3e
       0.118826225 -0.12425106 0.1066908 0.12671663
000290 2f b7 0d be 1c 2b ca 3d e1 e5 45 3e 12 b1 11 3e
       -0.1383941 0.09871504 0.19325973 0.14227703
0002a0 46 46 e5 3d 55 ea 40 3e 4e 63 34 be d7 83 ff 3d
       0.11195044 0.1883939 -0.17616007 0.12476318
0002b0 e0 50 3b bc 4b c7 54 be 16 db 5a 3d b9 ea 52 3c
       -0.011432856 -0.20779149 0.053431593 0.012873345
0002c0 e1 6a b8 bd a7 11 5b bd 36 8d 46 3b 13 b4 65 3d
       -0.090047605 -0.05348363 0.003029657 0.056079935
0002d0 e2 b0 56 be 73 e8 40 3e 59 8f 56 bd 60 cc 19 be
       -0.20965913 0.18838672 -0.0523828 -0.15019369
0002e0 c3 a7 90 bd e5 27 05 3e 50 67 2b be 0d c7 9d bc
       -0.07063248 0.130035 -0.1673863 -0.019259954
0002f0 dd d1 53 3e 6b fc 9c 3d 60 a1 93 ba dc 52 2b 3e
       0.20685525 0.076653324 -0.0011263303 0.16730827
000300 2a 0e 1c be 33 da 3e be 1d c8 a9 3d 90 a6 bf 3d
       -0.15239778 -0.18637924 0.08290122 0.09357941
000310 0a d0 f8 bc 53 c8 33 3e df 86 0f 3e 1d ba 5c be
       -0.030372638 0.17556886 0.14016293 -0.21555372
000320 af 7b 3e 3d d8 bb 5c bc 3a f9 82 bd be 30 31 be
       0.046504673 -0.01347252 -0.063951924 -0.1730375
000330 31 96 63 be a9 90 af bd 6d cc 9f 3c 43 d5 1c 3e
       -0.22225262 -0.085725136 0.019506657 0.15315728
000340 ec 88 af 3c a7 40 59 be bc d3 40 3e 32 55 2c be
       0.021427594 -0.21216069 0.1883077 -0.16829374
000350 6b 38 16 3e cc a3 09 be bc 4c cb 3d 3f 12 2f 3e
       0.14669959 -0.1344139 0.09926745 0.17096804
000360 42 23 41 3c 75 58 c4 bb 71 8b 1f 3d 5b 7b 55 3e
       0.011788191 -0.00599199 0.03895134 0.20847838
000370 f5 60 ab bd c9 a1 3f be d7 63 85 bd 06 58 43 be
       -0.083681025 -0.1871406 -0.065131836 -0.19076547
000380 7e 04 6e bd 8f da 68 be 49 02 f8 3c 04 ed 18 3e
       -0.058109753 -0.22739623 0.030274527 0.14934164
000390 c7 b6 16 3e d5 b5 5a 3d 0e be b4 bd f9 d6 48 be
       0.14718162 0.053396065 -0.088253126 -0.19613256
0003a0 43 83 a5 bb 8f b6 ee bd f0 35 44 be bd b2 72 3d
       -0.005051048 -0.11655914 -0.191612 0.05925249
0003b0 f4 c0 02 3e 8f 08 57 be 52 d8 00 3d 10 01 8e bd
       0.12768918 -0.20999359 0.0314563 -0.069337964
0003c0 04 27 08 bd d8 af b0 3d f0 58 a6 3d 2d e5 fb bc
       -0.033240333 0.086272895 0.08122432 -0.030748928
0003d0 e2 a3 30 3e a0 56 4e 3e 4d b6 bb 3d 4a dc 92 3d
       0.17250016 0.20150232 0.091656305 0.07170923
0003e0 d9 9e 81 3d f5 d5 53 be 85 9e 32 3e 37 16 32 3d
       0.06329126 -0.20687087 0.17443283 0.043478217
0003f0 ce 31 8f 3c ca 70 40 3d 1a d0 ec bd 7e 2f 29 bd
       0.017479803 0.046982564 -0.1156313 -0.041305058

layers.6.bias f4 [128]
000000 16 a1 6d 3b 6b 1e 2c bc ec 84 85 bc a0 ce 02 3d
       0.0036259345 -0.010505299 -0.016298734 0.031935334
000010 6f ae bf bb 2c 02 36 3d 69 7d 9e bb 00 00 00 00
       -0.0058496515 0.044435665 -0.0048367274 0.0
000020 de 5b 01 bc 9d 49 e6 3c 2d 71 81 bc 4c 21 d5 bb
       -0.007895438 0.028111273 -0.015801037 -0.0065042134
000030 48 bb ad 3a aa 26 5a 3c c3 7e f7 bc bb 8a ea 3c
       0.0013254667 0.013314882 -0.030211812 0.028630605
000040 ab 37 2d 3d 97 e5 c8 39 cb 91 c2 bc 9a 13 c6 bc
       0.042289417 0.0003831803 -0.02375116 -0.024179269
000050 2c 2f d7 bb 07 db 26 bc 95 2d 85 bc eb 3c c4 bc
       -0.0065669026 -0.010184056 -0.016257087 -0.02395483
000060 38 55 d6 ba 51 5e 0b 3c c5 ab e4 bb 78 ed ce bb
       -0.0016352301 0.0085063735 -0.0069784843 -0.0063149296
000070 00 00 00 00 10 29 0e 3d 03 8a b9 bc ec 01 04 bb
       0.0 0.03470713 -0.022648817 -0.0020142747
000080 23 6c 23 bb ad c7 dc 3c e8 2a 5a 3b 8f 6e 9c bb
       -0.002493628 0.026950682 0.0033289734 -0.004773922
000090 f8 3d c4 3c ca c3 16 3d 6b 88 85 bc a4 f2 cf bb
       0.02395533 0.036807813 -0.0163004 -0.0063460637
0000a0 27 8e fe bb 62 da 08 3d 90 c7 0f 3d a3 5e 12 3d
       -0.0077684107 0.03341139 0.035102427 0.035734784
0000b0 60 8e a9 bc dd 29 2a bc 28 03 0d 3c 00 00 00 00
       -0.020697773 -0.010385958 0.00860671 0.0
0000c0 00 00 00 00 78 da ed bb 68 ee 86 bc cc a7 7c 3a
       0.0 -0.0072587095 -0.016471103 0.0009638041
0000d0 00 00 00 00 a1 e4 bf bc e5 79 b3 bc 67 26 b2 bb
       0.0 -0.023424448 -0.02190871 -0.005436707
0000e0 3d 2a d4 bb 00 00 00 00 c9 3c 91 bc 2a 2a 70 bc
       -0.0064747618 0.0 -0.01772918 -0.01465849
0000f0 64 38 a7 3c 00 00 00 00 88 8c f7 3c f0 d1 05 bc
       0.020412631 0.0 0.030218378 -0.008167729
000100 b1 95 d9 39 25 0d 51 3c 43 85 0d 3d 00 00 00 00
       0.00041500994 0.012759482 0.034550916 0.0
000110 2d 10 e5 bb 4f dc 00 3d f7 15 90 bc fc 51 bd bc
       -0.0069904537 0.031460103 -0.017588599 -0.023110382
000120 14 91 04 bc 88 14 39 3c de e3 99 bb de a1 1b bc
       -0.00809123 0.011296399 -0.0046963533 -0.009499041
000130 a7 86 8e bc 04 18 95 bc b6 04 e0 bb a9 f1 af bc
       -0.017398192 -0.018199928 -0.006836499 -0.021477537
000140 00 f1 47 bc c8 d7 9c bc 20 1d ff bb fa 90 c1 ba
       -0.012203455 -0.019145861 -0.0077854544 -0.0014767938
000150 7c a1 23 3b 81 93 24 3d 15 21 85 3b d9 1f fd 3c
       0.0024968078 0.040179733 0.0040627816 0.030898975
000160 d9 5b 1b 3d ef 3a 5d bc 3e e0 28 3d b2 64 77 bc
       0.03792939 -0.01350282 0.04122948 -0.015099691
000170 3d 80 c4 3b 42 89 99 3c 7f 2b 9c bc 8e 09 ae bc
       0.0059967325 0.018742207 -0.01906371 -0.02124479
000180 99 70 be bc 4d bc 0b 3d d1 27 e8 3c b7 74 05 bc
       -0.02324705 0.034115124 0.028339298 -0.008145503
000190 60 2b 13 bd 3d 92 c0 bc 73 fd ee bb 80 95 4a bc
       -0.035930037 -0.023507232 -0.007293397 -0.012364745
0001a0 24 cd c1 bc 79 f5 e5 bb 5a 30 b1 3c 20 8c d1 3c
       -0.023657389 -0.007017788 0.021629501 0.025579512
0001b0 2e 07 94 bc c6 46 1a 3d bd 28 0b 3d 00 00 00 00
       -0.01806983 0.03766515 0.033974398 0.0
0001c0 81 55 34 bc d0 67 fc bb b8 d6 17 bc 97 a9 52 bc
       -0.011006714 -0.007702805 -0.0092675015 -0.012857816
0001d0 b1 82 55 3c 7d 45 b4 bb c4 1f 75 3c 35 72 e6 3c
       0.013031648 -0.0055014477 0.014961187 0.02813063
0001e0 2b 05 23 bc a9 09 5a bc 85 c5 75 3c 67 21 90 bb
       -0.009949963 -0.013307967 0.015000706 -0.004398513
0001f0 50 1a 7a bc f9 78 e6 bb 03 2d d2 3c 88 ad 27 3d
       -0.015265062 -0.007033464 0.025656229 0.040936977

layers.8.weight f4 [128, 128]
000000 87 ee 0a be af 03 36 bc 39 ef 53 be 03 0d 12 bd
       -0.13567553 -0.011109277 -0.20696725 -0.03565694
000010 44 01 a5 bd ba 81 ce bd a7 94 2e be 7d 83 58 3e
       -0.08056882 -0.10083337 -0.17048894 0.21143909
000020 3f 8b 3d be b8 67 20 be 1f a3 63 be ea 24 a8 bd
       -0.1851015 -0.15664566 -0.22230195 -0.08210166
000030 f3 30 51 be c2 e3 5a be 68 25 68 3d ff e6 09 be
       -0.20428829 -0.21375945 0.0566763 -0.13467024
000040 87 dd 1b be 44 ca 1c 3d 9e 8c 40 3e 6b 9f 79 3d
       -0.15221225 0.038278833 0.18803641 0.06094305
000050 7c 3d 2d be 7f ee b4 3d 3f 61 d8 bd 69 ba b1 3d
       -0.16917986 0.08834552 -0.10565423 0.08678133
000060 86 5b 31 3e 96 33 4b 3e 7f 52 3b be ae 78 a1 bd
       0.1732007 0.19843897 -0.18293189 -0.07884346
000070 ce be 9d bd c9 60 c7 3d 28 31 cb 3d 2e 58 e0 bd
       -0.07702409 0.09735257 0.09921485 -0.10954319
000080 b6 14 e3 3d 61 39 73 3d 1f 63 2f 3e 51 ef fc 3d
       0.11087935 0.059380893 0.17127655 0.123503335
000090 7d 2b a6 bd bf 76 cf bd 65 7c a1 3c d1 c0 71 3d
       -0.081137635 -0.10130071 0.019712636 0.059021775
0000a0 ce 3f 1e bd 16 a0 ee 3d 6f 8a ff 3d 9b 87 db 3c
       -0.038635068 0.11651628 0.12477576 0.02679806
0000b0 39 59 81 3d ee 8e 31 be 22 2c 14 3e 27 e4 09 3e
       0.06315846 -0.1733968 0.1446996 0.1346594
0000c0 3e 54 bb 3d 4e 3d 43 3d 81 5f 55 be e9 0e d1 bc
       0.09146927 0.047665887 -0.20837213 -0.025519805
0000d0 28 8f db 3c b6 31 9d bd b8 84 1e be d4 7f 35 3d
       0.02680166 -0.07675497 -0.15480316 0.04431136
0000e0 b5 6f ed bd ca 5a 8f 3d 83 c9 44 3e 87 8c ad bd
       -0.11593572 0.069997385 0.19217496 -0.08474069
0000f0 b8 30 1c bd 74 79 51 bd 56 e3 20 3e 7a e4 17 bd
       -0.0381324 -0.051141217 0.15711722 -0.037083127
000100 d5 18 06 be f6 52 03 3d e0 fc 35 3e 42 13 c5 3d
       -0.1309541 0.03206154 0.17772245 0.09622814
000110 67 d7 e0 bd 97 ce 5d be cb 9b b6 bc c7 4e ba 3d
       -0.10978585 -0.21660839 -0.022291085 0.09097057
000120 89 f2 45 bd 4b c6 42 be ab c3 e2 3d d7 15 40 be
       -0.048327003 -0.19020955 0.11072477 -0.18758331
000130 79 65 01 be 39 17 f8 3d 9e cd 82 bd 05 e0 e1 bd
       -0.12636365 0.12113804 -0.063868746 -0.110290565
000140 4c 57 4c 3e 40 e5 89 3d 52 e3 2c be 46 a2 53 be
       0.19955176 0.06733179 -0.16883591 -0.20667371
000150 f9 76 40 3e cc f6 01 3e 0a e5 a2 3d 1d c8 6b be
       0.18795384 0.12691802 0.07953842 -0.23025556
000160 8d 46 60 bd 3f b2 21 3e 5a 83 14 be 52 d6 52 3d
       -0.054754782 0.15790652 -0.14503232 0.051473923
000170 7e 47 20 3e 1e e5 50 be d7 32 2b bd 8d 6e 46 bd
       0.15652272 -0.20399901 -0.04179653 -0.048445273
000180 9d 09 c9 3d 91 77 eb bd da 8a 2b 3e 55 f1 ad 3d
       0.09816287 -0.11497415 0.16752186 0.08493296
000190 ee 28 b0 3b da 83 06 3e 53 b9 57 3e 4d 7e 27 be
       0.005375973 0.13136235 0.2106679 -0.16356774
0001a0 39 a3 7f bc 8f 9e 0f 3c 88 e2 2c bd b6 43 b2 bd
       -0.01560288 0.008765831 -0.042208225 -0.08704321
0001b0 66 cc a0 3d 04 35 e8 bd cc 8f 19 be 5e e5 04 be
       0.07851486 -0.11338237 -0.1499626 -0.12978122
0001c0 9d 59 ac 3b e2 ea eb bd e9 b5 04 3d 00 e0 25 be
       0.005259706 -0.1151941 0.032400046 -0.1619873
0001d0 b7 f6 f8 3a 24 5c d3 bc 32 b3 1b 3e e3 74 33 3e
       0.0018994425 -0.025800772 0.15205076 0.17525057
0001e0 43 40 55 be ff 9d 02 3e 36 97 2e ba 86 21 58 bd
       -0.20825295 0.12755583 -0.00066601054 -0.052766345
0001f0 58 b5 49 3e 3e eb 08 bd b4 2c cc 3d a2 44 cb 3d
       0.19698083 -0.03342747 0.09969464 0.099252
000200 79 5c b5 3c 5e 11 23 be 74 db bb ba a6 8d 63 bd
       0.022138821 -0.15924594 -0.001433237 -0.05555501
000210 2b f5 d3 bd 15 bf 28 be b1 c8 0c 3e 03 d4 01 be
       -0.103494965 -0.16479142 0.13748433 -0.12678532
000220 f6 cb 35 be ff 5c b5 bd ed fe 2d be 34 de 8d 3d
       -0.17753586 -0.08855628 -0.16991778 0.069271475
000230 b2 d0 27 3e be 10 0d 3e 64 3f 61 be d4 e7 5d 3d
       0.16388205 0.13775918 -0.21996838 0.054176167
000240 ab e6 9e bd 3c 26 2e 3d a5 c9 d6 3d 7e e3 12 3e
       -0.0775884 0.042516932 0.104876794 0.14344594
000250 94 a9 20 3e c6 e7 06 3d 32 f2 46 be 07 15 39 be
       0.15689689 0.03293588 -0.19428328 -0.18074428
000260 fb b9 67 be b7 c1 15 be aa 67 1b 3e 75 96 43 3d
       -0.2262954 -0.14624678 0.15176263 0.04775091
000270 00 50 b1 3a 9d 3f 45 be 75 51 54 be 84 65 30 3c
       0.001352787 -0.19262548 -0.20734198 0.010766391
000280 ca 73 38 be d8 41 7d 3d 52 b2 cc 3d 43 83 54 3d
       -0.1801292 0.06183037 0.099949494 0.051882993
000290 94 89 90 3d d2 c9 f8 bd 39 eb 3c be 42 4c 5e 3d
       0.07057491 -0.12147869 -0.18449105 0.054271944
0002a0 ee 5d 41 3c ae 3a 15 3d d5 04 4f 3d 06 5e 08 be
       0.01180218 0.036432914 0.050541718 -0.13317117
0002b0 63 ef 78 bd 7b ec 1e 3e bf aa d3 bd a3 c6 58 be
       -0.060775172 0.15519898 -0.103353016 -0.21169524
0002c0 1f 78 2d 3e ca a0 3f 3e 19 bd 02 bd b1 fe 09 3e
       0.16940354 0.1871368 -0.03191862 0.13476063
0002d0 74 b9 43 be 59 45 53 bd 26 e4 b3 3d ab 61 fa 3d
       -0.19113714 -0.051579807 0.0878375 0.1222566
0002e0 3b 8a c5 3d ee bf cb 3d d0 95 b2 3c 51 1d 76 3d
       0.09645506 0.09948717 0.021799952 0.060086552
0002f0 c6 59 04 3e 3a 5f c4 3d 4b 06 2d 3e c2 5c 21 be
       0.12924871 0.095884755 0.16896932 -0.1575804
000300 3d 2f 42 be 96 97 48 be 44 25 09 be 8a 46 e8 3d
       -0.18963332 -0.19589075 -0.13393122 0.11341579
000310 d5 d7 99 3d 5d e0 f5 3d 84 b5 98 3d 91 7e 33 be
       0.0751187 0.120056845 0.07456496 -0.1752875
000320 2b 06 ad bc d7 aa 2f 3e a1 ca 97 bd d5 91 33 be
       -0.021121105 0.17155014 -0.07411695 -0.175361
000330 b3 3b 23 be c4 00 07 3e 7e f6 41 be c7 b9 bb 3d
       -0.15940742 0.13183886 -0.18941686 0.091662936
000340 c8 4f e9 3d ee 45 3f 3e 13 8e 57 be 41 a3 9c 3d
       0.1139217 0.1867902 -0.21050291 0.07648326
000350 68 f9 50 bd 3f c3 bd 3b e2 05 35 bc 65 05 2f 3d
       -0.051019102 0.0057910974 -0.011048766 0.042729754
000360 e9 5b e9 3c 60 81 30 be 6d 58 2b be 77 03 4f 3e
       0.028486209 -0.17236853 -0.1673295 0.20216165
000370 ce 5d c9 bd be 49 01 be e4 c9 41 3d 59 16 b4 bb
       -0.09832345 -0.12625787 0.04731168 -0.005495828
000380 34 9d d9 3d 90 02 23 be f9 1c cb bc f2 d5 3b 3d
       0.10625687 -0.15918946 -0.024794089 0.04585833
000390 36 2d 6e be a8 f6 ca 3d db d4 07 be 69 0d 9d bd
       -0.23259434 0.09910327 -0.13264792 -0.076685734
0003a0 1a 62 3e 3e 85 9d 10 3e d6 d8 19 3e e2 d4 02 be
       0.1859211 0.14122589 0.15024123 -0.12776521
0003b0 33 7b 63 be e4 36 3e 3e 7e 4c 1b 3e 56 35 f8 3d
       -0.22214966 0.18575627 0.15165898 0.12119548
0003c0 d5 a6 02 be 45 93 76 bd 65 25 9e 3d e5 41 08 be
       -0.12758954 -0.06019904 0.07721976 -0.13306387
0003d0 b3 42 32 be d8 77 46 be e4 7d 8f 3d 8b 36 1f be
       -0.17408256 -0.19381654 0.070064336 -0.1554815
0003e0 e2 99 84 3c 3c b3 68 bd c1 2b ec 3d ed bf 02 be
       0.016186658 -0.056811556 0.11531783 -0.12768526
0003f0 2b f6 14 be 7e 35 4c 3e 3b 74 38 3d db 9c c1 bb
       -0.1454703 0.1994228 0.04503272 -0.005908591
