stocks_google.pt (torch, 23765 bytes, 8 tensors)

layers.0.weight f4 [1, 1, 20, 1]
00000000: 6417 133e 1074 c6bc 60c4 c3be 448f 08be
00000010: 4a47 10bf 8d4d d93d 5879 00bf ccda cd3e
00000020: eb0d b73e e7b5 6cbf 7196 c8bc 8242 b83e
00000030: 4ebe 7bbe 6b1e 2d3e 5002 573c f219 493c
00000040: 41a3 bfbf 12af c23d 658a 723d 0603 0e3f
0.14364392 -0.024225265 -0.3823576 -0.13335901 -0.5635878 0.10610495 -0.50185156 0.4020599
0.35752806 -0.9246506 -0.024485799 0.3598824 -0.24584314 0.16906135 0.01312311 0.012274252
-1.4971696 0.09506048 0.059214015 0.55473363

layers.3.weight f4 [1, 1, 10, 1]
00000000: ede2 ca3b 3a93 0ebe 6103 9cbe f9fd 5fbc
00000010: a56d 13be 547c 8ebd 186c c0be e640 903e
00000020: 2ab7 033e dad4 683f
0.0061916024 -0.1392335 -0.30471328 -0.013671392 -0.14397295 -0.069573075 -0.3758247 0.28174514
0.1286284 0.90949786

layers.6.weight f4 [1, 1, 10, 1]
00000000: 2d2b 66bc de2f dd3b 1426 043d 7827 993c
00000010: a5ed 96bb d375 96be 6df3 85bf 589b c4bf
00000020: 6fcb 5ebf 6429 98be
-0.01404838 0.006750091 0.032262877 0.018695578 -0.004605966 -0.29386768 -1.0464913 -1.5359907
-0.87029165 -0.2971908

layers.9.weight f4 [1, 1, 10, 1]
00000000: 3cbf b23b 08d0 83be 6cda 41be b652 9fbe
00000010: e156 54be 59b5 13be 8258 8fba 5025 2bbd
00000020: c87f 46bc 9fa0 993e
0.005454926 -0.25744653 -0.18930978 -0.3111779 -0.20736267 -0.14424647 -0.0010936412 -0.04178363
-0.012115426 0.30005357

layers.13.weight f4 [64, 70]
00000000: 908f 02be 25fa 4ebe ccf1 81be ea17 10be
00000010: 281d 51bd f1b9 e33d 0ee8 c63e d325 20bd
00000020: bfce e0bb 2200 a4bd 4318 a5be e1e1 75be
00000030: 2921 41be 5a82 c3bd db4c 33be 1472 42be
00000040: 663d 75bd 1778 e63d 87ce eb3c d889 04be
00000050: 3324 3b3e d326 b5be 890b a8be ebf3 efbe
00000060: bb49 d0be 7db1 a1be 814c ab3e 11ed 993e
00000070: 7fab fe3d 19fd 10bf 3eb2 00bf 43c9 d4be
00000080: 1ca0 43be 4825 b03e f908 adbe 6dbe 143e
00000090: b1c3 95bd 978f 21be 1bdb f6bc aa48 acbe
000000a0: cce6 2ebe 5bf7 dc3d f6b7 b33b ff95 773d
000000b0: e5d3 f83c d090 1b3e 3931 723e 20c2 913d
000000c0: f844 ed3d 3b1f a7bd 8353 df3c f155 6fbe
000000d0: be66 93be f6c7 7a3e 40aa c7bd 82f2 2abe
000000e0: 2eda c93d 0e82 553e 2f25 56bd 7884 48be
000000f0: 24b3 323d b7dd 863e 300d b83e ce7e 593e
00000100: b930 133c 05cf da3e ac14 dfbd d257 013f
00000110: a4d8 4fbe c96c b7be c7ba 583e 69a8 c53e
00000120: eb04 7f3e c659 8f3e 03bb db3e 742d 40bd
00000130: d26e 72bd 7e1d 53be 8ec6 edbc 9751 a63e
00000140: 32d7 103e 96b4 613d 3429 74be 0b1c 5b3e
00000150: 18a4 d33e 238c b63c d9b7 a53c 7e08 fa3e
00000160: 196d 153e cf8b 9dbe 5624 ff3d 8eba 8cbe
00000170: fa93 76be 0879 c1bd 3792 72bd c656 53be
00000180: 7714 9bbe 9c02 203e 8105 8d3e 7316 823d
00000190: 7a8d a9bd 514f 4ebb 1d8e f7bb 6741 b3be
000001a0: 4ccc 49bd 409c c3be 98a2 49bd 1af9 92bd
000001b0: 317b 9cbe 541b 8ebc a681 49be eb16 89be
000001c0: 880b 133e 2921 153e 6c46 613d 8800 9c3e
000001d0: 0d3d 0bbd b5b0 4d3d be2d 69be e760 8ebb
000001e0: c400 8fbd e21c fa3d d2b6 a63e 5675 133d
000001f0: 75e9 b1bd fb68 0c3d 0b3a ccbe fb6e cabd
00000200: 7f01 e93d b1ea d93e 3d12 56be 22f0 bdbe
00000210: 0bbf f33e 21be bdbe e20f 2fbc b0da e3bd
00000220: eb31 803d f1c9 abbe 5b6f 75be 57ef 3ebd
00000230: 19e7 dd3b 1942 ddbd df63 23be a8f8 2f3e
00000240: 157d 233e 989d 1dbe 9f16 34be d265 ed3d
00000250: 420f 35be e81a 0bbc 6285 aebe 576b 71bb
00000260: db31 243e e399 edbd 84b2 2ebe c674 96be
00000270: 37c5 84be 78d8 52be 302e 6fbe 7c29 eabc
00000280: 8506 26bd d87c 7ebe 5601 c73d be66 81be
00000290: 86df 5c3d c021 5f3c 6035 cc3d e1cd 093e
000002a0: 4fd5 f2bd 00d7 14be 3885 2dbe 89f2 32be
000002b0: aab2 63be 0830 99be 757d c0bd e637 a9be
000002c0: 0448 4b3e cfde 31be ba37 9ebe bde4 443e
000002d0: 15d9 d1bd 92c4 ea3d 11f1 b4be b0b7 aebd
000002e0: 7638 593e e3f3 8fbd 6a25 f73d 07f2 babd
000002f0: 3fbc 033e 5425 a83d f9d4 9ebe 6ca9 fcbd
00000300: d015 b4be b989 f3ba 8532 493e ecff 80be
00000310: 7702 46be 4720 98be b8f9 a3be 22c6 7fbe
00000320: 4b22 0bbe a1b1 a9be df7c 20be c6b3 18bd
00000330: 3a5f ad3d 571a b7be 9262 5b3d 648a 1ebd
00000340: 94e7 a5be 4a51 09be cbe8 943c 38b1 273e
00000350: 124f c93d fb9d db3d c9bc a43e 8aa1 743e
00000360: 78f5 7bbd 5f17 4abe 31b8 5e3d b96d 883d
00000370: 11ee dcbd 0669 0abe a307 fdbe fbbc b73c
00000380: 8e6c 29bc c83a 833e 469b 25be 35a4 99be
00000390: 8ee3 0f3c 6d9c c03d 5382 fa3d c910 adbe
000003a0: 0a9e 0c3f cc64 3d3e 679b 1dbe c682 463e
000003b0: 4246 b53d d6cb 113e be4b a7bd 6089 31bd
000003c0: 0d8a e73c 558f f8be 0521 fd3d 8fb1 613e
000003d0: 9007 9d3e e42e b4bd bedb 33be 5bf1 65be
000003e0: e271 20bf 35fc afbe 34c4 10bd f033 293e
000003f0: b267 00bf 931e b9be be32 3cbe b2f2 45bf
-0.12750077 -0.2021261 -0.2537979 -0.14071622 -0.051053196 0.1111945 0.3884892 -0.039098572
-0.0068605836 -0.08007838 -0.32245073 -0.24011947 -0.18860306 -0.09546347 -0.17509787 -0.1898883
-0.059873007 0.11253374 0.028785003 -0.12943208 0.18275528 -0.35381183 -0.328213 -0.46865782
-0.40681252 -0.31580725 0.33456805 0.3006368 0.12435054 -0.56636196 -0.50271976 -0.415598
-0.19104046 0.34403443 -0.33795908 0.14525767 -0.07312716 -0.15777431 -0.030133775 -0.33649188
-0.1708023 0.10789367 0.0054845763 0.06044578 0.030374477 0.1519196 0.2365159 0.071171045
0.1158542 -0.081602536 0.027261501 -0.23372628 -0.28789324 0.24490342 -0.097492695 -0.16694072
0.098560676 0.20850393 -0.052281555 -0.19581783 0.043627873 0.2634103 0.3594756 0.21239778
0.008983784 0.42736068 -0.10892615 0.5052463 -0.20297486 -0.35825184 0.21165 0.3860505
0.2490422 0.2799818 0.42916116 -0.046918347 -0.059187718 -0.20616719 -0.029025342 0.32484123
0.1414459 0.05510386 -0.23843843 0.21397416 0.4133613 0.02228362 0.020229267 0.48834604
0.14592399 -0.30770728 0.124581024 -0.2748608 -0.24079886 -0.09446913 -0.059221473 -0.2063857
-0.3028905 0.15625995 0.27543262 0.06351938 -0.08278938 -0.0031480382 -0.007554783 -0.35010836
-0.0492671 -0.38205147 -0.049227327 -0.071764186 -0.30562738 -0.017347015 -0.19678363 -0.26775298
0.14359868 0.14563431 0.0549988 0.30469155 -0.03399377 0.05021735 -0.22771356 -0.0043450478
-0.06982568 0.1221254 0.32561356 0.036000572 -0.086871065 0.034279805 -0.39888033 -0.09884449
0.113772385 0.42561868 -0.20905395 -0.3709727 0.47606692 -0.3705912 -0.010684939 -0.11125696
0.06259521 -0.33552507 -0.2396826 -0.04661497 0.0067719338 -0.10803623 -0.15956067 0.17184699
0.15965684 -0.15392148 -0.17586754 0.11591686 -0.17681602 -0.008490302 -0.34086138 -0.0036837661
0.16034643 -0.11601617 -0.17060286 -0.29385966 -0.25931713 -0.20590389 -0.23357463 -0.028584234
-0.04053356 -0.24852312 0.09717052 -0.252737 0.053924106 0.0136188865 0.09971118 0.13457443
-0.11857092 -0.14535141 -0.1694535 -0.17475332 -0.22236124 -0.29919457 -0.09398929 -0.3305046
0.1985169 -0.17370151 -0.3090189 0.19227882 -0.10246483 0.11463274 -0.3534017 -0.08531129
0.21212944 -0.070289396 0.12067683 -0.09128194 0.12864779 0.08210245 -0.3102186 -0.12337002
-0.35172892 -0.0018580473 0.19648178 -0.25195253 -0.19336878 -0.29712126 -0.32026458 -0.24977925
-0.135873 -0.33143333 -0.15672635 -0.03728082 0.08465429 -0.35762283 0.0535608 -0.0387062
-0.32403243 -0.13409916 0.01817741 0.16376197 0.098295346 0.10723492 0.32175282 0.23889747
-0.061513394 -0.19735478 0.054374877 0.06661553 -0.10787595 -0.13516626 -0.4941989 0.02242898
-0.010340823 0.25630784 -0.16172513 -0.30008093 0.008782281 0.09404836 0.122318886 -0.3380187
0.5492865 0.18495482 -0.15391313 0.19385824 0.08851291 0.14237913 -0.081687436 -0.0433439
0.02826407 -0.48546854 0.123598136 0.2204039 0.30669832 -0.08798006 -0.17564294 -0.22455351
-0.6267377 -0.34372106 -0.035343364 0.16523719 -0.50158226 -0.3615614 -0.18378732 -0.7732345

layers.13.bias f4 [64]
00000000: 2bd6 d3be 41e6 0ebf 4038 81be c17c c8be
00000010: 18ad 1abe 44f6 17be c029 0abe d542 d9bd
00000020: c19a 54be aa72 5bbe a435 e6be d8f6 3abe
00000030: b968 cabe 2cdb 87be 1f84 9bbe b0c6 76bc
00000040: 210c 9cbc eb69 b83d 7d92 2fbe 6eff 16be
00000050: bbd4 9ebd f452 2bbe cea4 38be fbb0 33bc
00000060: bb6a 24be fd99 0fbe 8ece 78be d404 32be
00000070: b272 56be f7f1 c9be feff a9be 4a33 3fbe
00000080: 760c 6cbe 60bf 15be cf3f 38be a9a8 85bc
00000090: f7ab 12be 1324 27be b270 d4bc a77a 9cbe
000000a0: 47ac 41be 2ef2 7bbe f75b 40be 9f8c 59be
000000b0: 62f7 05be f935 24be d9aa b6bd 066e 6abc
000000c0: adec 48be ff60 0fbf 906d b9be 4a35 1dbc
000000d0: 7b61 79be 1927 15bf 264b d8bd fe24 28be
000000e0: 349c ec3b 3061 05bf 51dd 6dbe 3b45 f7bd
000000f0: 1318 82bc e0c3 d4bd 999f 57bc af92 53be
-0.41374335 -0.5582009 -0.25238228 -0.3915768 -0.15105093 -0.14840037 -0.13492489 -0.1060845
-0.20762159 -0.2143046 -0.449628 -0.18258226 -0.39533022 -0.26534402 -0.30374238 -0.015062019
-0.019048752 0.09004577 -0.17145725 -0.14745876 -0.07755419 -0.16730863 -0.18031618 -0.010967488
-0.1605634 -0.14023586 -0.24297544 -0.17384654 -0.2094219 -0.39442417 -0.3320312 -0.18671909
-0.23051628 -0.14623785 -0.17993091 -0.016315775 -0.14323412 -0.16322355 -0.025932644 -0.30562326
-0.18913375 -0.24604103 -0.18785082 -0.21245049 -0.1308265 -0.16036214 -0.08919305 -0.014308458
-0.19621535 -0.5600738 -0.36216402 -0.009595225 -0.24353592 -0.58262783 -0.105612084 -0.16420361
0.0072207693 -0.5210142 -0.23228957 -0.120737515 -0.01588062 -0.10388923 -0.01316061 -0.20661424

layers.15.weight f4 [5, 64]
00000000: 5a2c 5b3e 59e7 883e 715f babc 5d36 e13d
00000010: f44d 4b3d 3c79 023e 09a5 97bc 372a 223d
00000020: 476c 313d 218b 053e 9b83 a73d e559 c73e
00000030: 5fc8 2f3e bd02 683d 3076 6b3e 65e2 763d
00000040: 6c7c 6d3e 8d21 ac3d 2b32 8b3e 5dc1 ee3d
00000050: 327c ac3e 579e 99bd 0ed8 83be afde f83d
00000060: 74d2 5f3e acd6 4c3e 861a 15be 9699 483e
00000070: cd01 2bbe 7063 a93e aafe 633e aba6 8b3e
00000080: a0bb 933e f103 91be ce8a 243e 8d4b 833e
00000090: 3a03 253c f9a0 9c3e 9ed6 583e 4301 f2be
000000a0: 6c53 623d 09cf 693e ff47 e43e 6c6f 853d
000000b0: 0cb1 393e 385d 763e b6f5 8d3e bedd 953d
000000c0: 3851 7a3d 1ea8 02be f4a1 a0bc eb05 a33e
000000d0: 6c96 0d3d acd4 abbe d0e3 ddbd 4c39 17bd
000000e0: d620 743e 369b 593e b790 7f3d b55f 973e
000000f0: 0ab4 173e 8f8e be3d 75b6 433e 98e9 323e
00000100: a711 6a3e 8b33 ee3e 5354 ab3d 9ab8 113e
00000110: 1af3 2c3e 2a43 073d 2f80 11bd 64a3 963d
00000120: 6a9f 883d 9876 83be 6ff8 963d c987 b53e
00000130: ca8b 7e3e 32ae ce3d 3305 ba3e 60db 6c3d
00000140: 4d4a 7b3e ff06 a13d 4d4b 9d3e dab5 d63d
00000150: c24a 05bd 7ebf 23be 3298 53be a997 003e
00000160: 7273 9e3e b8df 8dbd 8e76 a5bd 41a7 86be
00000170: 34bd 90be 9066 8a3e 26d4 493e ae95 383e
00000180: b38a f43e a129 6cbe b90f 553e 1990 643e
00000190: 6cef 81be 7df2 083e eefd 5b3e df8f ecbe
000001a0: 5096 583e 4cf6 993e 5be7 cf3e 0b09 543d
000001b0: a47e 5fbe a25f 383e f18f 0ebc 8c4a b33d
000001c0: ab25 bc3c 6878 54bd 557a 05bb f4cf b33e
000001d0: 9657 133d ac4b 9ebe 8ca8 44be ff06 79bd
000001e0: 46f1 633e 98ff db3e a417 ba3d 0488 7dbe
000001f0: 4d01 253e 8881 ea3d a8bf 383e fde8 0e3e
00000200: 20bf 093e b847 c13e 78f0 ecbd 2c5a 443e
00000210: d776 e43c cc02 d93d 37b8 813c 9ff5 db3d
00000220: 5efb 073d d0d4 a0be 2ed5 a73d e98c ce3e
00000230: 2fdb 7e3e 7a39 843d 8335 9b3d 4cd2 703d
00000240: fbf9 773e 7505 923d 5b67 a73e 94f9 5dbe
00000250: 5660 11be 5670 92bd 3cd9 8bbe 5cab fb3d
00000260: 1010 8c3e 05d9 603e d0d2 e73d b376 563e
00000270: 7b88 8bbd 44eb d73e 5c0c 113e 1880 51be
00000280: 4e86 0a3f 91c5 a33d 6461 953d 055e 623e
00000290: 3c4a 75be f7e2 0bbe 599b 733e b72f e2be
000002a0: 0a5d 033e e589 5b3e 720f 0a3f 4fc3 4bbe
000002b0: 8fd2 39be 4cba 203e 779c 4f3e 01b5 e13d
000002c0: 781a 6bbd 9739 8dbe 8ffb 54bd c2da b63e
000002d0: 7283 dbbd e0c6 f0be 56c5 51be 06d8 3dbd
000002e0: 3629 753e 8451 1a3e 1f3f 993d 9f36 4d3d
000002f0: 9ffb 153e 4537 6bbe b001 f13d 87a2 aa3e
00000300: 9d4d 473e 3eb4 a23e d32d bdbc a5ec 243e
00000310: 55e3 d83e 4668 cb3d 3bf0 b83d 61cc 433e
00000320: 1bb2 283d 0e73 ed3a c49b 81bd 8cdc dd3d
00000330: 2b17 73bc 3478 a93d 4efc 6b3e a9a9 a8be
00000340: fcd3 643e 4236 463e 9272 b53e 7261 aebe
00000350: e430 1cbe a6f6 f73d 0b23 89be 2060 533e
00000360: 73cd d73e ad6c 153e 783d 083e 82b7 9cbe
00000370: e313 1d3d 8cf4 c63e 5970 263e be9e b9bd
00000380: cb6f 4f3f eb7b 3b3e 96d9 3d3e fd70 673e
00000390: 9d62 7dbe fd37 91bd 03a6 853d 2528 05bf
000003a0: 3390 b03e d886 a93e 6c33 343f 6d7f 223e
000003b0: 3ca3 7dbe 6655 fabd f666 2d3e 599a 303e
000003c0: 21e1 0abe 5c01 12be 32cb b5bd 6810 a63e
000003d0: 768b 60bd 2e8a f7be 4f67 28be 947e 8fbe
000003e0: 9186 5c3e c823 743e ece4 6e3e ae6f 553e
000003f0: 6fd4 053e 5f9d a8bd 6b98 3f3e 2f65 c83e
0.21403638 0.26739004 -0.022750588 0.10996697 0.04963489 0.1274156 -0.018511312 0.03959104
0.043316152 0.13041355 0.081793986 0.38935772 0.1716628 0.056643236 0.22994304 0.0602745
0.23191994 0.08404837 0.27186713 0.11657975 0.33688504 -0.07500904 -0.25750774 0.121518485
0.21857625 0.20003766 -0.14560899 0.19589838 -0.16699906 0.33083677 0.22265115 0.27275595
0.28854084 -0.2832332 0.16068575 0.25643578 0.01007157 0.30591562 0.2117562 -0.47266588
0.05525534 0.22832884 0.4458618 0.06515393 0.18133944 0.24058998 0.27726525 0.073176846
0.061112612 -0.12759444 -0.019608475 0.31840453 0.03456728 -0.33560693 -0.108344674 -0.036919877
0.23840651 0.21250615 0.06239387 0.29565206 0.14814773 0.09304535 0.1911257 0.17471921
0.22858296 0.465237 0.08365693 0.14230576 0.16889611 0.033023037 -0.035522636 0.07355383
0.06671031 -0.25676417 0.07371604 0.35455158 0.24858013 0.10091819 0.36332092 0.0578264
0.24540062 0.078626625 0.30721512 0.10483904 -0.032541998 -0.15991017 -0.20663527 0.12557854
0.30947453 -0.069274366 -0.08079253 -0.2629948 -0.2826935 0.27031374 0.19709834 0.18025848
0.4776207 -0.23062755 0.20806779 0.22320594 -0.25377977 0.13373752 0.21483585 -0.46203515
0.2115109 0.30070722 0.40606198 0.051766437 -0.21825653 0.18005231 -0.0087013105 0.08754453
0.02296718 -0.05187264 -0.0020367105 0.35119593 0.0359722 -0.30917108 -0.1920492 -0.060797688
0.22260007 0.4296844 0.0908654 -0.24758917 0.16113777 0.114504874 0.18041861 0.13956065
0.13451815 0.3775003 -0.11569303 0.19175023 0.027888699 0.105962366 0.01583491 0.10740208
0.033198707 -0.31412363 0.08194958 0.4034188 0.248883 0.06456275 0.07578566 0.058794305
0.24216454 0.07129947 0.3269604 -0.21677238 -0.14196905 -0.07150333 -0.27314174 0.122885436
0.27356005 0.21957786 0.11319506 0.20943718 -0.06813141 0.4217168 0.14164871 -0.2045902
0.5411118 0.07996667 0.072939664 0.22106178 -0.239541 -0.13660799 0.23789729 -0.4417703
0.1282846 0.21439321 0.5392982 -0.19898723 -0.18146728 0.15696067 0.2027453 0.11020852
-0.05739829 -0.27583 -0.051997717 0.35713774 -0.107184306 -0.4702673 -0.20485434 -0.046348594
0.23941502 0.15070158 0.074827425 0.05010092 0.14646767 -0.22970302 0.117679 0.33327124
0.19463201 0.3177814 -0.02309314 0.16105898 0.4236094 0.09931998 0.09030195 0.19120933
0.04118548 0.0018115954 -0.06328538 0.108330816 -0.014837067 0.0827488 0.23045465 -0.3294194
0.2234649 0.19356635 0.35438973 -0.3405872 -0.15253025 0.12107591 -0.26784548 0.20642138
0.42148933 0.14592238 0.13304698 -0.30608755 0.038349044 0.3885845 0.16253795 -0.09063481
0.8102996 0.1830899 0.18540034 0.22601695 -0.24744649 -0.07090757 0.06525805 -0.5201438
0.34485015 0.3311069 0.70390964 0.15868922 -0.247693 -0.1222332 0.16933808 0.17246379
-0.13562442 -0.14258331 -0.08876647 0.32434392 -0.0548205 -0.4834761 -0.16445659 -0.2802626
0.21535708 0.23841774 0.23329514 0.20843384 0.13069318 -0.08233141 0.18710487 0.39139697

layers.15.bias f4 [5]
00000000: df02 f23d 267d f53d e485 f13d 3154 cb3d
00000010: 74f6 933d
0.11816954 0.11986761 0.11793116 0.099281676 0.072247416
