stocks_google.pt (torch, 988117 bytes, 12 tensors)

layers.0.weight f4 [128, 1400]
000000 f1 93 16 3e 43 8f d9 3d 4b 82 3e 3e 3d dc 53 3e
       0.14704873 0.10623028 0.1860439 0.20689483
000010 91 21 df 3d e4 89 c9 bd 7f ae 2b 3e 26 18 35 3e
       0.10895074 -0.09840754 0.16765784 0.17684993
000020 a7 e9 46 3e 71 37 15 3e 8c 35 ff 3d cf 1d 21 be
       0.19425069 0.1457193 0.12461385 -0.15734027
000030 0a f3 d9 3c 9f 49 d2 3c e0 28 0d 3e db 78 82 3d
       0.026605148 0.02566987 0.13785124 0.063707076
000040 b6 2f 3e 3d d5 a8 28 be 8c 7a 9e 3c 19 ae a1 3d
       0.04643222 -0.16470654 0.019345544 0.078945346
000050 f7 bf 0e 3d 4a 69 b5 3d f1 5d 25 3d a9 d2 2e 3e
       0.03485104 0.08857973 0.040372793 0.17072548
000060 4e 84 ea 3d 40 d8 2f 3d fe 0f bd 3c 0c fa d2 3d
       0.11451016 0.04293084 0.023078915 0.10301599
000070 03 78 01 3e 46 35 15 3e ed c1 77 3d 7e b8 98 3d
       0.12643437 0.14571103 0.060487676 0.07457064
000080 bd 2e de 3c 9a 1b 2d 3e 47 e0 ca 3d d2 04 82 3e
       0.027121896 0.1690506 0.09906059 0.25394303
000090 3d 16 dd 3d e4 3b 08 3e 81 19 da 3d 45 b8 f2 3b
       0.10795257 0.13304096 0.10649396 0.0074072205
0000a0 fb bf 95 3d 61 54 ab 3c 17 7a 92 3c 00 cf 28 3d
       0.07312008 0.020914258 0.017880483 0.041213036
0000b0 98 35 29 3e 7d 6f 14 3e 56 da 7c 3d 0a fc 3c 3d
       0.1652435 0.14495654 0.06173166 0.0461388
0000c0 34 a2 67 3d 17 28 7c bc aa d2 c4 3d 4b 9d d3 3d
       0.056551173 -0.015390418 0.096104935 0.10332736
0000d0 cb 6b 55 3d a6 72 1f be 7f 1e 9e 3c 14 27 ab b9
       0.052104753 -0.15571079 0.019301651 -0.00032644777
0000e0 77 5d a7 3d d8 fe d8 3d fb 6d 09 bd f8 0c 0e be
       0.08172124 0.105954826 -0.03355215 -0.13872135
0000f0 0c bc 84 bd eb 5b e9 bb 6f 31 8e 3d fc fc 01 3d
       -0.064811796 -0.007121553 0.069430225 0.031735405
000100 35 2b 00 bd 12 d6 a7 3d d0 9a 68 bd fc 18 c3 bb
       -0.031291205 0.081951275 -0.056788266 -0.005953906
000110 d0 ed 3f 3d d3 21 94 bd 70 73 8e bd 5f 04 20 3e
       0.046857655 -0.07233014 -0.06955612 0.15626667
000120 5b 81 8b 3a ac 33 76 bc 2d 67 a6 3a d7 cc 5b 3d
       0.0010643409 -0.015026968 0.0012695544 0.053662147
000130 91 83 05 3d aa b0 6e 3e 66 d9 8f 3c b7 47 17 bd
       0.032596175 0.2330958 0.017559718 -0.036933627
000140 78 31 cf 3d 4d b3 97 bd 30 89 48 3c 2c 4d 85 3d
       0.10116857 -0.07407246 0.012239739 0.0650886
000150 9c ea 35 bd f6 30 04 3c 59 48 a8 3c 2b 26 83 bd
       -0.044413194 0.008068314 0.02054231 -0.06403764
000160 b4 35 c5 bb a9 40 52 3c 26 c4 5f 3d 68 f2 5c 3c
       -0.006018365 0.012832799 0.05463042 0.0134855285
000170 98 25 9a 3d 08 29 1d bd 0c 2e ed bc 64 9f 40 bc
       0.07526702 -0.03836921 -0.02895262 -0.011756752
000180 04 1b 84 bc 2b 18 a5 3d 64 48 cc bc 7b aa ca bc
       -0.016126163 0.0806125 -0.024936862 -0.024739495
000190 66 c1 bf bd c3 ee 2e 3d d4 d4 b3 bd 85 6f c6 3c
       -0.0936306 0.04270817 -0.08780828 0.024223099
0001a0 87 32 bb 3c 3b 50 2f 3d fe f4 b4 bd 9d 56 8a 3e
       0.022851242 0.042801123 -0.08835791 0.27019206
0001b0 09 e2 3d bc 2a ab ca bd 6b 20 47 bd 1f 40 aa bd
       -0.0115895355 -0.09895928 -0.0486149 -0.083130114
0001c0 df d5 ba bd 2a 6f 89 3e b0 9b 8d bd 2c bd dc bd
       -0.09122824 0.26842624 -0.06914461 -0.10778269
0001d0 33 c7 85 bb 6f 5a c4 3c 48 0b 92 bd 0a 88 da 3d
       -0.0040825843 0.023968903 -0.07131058 0.10670479
0001e0 d1 e2 ac 3d 1f cf d4 bc 49 7f e7 3c ce c4 13 3d
       0.08441699 -0.02597767 0.028258936 0.03607636
0001f0 f1 3a 75 3d d0 98 6f bd db aa 81 bd cc 4a fb 3c
       0.059870664 -0.058495343 -0.06331416 0.030675314
000200 7d b2 16 bd 59 5b 4b bd 80 1e 9c bd e7 31 da 3d
       -0.036791313 -0.049647663 -0.07623005 0.10654049
000210 9c 10 cc bb 95 53 cd 3d 4e aa 08 3d a4 97 56 bc
       -0.006227566 0.10025708 0.03336554 -0.013097677
000220 21 02 81 3d e2 dd 05 bd 63 27 b1 3d ad 57 28 3c
       0.06299234 -0.032682307 0.086500905 0.01027481
000230 3c 05 82 bd 6f 85 91 bd 70 34 4b 3c 12 bf 07 bd
       -0.06348655 -0.071055286 0.012402639 -0.033141203
000240 49 65 89 3d c8 84 3b 3d 5b 54 de 3c 8a 36 52 bd
       0.06708772 0.045780927 0.027139833 -0.051321544
000250 ec e6 eb 3d 81 8b 58 3d fb 37 c1 3b 0d 7c 28 3d
       0.11518654 0.052867416 0.005896566 0.04113393
000260 59 46 7f bc 4f 10 78 3d 5b d9 7b 3d 44 45 81 3e
       -0.015580737 0.060562428 0.061486583 0.25248158
000270 2c 63 16 3e 50 31 1d 3e 0c 08 a3 3d 95 c6 60 3d
       0.14686269 0.15350842 0.07960519 0.054876883
000280 29 c9 68 3d a6 18 f2 bd be 06 ed 3d ea e6 a4 3d
       0.056832466 -0.118211076 0.115735516 0.08051856
000290 a4 a0 71 bc 13 c5 cf 3d c0 98 e3 3d 5e 09 3e bc
       -0.014747772 0.10145011 0.11113119 -0.011598913
0002a0 68 d8 b5 3c 52 ab f3 3d b4 82 80 3c a7 45 e4 bb
       0.022197917 0.11897911 0.015687324 -0.006966311
0002b0 51 9e 3d 3d 6c ca 5b bd 5b f4 06 3e 2a b8 a0 3d
       0.04629356 -0.05365984 0.13179152 0.078476265
0002c0 b4 28 25 3c 16 f1 c1 3b 1c 16 93 3d f5 59 37 bd
       0.010080505 0.0059186323 0.071819514 -0.044763524
0002d0 d0 0b 80 bd 39 4a e2 3d c6 7a 83 3c dd f5 b9 3d
       -0.06252253 0.11049313 0.016049754 0.09080098
0002e0 ba f0 5a bd 1f 20 6b be d2 59 80 bc 58 54 b9 3c
       -0.05345223 -0.22961472 -0.01566783 0.022623226
0002f0 42 38 c6 bc 56 62 ae 39 99 21 89 bd 25 c6 60 be
       -0.024196748 0.00033261132 -0.06695861 -0.21950586
000300 97 70 4a 3d 06 5c 99 bd 74 c2 94 3d 20 e7 61 bd
       0.04942378 -0.07488255 0.072636515 -0.05515206
000310 19 59 2e 3d 34 cf 96 be 35 2a df bc dc 1c 93 3d
       0.04256544 -0.29454958 -0.027241806 0.07183239
000320 c4 0b 05 3b be 33 83 3c 49 5a 7e 3d e4 eb 38 be
       0.0020301202 0.016015884 0.06209782 -0.18058735
000330 91 25 8d bc a2 3a e4 3c ae f6 b7 3c f0 c0 b2 bb
       -0.017229827 0.02785999 0.022456493 -0.005455129
000340 38 04 3c bd e1 49 83 be f8 35 c9 bd 1f d9 fb bb
       -0.04590246 -0.25642303 -0.09824747 -0.007685795
000350 68 00 84 3d 53 7b 87 bd 65 71 e6 bc 62 f8 19 3e
       0.0644539 -0.06615319 -0.028130243 0.15036157
000360 1b 82 89 3d 10 e8 9e bd fe 3c 2e bb 3a 08 44 3d
       0.06714269 -0.07759106 -0.0026586647 0.047859408
000370 5f 8a d2 bc 97 6c 0f 3e 29 3c 8b bd c8 18 c1 3c
       -0.025700746 0.14006267 -0.06798584 0.023571387
000380 cd ec 9b 3d ba e4 1b 3c f3 9d 41 3c b0 60 82 3d
       0.076135255 0.009514982 0.011817443 0.06366098
000390 28 9b 2b 3d 65 24 53 bd d0 b7 0c bc e7 98 6b 3c
       0.041896015 -0.05154838 -0.008588746 0.0143797165
0003a0 10 ad 86 3d cc b3 86 bd af 67 0c 3e 91 8f ad 3d
       0.06575978 -0.06577262 0.13711427 0.08474649
0003b0 41 76 76 3b f0 55 0e 3d 4b 4d 41 3d cf cb a7 be
       0.0037607106 0.034749925 0.047192853 -0.3277268
0003c0 27 e4 0d bc bb 65 46 3d 4b 94 3e 3d 51 cb b9 bb
       -0.008660353 0.04843686 0.046528142 -0.005669989
0003d0 97 78 99 3d 2b 2d 01 bf b9 f4 b5 3d 03 d3 02 3e
       0.07493704 -0.50459546 0.08884568 0.12775807
0003e0 1d 43 27 3d 4c 71 7c 3b f9 96 c6 3d 59 17 3f be
       0.04083549 0.0038519679 0.096967645 -0.1866125
0003f0 8b e8 95 3c 88 21 0e 3c 27 7b 69 3d 0a e2 82 3b
       0.018299362 0.008674987 0.057002213 0.003994231

layers.0.bias f4 [128]
000000 fc c0 8b bf a0 09 14 c0 df a5 20 c0 a4 90 b1 bf
       -1.0918269 -2.3130875 -2.510124 -1.3872266
000010 5d 73 f9 bf 3a e9 0d c0 bf 64 b1 bf bd 32 ac bf
       -1.9488331 -2.21736 -1.385887 -1.3452984
000020 f5 71 fa be 93 2b d9 bf d2 60 62 be 68 76 2a c0
       -0.48915067 -1.6966423 -0.22107247 -2.663477
000030 e2 03 4a c0 cd 23 ab bf c3 03 23 3e eb 81 37 c0
       -3.156487 -1.33703 0.15919404 -2.8673046
000040 ec 8b 3a c0 a9 04 1c c0 2a cd eb bf 92 f3 2d c0
       -2.9147902 -2.4377844 -1.8421986 -2.7179914
000050 72 69 a8 bf db 42 27 c0 3b b4 56 c0 a4 42 f6 bf
       -1.3157179 -2.6134555 -3.3547504 -1.9239087
000060 cc c1 89 bf cc 59 01 c0 6e 9d ee bf f0 1f 4f c0
       -1.0762267 -2.0211058 -1.8641794 -3.2363243
000070 44 3b 15 c0 e1 d0 ab bf fc 22 27 c0 b9 0b 0e c0
       -2.3317423 -1.342312 -2.6115103 -2.2194655
000080 b5 b1 1b c0 48 3b 18 c0 ca 06 17 c0 4a b4 9e bf
       -2.4327214 -2.3786182 -2.3597894 -1.239877
000090 59 7c 1b bf 0f fb 46 c0 a1 60 cc bf 98 71 34 bf
       -0.60736614 -3.1090734 -1.5966989 -0.7048583
0000a0 40 7b 22 c0 74 c6 ec bf 14 c7 c9 be db 11 1c c0
       -2.5387726 -1.8498063 -0.39409697 -2.4385898
0000b0 35 61 13 c0 da 58 d1 bf 35 6f 4b c0 e4 69 1f bf
       -2.302808 -1.635524 -3.1786625 -0.6227095
0000c0 61 e3 f2 bf 09 4b 31 bf c0 99 1c c0 3c a7 aa bf
       -1.897564 -0.6925512 -2.4468842 -1.3332286
0000d0 ac 5a dc bf f9 b0 32 c0 db f0 08 c0 a3 de 15 c0
       -1.7215171 -2.7920516 -2.1397007 -2.3417137
0000e0 e7 26 d8 bf d9 35 14 c0 27 ac ee bf df 5a 18 c0
       -1.6886872 -2.3157866 -1.8646287 -2.3805463
0000f0 b2 7c 0a c0 d8 cc 71 bf de 34 ff bf e4 42 b2 bf
       -2.1638608 -0.9445319 -1.9938009 -1.3926663
000100 60 d8 ad bf 6c 79 d0 bf 15 1a 06 c0 46 62 3d c0
       -1.3581657 -1.6287055 -2.095342 -2.9591231
000110 94 c8 10 c0 fc bd ce bf e8 c7 0c c0 ab f0 78 bf
       -2.2622423 -1.6151729 -2.1997013 -0.9724223
000120 a3 53 3d c0 c2 cb 01 bf 19 7b 5f c0 f2 90 98 bf
       -2.9582298 -0.50701535 -3.4918883 -1.1919234
000130 0a 10 14 c0 9b d1 01 c0 80 d7 e7 bf f1 b6 af bf
       -2.313479 -2.0284183 -1.811264 -1.3727704
000140 4b 47 15 c0 c9 86 19 c0 6e 88 2e c0 99 0e e7 be
       -2.3324764 -2.3988516 -2.727077 -0.45128325
000150 ef 53 99 bf ad 4f a7 3e cd 0a b5 be e5 f5 32 bf
       -1.197874 0.32677975 -0.35359803 -0.69906455
000160 e0 92 f6 bf 1e cc 33 c0 be 71 3b bf cb 16 c2 bf
       -1.9263573 -2.8093333 -0.7322043 -1.5163206
000170 a6 51 ec bf f8 ce 15 c0 56 74 c4 bf 2b 8e 72 bf
       -1.8462417 -2.3407574 -1.5348003 -0.9474818
000180 ab d6 12 c0 1f 5a b7 bf 4c 53 c7 bf 0f 97 e3 bf
       -2.2943523 -1.4324378 -1.5572295 -1.7780474
000190 53 89 3c c0 ed 47 00 c0 3d 1f 1f c0 a7 a8 9b bf
       -2.9458816 -2.00439 -2.4862816 -1.2160844
0001a0 f9 76 51 be 13 06 0d bf c8 03 28 c0 91 f7 7d bf
       -0.2045554 -0.55087394 -2.6252308 -0.9920588
0001b0 4c 3d f3 bf 40 c8 29 c0 fd 27 10 c0 96 67 08 c0
       -1.9003081 -2.6528473 -2.2524407 -2.1313224
0001c0 3d 97 ce bf e0 43 9b bf 63 96 90 bf a5 de e3 bf
       -1.6139904 -1.2130089 -1.1295894 -1.7802321
0001d0 6b f3 0e c0 32 48 33 c0 9b ed f2 bf 1f 4d dd bf
       -2.233607 -2.8012815 -1.8978761 -1.728916
0001e0 be c5 1b c0 90 e1 df 3e b4 7c ff bf 0d 41 d6 bf
       -2.4339442 0.43726778 -1.9959931 -1.6738602
0001f0 ee dd 8b bf a6 c2 38 c0 68 4d cc bf da 48 d7 bf
       -1.0927103 -2.8868804 -1.5961123 -1.6819108

layers.2.weight f4 [128, 128]
000000 ee 95 2a be 04 5d d2 bd be 12 0f 3d 41 5d 8b be
       -0.16658756 -0.102716476 0.034929983 -0.27219585
000010 a1 11 7a 3e 82 fd a9 3d 41 02 2d bd f3 39 ca 3c
       0.24420787 0.08300306 -0.042238478 0.024685835
000020 e4 39 01 bf 54 26 27 3d f8 a9 e9 be 91 36 6b be
       -0.5047896 0.040808037 -0.45637488 -0.22970034
000030 a6 12 65 3d 01 28 26 be ac bf 06 be d2 64 6e bd
       0.055925988 -0.16226198 -0.13159055 -0.05820162
000040 7c a8 45 bd 5b 85 45 be de 0d a0 bd c3 ee 24 be
       -0.048256382 -0.19289152 -0.07815145 -0.16106705
000050 32 15 cd bc f2 7d 5c 3d 86 42 6c be 1f 2f bf bd
       -0.02503452 0.05383105 -0.23072252 -0.093351595
000060 c0 6e bc bd 2a 40 db bd 50 4c 99 bc db a0 ea 3d
       -0.092008114 -0.10705598 -0.018713146 0.11456462
000070 f4 3a 33 be 16 5f 17 3d ef b6 d3 bb 09 79 ba be
       -0.17502958 0.036955915 -0.0064610164 -0.36420467
000080 9c e1 da 3d 1c 1b da bd 6d b8 ae be 59 f0 16 be
       0.10687563 -0.10649702 -0.3412508 -0.14740123
000090 59 e4 5d be 15 33 f9 3d a4 89 50 bd 2d 27 7a 3d
       -0.21669139 0.12167946 -0.050912514 0.061072517
0000a0 73 a3 11 3c c3 e0 29 be de d0 fa bb 6b 6d 83 be
       0.008889067 -0.16589646 -0.0076542934 -0.25669417
0000b0 04 95 68 3e 79 60 0e bc a6 cc ae 3c 2a 71 1e be
       0.22713095 -0.008689993 0.021337818 -0.15472856
0000c0 1c 2a 53 3e 9d 30 0c bf 7c d9 61 be 7d 61 18 be
       0.20621532 -0.5476168 -0.2205562 -0.14880939
0000d0 3c 8d 92 be 80 eb 65 3d 06 0d 44 3d 81 1c b6 3d
       -0.28623378 0.056132793 0.047863983 0.088921554
0000e0 48 8a 0f be 5f da a3 bd b3 f4 5a 3d 1e 19 0f be
       -0.14017594 -0.08000635 0.05345602 -0.13974425
0000f0 41 5a ad bd 18 6a 1a be 63 58 c0 3d 00 98 01 3e
       -0.0846448 -0.15079534 0.093918584 0.1265564
000100 f7 3c 81 3d 30 aa bd be 04 0e 71 bd 34 9e 2b 3d
       0.06310456 -0.37043905 -0.058851257 0.04189892
000110 32 3b e7 bc 10 f7 a1 3d a2 4b ae bd ef 8d f1 be
       -0.028226469 0.079084516 -0.085105196 -0.471786
000120 54 a9 83 3e 96 5b d2 bd af 1a 26 be de 01 c5 be
       0.25715125 -0.10271375 -0.16221116 -0.38477987
000130 93 5a 2e be 5c 7c 03 bd 0a 29 3a bd 0a 55 8d be
       -0.17026739 -0.03210102 -0.045449294 -0.27603942
000140 4a 12 7c be 7a 32 3c ba 29 d3 f3 bc 90 27 65 bd
       -0.24616352 -0.00071791525 -0.029763775 -0.055945933
000150 a1 29 85 3d 6c a4 e4 be bd 92 9d be 60 f1 a8 be
       0.06502081 -0.44656694 -0.30776015 -0.32996655
000160 6f 14 37 be e9 a2 9c 3a ed de a0 be 20 08 05 3e
       -0.17878889 0.0011950406 -0.3142008 0.1299138
000170 bd b8 85 be 19 0c 1d 3d b1 71 68 3d 26 28 a5 bd
       -0.26117507 0.038341615 0.05674905 -0.08064298
000180 e1 78 2a bd 70 40 de 3e 01 8d 4f 3d b7 06 aa be
       -0.041619185 0.43408537 0.05067158 -0.33208248
000190 0a 61 04 be 37 96 49 be 22 63 94 bc ba 6b 4e 3e
       -0.12927642 -0.19686209 -0.018113676 0.20158282
0001a0 13 65 98 3b a1 91 e4 bd cb 90 06 3d 4c bd 26 be
       0.004650721 -0.11160589 0.03285293 -0.16283149
0001b0 5c 2e 9c be 5c 8e 05 be 0f 8d fe bd ee f3 8c 3e
       -0.3050412 -0.13042587 -0.124292485 0.27529854
0001c0 bb 1b e6 bd ba a2 9f bc b7 d6 b6 bd e2 56 80 be
       -0.11235758 -0.019486774 -0.08927672 -0.25066286
0001d0 e9 ea 25 bd 10 0e 22 be 1f 10 b2 bd e9 63 fd 3d
       -0.04050723 -0.15825677 -0.08694481 0.12372572
0001e0 53 40 33 be ce 70 53 bf a5 52 c5 3c 94 4a f5 bd
       -0.17505006 -0.82594 0.02408726 -0.11977115
0001f0 90 b9 88 be 5d 87 65 3c 3e 89 9d bd a7 5b 2c bd
       -0.26704073 0.014009324 -0.076921925 -0.042079594
000200 83 93 c3 be 61 f9 41 be fb 74 8b 3b bf a8 80 bd
       -0.3819848 -0.18942787 0.0042558885 -0.06282186
000210 a4 53 c3 3d 39 2a fd be 4b fe 69 be 85 30 53 3e
       0.095374376 -0.49446276 -0.22850911 0.20623977
000220 6b 4d af bd b2 c9 2c be 1e b6 84 3e ce 03 5f 3e
       -0.08559688 -0.16873816 0.25920194 0.21778795
000230 b5 e5 d4 3c 45 5e c1 bd 61 df 6c be a6 7d a3 be
       0.02598844 -0.094418086 -0.23132087 -0.319318
000240 3d bb 95 be d2 d6 c1 3d 7e 3f 0a be 25 b3 5b bc
       -0.29244414 0.09464802 -0.13500783 -0.013409411
000250 30 05 1d 3e 84 b1 79 bd e5 2c d2 bd 29 fa c1 bd
       0.1533401 -0.060960308 -0.10262469 -0.094715424
000260 5b 83 e9 be 13 ee d2 bd 24 2d 20 be 40 d4 e7 bc
       -0.4560803 -0.10299315 -0.1564222 -0.02829945
000270 bd f2 1d be fc d9 3b 3e da 58 25 bd d1 87 43 be
       -0.15424629 0.18344873 -0.04036794 -0.19094779
000280 9d e9 ab bd 3a f4 29 be 2a b9 12 be 51 84 62 3d
       -0.083941676 -0.16597071 -0.14328447 0.055301968
000290 17 a0 b3 3d a0 fc 6b be 93 71 87 be 34 d4 53 bf
       0.08770769 -0.23045588 -0.26453838 -0.8274567
0002a0 e9 ae 97 bd f2 55 00 bd b0 86 e9 ba 26 ad 5e be
       -0.07406408 -0.031331964 -0.0017816629 -0.21745738
0002b0 87 d0 9c be 01 51 c5 3d bb 86 88 3c 51 67 17 bf
       -0.30627844 0.09634591 0.016665807 -0.59142023
0002c0 9d d2 d1 3c 2d 01 7b be 74 68 61 be 18 b8 b6 be
       0.025613124 -0.24512167 -0.22012502 -0.35687327
0002d0 dc e7 8a be df 0d 3f be 4e 43 a1 be ef f6 00 3c
       -0.2713002 -0.18657635 -0.31496662 0.007871374
0002e0 e6 32 91 be b7 01 7b bd e5 69 d0 be dc 18 52 bd
       -0.28359145 -0.061280932 -0.4070579 -0.05129324
0002f0 36 e1 a9 bd 29 ed 84 be 5e 9f 35 bd f0 9f cc be
       -0.08294909 -0.2596219 -0.044341438 -0.39965773
000300 22 a6 88 3d 66 1a f2 be de 28 4a be 71 45 a9 bd
       0.06672312 -0.47285765 -0.19742152 -0.08265198
000310 74 e5 34 3e c7 aa 2c bd e8 b4 9d 3e ca 82 59 be
       0.17665654 -0.042155053 0.30802083 -0.21241298
000320 03 97 f5 bd dd 0e 9a be 97 0f bd bd fd 25 86 3e
       -0.11991694 -0.30089465 -0.09231489 0.26200858
000330 27 47 ed bd 88 11 88 3e 94 f8 c5 be d5 94 51 be
       -0.11585837 0.26575875 -0.38666213 -0.20466931
000340 bb b0 fd bd 7f f6 8e be 0c c6 a8 bd 7a 74 d6 3d
       -0.12387224 -0.27922437 -0.082408994 0.10471435
000350 2f 69 98 bd 2e 28 98 bd d0 d3 b2 3e cd 74 64 be
       -0.07441937 -0.07429539 0.34927225 -0.22310181
000360 fb 15 7a bd 55 7a 08 bf d1 ec ae 3d 1e 3a 36 3e
       -0.06105612 -0.53311664 0.08541263 0.17795607
000370 e2 e9 4c bf 21 5f e2 be 7b a1 f4 bd 39 35 ba be
       -0.80044377 -0.44213203 -0.119448625 -0.3636873
000380 59 9c c7 be 4e d7 a3 be 4a ff b3 be e7 8d 3e bd
       -0.3898647 -0.32000202 -0.35155708 -0.046522047
000390 4a cf 82 bd 33 a2 10 3e 26 53 78 3e 22 b5 8c be
       -0.063871935 0.14124374 0.24250469 -0.27481943
0003a0 47 39 62 be 72 b0 bd be 07 2a 79 be 92 61 86 be
       -0.22092162 -0.3704868 -0.24332438 -0.26246315
0003b0 95 29 a2 be dd 9b e6 3c 03 f7 04 be dd e2 a5 3c
       -0.3167235 0.028150493 -0.12984852 0.020249778
0003c0 db 55 8c 3d e4 1a 46 3d 04 1f 94 bd c8 5b 4a be
       0.06852313 0.04836549 -0.07232478 -0.19761574
0003d0 ec f0 90 be 2b 44 18 be 01 b2 82 bd e6 eb 65 3d
       -0.2830881 -0.14869754 -0.06381608 0.056133173
0003e0 4f ae 8c bd 07 3c 5a be 8c e9 43 3e 7c ed 23 3e
       -0.06869184 -0.21311961 0.1913206 0.16008562
0003f0 98 7d 39 bf 90 9f 81 bd 5c b8 2a be 9a 38 89 bd
       -0.72457266 -0.06329262 -0.1667189 -0.06700249

layers.2.bias f4 [128]
000000 ac 69 8b 3c 27 21 2d bd 4e 7e b7 be 9d 9b 58 be
       0.017018162 -0.042267945 -0.3583855 -0.21153112
000010 5b bf 00 3f 89 8c a7 be ce c8 8b be bb 32 5c be
       0.50291985 -0.32724407 -0.2730164 -0.21503727
000020 4d 52 28 be 8d b7 dd be 8b c9 b2 bd f3 d1 a9 be
       -0.16437645 -0.433041 -0.087298475 -0.3316799
000030 0e 4b 0a be 3f 14 90 be 52 23 30 be 66 64 8a be
       -0.13505194 -0.28140447 -0.17200974 -0.27029723
000040 69 8f e0 be 7e da 9f be e1 0a 39 3f 99 12 71 3e
       -0.43859413 -0.31221384 0.72282225 0.2354225
000050 b3 3a 96 be be 4c 82 bd 09 7b 11 3f ed c3 83 3e
       -0.2934166 -0.06362294 0.5682836 0.25735417
000060 d6 79 45 be 39 1a 6e be 9d 68 51 be 38 2e e1 be
       -0.19284758 -0.2325219 -0.20450063 -0.43980575
000070 21 a1 73 be 1c 75 ca be 94 29 f0 bd 72 45 29 be
       -0.23791935 -0.39542472 -0.117266804 -0.16530398
000080 37 da 93 be b2 4a 9d be 34 83 1f be 95 ca 20 be
       -0.28877422 -0.3072105 -0.15577394 -0.15702279
000090 f1 c1 89 be c8 5b 2f be a8 41 32 3f 20 d0 3f be
       -0.26905778 -0.17124856 0.69631433 -0.18731737
0000a0 7d 49 8d be 80 2e 96 be ba 5a 75 be 9c 8e ee bd
       -0.2759513 -0.29332352 -0.2396039 -0.11648294
0000b0 b4 4e 16 be 99 c2 f6 be 7f 1a 72 be 96 4b be be
       -0.1467846 -0.4819534 -0.2364292 -0.37167042
0000c0 48 25 ab be 44 f0 73 be 3a 98 9d be a2 ce 15 3d
       -0.3342688 -0.23822123 -0.30780202 0.036574014
0000d0 26 29 f1 bd 3c 57 86 be cb d3 98 be 2e a6 37 be
       -0.117754266 -0.2623843 -0.29849085 -0.17934486
0000e0 a0 38 9d bd 5d 48 b9 be a1 b1 9f be 52 e7 e7 be
       -0.07676816 -0.3618802 -0.31190208 -0.4529367
0000f0 ae 1e a8 be a5 9b 83 be 9a 34 1b 3f 1d 2e 68 be
       -0.32835907 -0.25704685 0.6062714 -0.22673841
000100 bd 22 34 bd cd 10 a6 3d 28 82 0f 3f 27 dc 81 be
       -0.04397844 0.08108673 0.5605798 -0.25363275
000110 7a 80 9a be 95 63 84 be a7 bd 65 be e6 23 61 be
       -0.30176145 -0.25857225 -0.22435628 -0.2198635
000120 28 b8 e5 bd 77 ec 70 3c c4 43 28 be 03 db 81 be
       -0.11216766 0.014704815 -0.164321 -0.25362405
000130 84 bc 2e 3e 21 2b 7e be 1a 2a a1 be 96 42 25 3f
       0.170641 -0.2482114 -0.31477433 0.6455473
000140 2e b1 75 be 34 f0 75 be e7 d4 b5 be 60 94 01 be
       -0.2399337 -0.24017411 -0.35513994 -0.12654257
000150 6c d2 62 be aa a3 3b 3d 2a f6 ca be 08 21 09 be
       -0.22150582 0.04581038 -0.39640933 -0.13391507
000160 23 af 9b be 74 f2 a9 be 4a 31 a4 be 2d 88 92 be
       -0.30407056 -0.3319279 -0.32068855 -0.2861952
000170 cd a1 62 be aa 22 3d be 00 3d 2c bc fb 51 6f be
       -0.22132035 -0.18470255 -0.01051259 -0.23371117
000180 b8 a9 b2 bc 4a 00 c4 be d0 c5 95 be 3d a4 52 be
       -0.021809444 -0.3828147 -0.2925248 -0.20570464
000190 56 4d 8a be c5 23 da bd d5 5f 17 be fe 98 5d be
       -0.27012128 -0.10651354 -0.14782651 -0.21640393
0001a0 71 60 8a be 06 ad 4e be eb 51 43 be c9 97 e1 be
       -0.27026704 -0.2018319 -0.19074218 -0.44061115
0001b0 e2 88 47 bd 03 88 3f be 01 df 64 be 95 cc 1a be
       -0.048714526 -0.18704228 -0.22350694 -0.15117104
0001c0 a9 0e 78 be bc c9 6b be 9e f6 ce bd a2 66 00 bf
       -0.24224342 -0.23026174 -0.10105632 -0.50156605
0001d0 79 5f a2 be 4e a8 dc bd b5 86 46 3f 2c 2e c2 be
       -0.31713465 -0.10774289 0.77549297 -0.3792585
0001e0 90 14 db be f0 25 98 be 80 c4 83 be 29 03 ce be
       -0.42789125 -0.29716444 -0.25735855 -0.40236786
0001f0 f4 dd 17 be fe 8f 8b be 87 00 bd be f0 0a b2 be
       -0.14830762 -0.27258295 -0.36914465 -0.3477397

layers.4.weight f4 [128, 128]
000000 03 1f 6c be b1 34 50 bd d0 32 ab bc 56 9c f6 bd
       -0.23058705 -0.0508315 -0.020898253 -0.120415375
000010 3a 85 11 be be 1c 71 3c af 34 1d bc 76 51 0b 3d
       -0.14210978 0.014716325 -0.00959508 0.034013234
000020 38 ef 8b 3e fd 6a 40 bd f2 de 3a 3e c4 56 dc 3c
       0.27330947 -0.046977032 0.1824911 0.026896842
000030 54 b6 b9 3d cf 35 4d be e6 34 d1 3d 9a cb 4d be
       0.090679795 -0.20040058 0.10215168 -0.20097199
000040 90 b5 c8 bd 07 6c 9c bd 1f 97 97 be 70 f5 b5 be
       -0.09800255 -0.07637792 -0.29607484 -0.35538816
000050 d1 41 04 bd cf 0e 5d 3d 74 6e c7 be 7e 3f be 3d
       -0.03228933 0.0539692 -0.38951457 0.09289454
000060 15 f2 61 be 65 fd 83 bd 79 28 3b 3e 58 b2 48 be
       -0.22065003 -0.064448155 0.18277158 -0.19599283
000070 d2 2a 21 be 44 63 20 be 56 79 e8 bd 02 fc 96 3d
       -0.15738991 -0.15662867 -0.11351268 0.073722854
000080 d5 5e 84 3b 52 61 6e bd bc 27 89 3d c6 83 24 be
       0.004039625 -0.05819828 0.06697032 -0.16065893
000090 1b 9a 2c be f0 f6 30 3e 73 b9 3f bf 62 38 8d bc
       -0.16855662 0.17281699 -0.7489235 -0.0172388
0000a0 c2 eb 51 3e c5 16 29 bd 7c 27 18 be 74 de ac 3d
       0.2050009 -0.04128148 -0.14858812 0.08440867
0000b0 b2 ed c5 3d eb 99 c5 bc 1b a9 04 bd 21 f2 2b 3c
       0.096644774 -0.024121245 -0.032387834 0.01049474
0000c0 03 5f bf bd 9c a9 06 3e 0b 6e 94 3c 3b 80 98 3d
       -0.09344294 0.13150638 0.018118879 0.07446333
0000d0 c9 db 29 be 53 5e 3b 3e 57 8f 82 be 87 54 4c 3d
       -0.16587748 0.182977 -0.25499985 0.0498853
0000e0 f4 16 25 be 35 a0 8d 3d e0 c3 c9 bd 0b ee 51 be
       -0.16122037 0.06915323 -0.09851813 -0.20500962
0000f0 b4 48 d1 bd d7 fc f9 b9 4a b4 fb be cd ff ad bd
       -0.10218945 -0.0004768136 -0.49160987 -0.08496056
000100 0d 9b 45 bd 8f 6d 9f be cb b5 ba be 1b 76 e8 bd
       -0.04824357 -0.31138274 -0.36466822 -0.11350652
000110 9b 52 fd 3d cb a7 df 3d cb 44 98 bd c8 c8 05 be
       0.12369271 0.10920676 -0.07434996 -0.13064873
000120 da 58 32 be 2e 2d ed bd c2 8a 1a 3e 22 d8 df 3d
       -0.17416707 -0.11580883 0.15091994 0.10929896
000130 80 36 5e be fa 6b 71 bd f0 73 e4 3d 65 af e9 be
       -0.21700478 -0.058940865 0.11154926 -0.45641628
000140 ec db 57 3d 2c 21 d9 3d 0b 69 c4 bd a1 9f c3 3d
       0.05269997 0.1060203 -0.09590348 0.09551931
000150 30 12 8f bd 61 99 fb be ec 03 83 bd 95 33 6d be
       -0.06985891 -0.49140456 -0.063972324 -0.23164208
000160 c4 57 07 3e 5b 43 52 3d f0 5a a0 be f8 42 e0 3c
       0.13217074 0.051333766 -0.3131938 0.027375683
000170 4d 75 50 be 99 bb a3 bd 50 15 18 be e7 5a d7 bd
       -0.20357247 -0.07994766 -0.1485188 -0.10515385
000180 87 15 49 be 3b f0 1b bc d0 c5 73 be a6 ca 48 3e
       -0.19637118 -0.009517725 -0.23805928 0.19608554
000190 65 70 08 3d 9d 96 d9 bd 99 f0 ee bd 38 52 81 bc
       0.033310313 -0.1062443 -0.11666984 -0.015786275
0001a0 c5 eb 82 bd 9c 34 16 be 14 b3 9f 3d eb b4 2a 3c
       -0.06392626 -0.14668506 0.07797828 0.010419111
0001b0 01 42 9b be de dd 82 bd 53 c8 42 3e 82 92 3c 3e
       -0.30323794 -0.06389974 0.1902173 0.18415263
0001c0 23 a6 55 3e 3a 8c 2b be 38 3e 24 be fd 66 10 be
       0.20864157 -0.16752711 -0.1603936 -0.14101787
0001d0 92 38 51 be a6 9e bd 3d 1f 1f de bc 35 c2 c5 bd
       -0.20431736 0.092587754 -0.02711445 -0.09656183
0001e0 3d c3 93 3d a1 ea fa 3c 1f c3 74 3e 4c d6 cd bd
       0.07214973 0.030629458 0.23902558 -0.100506395
0001f0 41 00 6d bc 45 3d 55 bd 47 5a 10 bd ec 78 e6 bb
       -0.014465393 -0.052060384 -0.035242345 -0.007033458
000200 c4 de 6a 3e 28 9c ef bd 5d b3 9e ba 30 c0 ec 3d
       0.22936541 -0.11699706 -0.0012107898 0.11560094
000210 03 64 4d be 6a a6 16 be e9 4c c8 bd 26 e3 41 3e
       -0.20057683 -0.1471192 -0.097802944 0.18934307
000220 b0 77 ad bd e3 e3 bb 3c 81 ae 8a bd 51 5d 2e be
       -0.08470094 0.022935813 -0.06771565 -0.17027785
000230 ea 16 b7 3d 5c cd f2 3d 27 0f a5 bd f7 06 1c be
       0.089399174 0.118555754 -0.08059531 -0.15237032
000240 47 5a 8c bc ae c8 3f 3d 24 c5 59 be 29 8a 83 be
       -0.017132891 0.046822242 -0.2126661 -0.25691345
000250 68 d6 33 3e 00 f0 b8 bc c8 3e 3b be db 8a 66 bc
       0.17562258 -0.022575378 -0.18285668 -0.014071192
000260 1f b2 51 bd 41 37 71 3d 3b 4f 4e bd 85 9c 82 3e
       -0.05119526 0.058890585 -0.05036853 0.2551004
000270 06 e7 e0 bd be 0d 0b be b9 e0 06 bd e3 85 12 3e
       -0.10981564 -0.13579461 -0.032929156 0.14308886
000280 3f e1 a8 bc e3 4a 06 be cc 3c fe bc e1 7c db 3d
       -0.020615218 -0.13114505 -0.03103485 0.10717178
000290 fe ce 9e bd 4d 99 53 3e cb 6f 6d be 60 06 fc bd
       -0.077543244 0.20663948 -0.23187177 -0.123059034
0002a0 ea 0d 7e 3e 98 cd 3b be 11 5a 3e 3e c8 9f 48 3e
       0.24809995 -0.18340147 0.18589045 0.19592202
0002b0 26 b4 86 3e f8 d6 92 3c 16 61 cb 3b 12 2f 42 3d
       0.26309317 0.01792477 0.006206642 0.04740817
0002c0 bc 87 e1 bd 16 43 26 bd 46 7f 27 bc 2a 24 0a be
       -0.110122174 -0.040591322 -0.010223215 -0.13490358
0002d0 c1 db 75 3e 75 5c 75 bd ad f6 14 3e 85 17 c2 3d
       0.2400961 -0.059902627 0.14547224 0.09477142
0002e0 de ba 50 be ac 52 81 3d 17 96 82 bd 25 d0 41 be
       -0.20383784 0.063145965 -0.063762836 -0.18927057
0002f0 fb 71 b8 bd e3 e2 98 3c f4 e4 2f bd f8 9a ff bd
       -0.09006115 0.018662876 -0.042942956 -0.1248073
000300 f9 a5 fd bd ba 0e 2e 3e 0a 65 18 be af c2 30 be
       -0.123851724 0.16997805 -0.14882293 -0.17261766
000310 f7 85 9e 3c 4d de 00 3e 24 c6 16 bf 92 1b 61 be
       0.019350989 0.12584801 -0.5889609 -0.21983173
000320 c4 3b f4 3c 3a 5e 9a 3b 94 86 9d bd de 28 5b 3d
       0.029813655 0.0047109397 -0.07691684 0.05350577
000330 5f 33 91 be cc 9e ac bc 0d 76 b2 3c b5 ba 31 3c
       -0.28359506 -0.021071814 0.021784807 0.010847737
000340 c8 82 58 3e 79 e5 f9 bd 0b a1 8d 3d be 75 1a bd
       0.21143639 -0.122019716 0.06915482 -0.037709944
000350 fe b0 3f be 01 b3 b2 be 90 ef d4 3d 1a 2e 45 3e
       -0.18719861 -0.34902194 0.103972554 0.19255868
000360 3f 51 16 be 81 bd 43 3e ab b7 8a 3c e5 3d 2d 3e
       -0.1467943 0.19115259 0.016933283 0.16918142
000370 9e 39 e2 3d 18 53 9e 3b 10 3b 38 be 7c 3d 5d be
       0.11046146 0.004831683 -0.1799128 -0.21605486
000380 46 fd 0d be 8b 5a e4 3d 17 e5 e7 3d 97 69 4d 3d
       -0.13866147 0.11150082 0.11322992 0.050149526
000390 35 87 36 3e 6c 1e db bd 94 05 6b be e6 c4 48 3e
       0.17825015 -0.10699162 -0.22951347 0.19606361
0003a0 61 97 49 be 31 47 62 be 26 f8 24 be 09 12 41 3e
       -0.19686653 -0.2209747 -0.16110286 0.18854536
0003b0 e4 94 f7 bb ad 57 4a be 39 32 4f bd 1f 6a 9a 3d
       -0.007555591 -0.19760008 -0.050585005 0.07539772
0003c0 72 27 92 bc 39 0a 5c be 4d f6 2a 3e 68 e3 8e 3a
       -0.017841075 -0.21488275 0.16695519 0.0010901513
0003d0 fa cd 8c 3c 7e 94 37 3d 5c 6d 93 bd e8 60 38 be
       0.017188061 0.044819348 -0.07198593 -0.18005717
0003e0 15 f2 8c 3d cf b2 a6 bd e0 ba 7c 3d 5f ed c1 be
       0.06882111 -0.08139574 0.061701655 -0.37876412
0003f0 c3 d4 74 3c d0 e7 1e 3e ee f7 84 bc ef ba f4 3c
       0.0149433045 0.15518117 -0.016231503 0.029874293

layers.4.bias f4 [128]
000000 af 1d b3 be 99 01 95 be a0 08 2a bf 51 20 e3 be
       -0.34983584 -0.2910278 -0.6641941 -0.44360593
000010 a1 d0 cc be d3 d5 26 bf 8b da 8d be 70 d5 cf be
       -0.4000292 -0.6517002 -0.27705798 -0.40592527
000020 66 f0 05 bf 3c be b6 bf ac 1a e5 be 3d 0e d4 be
       -0.52319944 -1.4276805 -0.44746912 -0.41417113
000030 77 c4 73 3e 9c fa 34 be 54 d8 fb be 7e 1e 35 bf
       0.23805414 -0.17673725 -0.49188483 -0.7074965
000040 55 c1 93 be a9 30 55 be ff f6 38 bf a7 a7 2b bf
       -0.28858438 -0.20819344 -0.72251886 -0.6705269
000050 9d 15 72 bd ed 82 5b bf ca f6 1b bf b5 31 ff be
       -0.059102643 -0.8574665 -0.60923445 -0.4984261
000060 3e c3 0d bf f4 da a1 be 2b e1 15 bf 8f ff fb be
       -0.5537604 -0.3161236 -0.58546704 -0.49218413
000070 bc da 6a bd 52 8f 9d be 26 ed e8 be 2a 28 ca be
       -0.057337508 -0.30773407 -0.4549343 -0.39483768
000080 36 76 12 be c5 7c 32 bf fc ba 10 bf c7 49 62 3e
       -0.14302906 -0.69721633 -0.56535316 0.22098456
000090 1c 2f 0f bf 24 17 48 be f9 dd 76 bf 27 00 e2 be
       -0.5593126 -0.19540077 -0.96432453 -0.4414074
0000a0 c8 49 29 3e 4d a3 d9 bd 4e 8d 0a bf ea 40 66 3f
       0.16532052 -0.1062685 -0.54121864 0.899428
0000b0 8b 88 7e be 3a 3e 2f bf 6b 0a dd be 09 70 05 bf
       -0.24856775 -0.68454325 -0.4317201 -0.5212408
0000c0 1f 2b c5 bd bd 3d 77 3f bb 37 37 bf 98 9b 1b bf
       -0.09627365 0.9657858 -0.7156941 -0.6078429
0000d0 60 f8 1a bf 4a df 8e be 3a 5f c1 3c 81 12 1c bf
       -0.6053524 -0.2790473 0.023604978 -0.60965735
0000e0 ec 57 f7 bd 62 b1 0e bf 05 42 b7 be d1 56 e4 be
       -0.12077317 -0.55739415 -0.35792556 -0.44597486
0000f0 ab 2e 96 be a4 66 36 be f7 1d d3 bc 85 ba a2 3d
       -0.2933248 -0.17812592 -0.025771124 0.07945732
000100 dc e1 d2 be af 4e 28 bf d9 f5 f8 be 3f 6e 8e be
       -0.41187942 -0.6574506 -0.48625067 -0.27818486
000110 63 11 76 be f8 bb c9 be 3f 9d 0c bf b1 30 11 bf
       -0.2403007 -0.3940122 -0.5492744 -0.5671492
000120 23 69 16 bf 54 10 00 bf 1d ac e5 3d f3 3f e1 be
       -0.58754176 -0.50024915 0.11214469 -0.43994102
000130 fe 7e 55 be 8c 25 7f bc e8 ed 40 bf 91 2c 77 bf
       -0.20849225 -0.015572917 -0.75363016 -0.9655238
000140 08 22 1d be a5 74 e6 be 9d 70 d4 be eb 1d 31 bf
       -0.15345013 -0.45010868 -0.41492167 -0.69186276
000150 1f 8e f0 3e 19 45 ec be af c7 8d be ec b6 dc be
       0.4698343 -0.46146467 -0.2769141 -0.43108308
000160 7a 51 05 bf 73 b2 df 3c e5 08 f0 be fa 35 fd be
       -0.5207745 0.02730677 -0.46881786 -0.49455243
000170 e1 76 52 be 09 d0 cb be 7f d2 c4 be 04 94 78 3d
       -0.20553161 -0.39807156 -0.38441846 0.060688034
000180 9a 79 d8 be 14 98 9f be e3 a2 9e 3d c9 7c 45 bf
       -0.42280275 -0.31170714 0.07745912 -0.7714353
000190 76 31 8a be 92 b3 fa be b1 39 74 be c3 21 ec be
       -0.2699086 -0.48965126 -0.23850133 -0.46119508
0001a0 a7 6b b1 be d8 fa 36 be ab 6f e3 be 8d b0 6b 3e
       -0.34652445 -0.17869127 -0.44421133 0.23016568
0001b0 68 07 2b be 58 20 a9 be 5c a8 ac be 96 67 41 bf
       -0.16702044 -0.3303249 -0.33722198 -0.75548685
0001c0 7c f6 39 bf 57 81 a2 bd a2 ec 10 bf f6 28 1d bf
       -0.7264173 -0.07934826 -0.56611073 -0.61390626
0001d0 bb 8d 22 bf a6 0f bd be 86 e4 a4 be 69 d5 26 bf
       -0.63497514 -0.36926 -0.322056 -0.6516939
0001e0 c1 50 4d 3f 0c 64 0f bf 7e 3f 04 bf 2c 77 24 bf
       0.80201346 -0.56012034 -0.5165938 -0.6424434
0001f0 10 a3 cd be f0 6f 19 be 3a 99 b9 be 50 87 15 bf
       -0.4016347 -0.14984107 -0.36249715 -0.58409595

layers.6.weight f4 [128, 128]
000000 d7 dd e5 3c fb 39 1a 3e db ed 06 bd d2 f9 d0 bd
       0.028059883 0.1506118 -0.03294168 -0.102038994
000010 c4 88 5d be 31 23 10 3e 7b c5 97 3e d7 b5 69 3e
       -0.21634203 0.14075924 0.29642853 0.22823273
000020 9c c4 f2 bc af a4 ec bd 58 ca 09 3e 7c e5 29 be
       -0.029634766 -0.115548484 0.13456094 -0.16591448
000030 74 8e ec 3d 4b e0 6b be a8 77 ed bc 47 72 36 be
       0.11550608 -0.2303478 -0.02898772 -0.17817031
000040 7e e6 b8 bd 6c 0c 15 bd 75 8c 82 3d df 69 ce bd
       -0.09028338 -0.0363888 0.06374446 -0.10078787
000050 c1 af 69 be c0 e2 02 3e a3 2a 09 bd 75 5d 13 3e
       -0.22820951 0.12781811 -0.033487927 0.1439112
000060 5c d5 f6 bb 4a 1e bf bd 63 7f 49 bd 45 e1 8e 3d
       -0.0075327586 -0.09331949 -0.04919375 0.069765605
000070 e3 d9 85 bd 69 cc 28 be 4b 21 83 bc 7a a1 f6 bc
       -0.06535699 -0.16484226 -0.016007086 -0.030106295
000080 d2 58 90 be 6e c7 2b bd 65 e2 8d 3d 9e 65 97 3d
       -0.28192765 -0.041938238 0.06927947 0.07392429
000090 62 79 13 bb 22 f0 56 be 50 e5 65 be 45 bd 68 be
       -0.002250277 -0.20990041 -0.22450757 -0.2272845
0000a0 9c c3 ef bd 37 92 00 be 84 2c f2 bd b3 1b 65 bd
       -0.117072314 -0.12555777 -0.11824897 -0.05593462
0000b0 c4 87 06 3d 30 2e f5 3d 22 30 14 3e d4 9b 0f be
       0.03284432 0.119717 0.14471486 -0.14024287
0000c0 ab 72 9b be 00 1f 98 bd fb cc 70 3d e9 ca 50 3e
       -0.30360922 -0.07427788 0.058789235 0.20389904
0000d0 82 41 94 3d 0f 89 97 3c fd 60 6d be ee 40 19 be
       0.07239057 0.018497972 -0.2318153 -0.14966175
0000e0 80 77 b6 3c 4b d9 90 3d 1f 23 07 be c4 2d b4 bc
       0.022273779 0.07072695 -0.13196991 -0.021994479
0000f0 64 67 61 bd ca 1f 47 3e 7f bf 56 be 1d ad 2b bd
       -0.05503024 0.1944572 -0.20971487 -0.04191314
000100 dc 27 80 be a5 7d 1c be cb 3a cc 3d 65 e0 cb bd
       -0.2503041 -0.15282305 0.09972151 -0.09954909
000110 4c 03 cb bd 8a 0b 65 be 0d f0 2b 3e 48 d1 0e 3c
       -0.09912738 -0.22367683 0.16790791 0.008716889
000120 08 1e a7 bd ae 2a 29 be b1 d6 7c be 7f d0 0f bc
       -0.08160025 -0.16520187 -0.24691273 -0.008777737
000130 63 9b bd bd 9a 2d 43 be ef 8b fa 3d 38 f3 a6 be
       -0.09258153 -0.19060364 0.122337215 -0.32607436
000140 2b da fa 3d 42 bc 46 3d 79 e5 12 3e 0c 6b a3 3c
       0.122486435 0.04851938 0.1434535 0.019948505
000150 71 8f ea bd 56 32 79 3d 8a e5 cd 3d d2 aa 3b be
       -0.114531405 0.06083902 0.10053547 -0.18326882
000160 09 3a 21 3e b2 8e 03 be 27 86 bc bd 2b 92 4b bd
       0.15744795 -0.12847403 -0.09205275 -0.049699944
000170 db 06 60 be c1 d9 a4 be 55 fe 80 bd 72 86 4d bd
       -0.21877615 -0.32197383 -0.0629851 -0.050177045
000180 4f 09 9b 3d 8a 5e f6 3b e9 5d cf 3d 12 cc ee 3d
       0.07570135 0.007518594 0.10125334 0.11660017
000190 06 20 69 be be fc d6 bd 0d 64 a3 3d 88 73 39 be
       -0.22766122 -0.104974255 0.079780675 -0.18110478
0001a0 6b 92 b4 3d 59 78 74 be 5a b2 21 be 42 df f6 3d
       0.088169895 -0.23874034 -0.15790692 0.12054302
0001b0 e7 59 03 3e 48 5c 66 be e1 d4 2e be d9 2f df bb
       0.12827264 -0.2249614 -0.17073394 -0.006811124
0001c0 1f 83 d8 3d 69 69 90 3d 19 15 a5 bd 1b 06 29 be
       0.10571884 0.070513554 -0.08060665 -0.16506235
0001d0 e2 b8 99 3e 24 f9 93 bd 5f b4 12 3e c9 4c 0e be
       0.30023867 -0.07225254 0.14326619 -0.13896479
0001e0 c0 25 62 be 93 f5 a4 bd 43 26 f6 bc 15 3b 45 bc
       -0.22084713 -0.08054652 -0.030047541 -0.012038012
0001f0 a1 a1 f5 bc 53 66 98 be 9b 10 39 3e 78 d8 60 3e
       -0.029984297 -0.29765567 0.1807274 0.21957576
000200 c6 9d 35 3d e8 9a 89 be a0 19 63 be 3d 24 77 3d
       0.044339918 -0.26875997 -0.22177744 0.060337294
000210 3c 29 22 3d f5 4a 0a 3e 52 d0 60 3e 07 d2 59 3e
       0.039590105 0.13505156 0.21954468 0.21271525
000220 09 f6 34 be d9 3f 42 be e8 6d 45 3e 8d dd 83 3e
       -0.1767198 -0.18969668 0.19280207 0.25754967
000230 96 34 05 3d 7f 96 1f be ce fd d5 bc 2d e7 6a bd
       0.032520853 -0.15584753 -0.026122 -0.057349373
000240 2f f4 e5 3d 33 41 f9 bd 15 fb cd bd 8e 44 9e 3d
       0.11228215 -0.12170639 -0.10057656 0.077279195
000250 18 eb 1b be e3 a5 57 be db 01 83 3d ff 9f 13 3b
       -0.152264 -0.21059375 0.06396838 0.0022525785
000260 95 17 ac 3d 38 a9 15 3e 26 5c 3b 3e 95 4e 4f be
       0.084029354 0.14615333 0.1829687 -0.2024482
000270 10 b2 27 3e 85 44 99 3d e3 fd 9b 3e f8 c0 11 3e
       0.16376519 0.07483772 0.30467138 0.14233768
000280 03 cf be bd e5 d2 b0 3d 63 79 4d 3d cd 36 6e 3e
       -0.09316828 0.08633975 0.05016459 0.23263092
000290 c9 7d 6c bc cd 60 c0 3e 8b ff b3 3d d9 f0 66 bd
       -0.014434286 0.37573853 0.08788975 -0.056382034
0002a0 51 ac 06 3d b4 d6 a1 3e 9c 13 72 be 29 bf 55 3e
       0.032879177 0.31609118 -0.23640293 0.20873703
0002b0 47 15 1f 3d 92 c7 59 be ad 7e 30 be ac bc 0d 3e
       0.03883865 -0.21267536 -0.17235823 0.13841504
0002c0 be 03 21 3d 20 8b 7c be 00 ad a0 3c c3 84 92 3e
       0.03931021 -0.24662447 0.019613743 0.28616914
0002d0 8d ea 06 be 4e 65 46 bb 62 db 17 3e 1b 6f 01 be
       -0.13175412 -0.0030272785 0.14829782 -0.1264004
0002e0 72 71 5b 3e 28 ed 2a 3e e2 54 11 bc 36 a4 f4 bd
       0.21429995 0.1669203 -0.008870335 -0.11945383
0002f0 bc 22 6c 3e e4 25 32 bd ce c2 5b bd f2 e7 e1 3c
       0.23060125 -0.043493167 -0.053652577 0.02757642
000300 3b 1c 41 be a3 9c ea bd aa bf 00 3e b8 b5 80 3d
       -0.18858425 -0.11455657 0.12573114 0.0628466
000310 dc e9 c7 bb d3 f3 e4 3d 1b b6 4c 3e 26 7c be be
       -0.0061008763 0.11179318 0.19991343 -0.37204093
000320 9f 2e 6f 3b 48 d4 18 be cb b6 09 bd 4f e0 02 3c
       0.0036496294 -0.14924729 -0.03362159 0.00798805
000330 ec b8 9d 3d 99 00 01 be b7 19 0e be f0 0f 02 3e
       0.07701287 -0.12597884 -0.13876997 0.12701392
000340 b9 4f 5f bd b8 ed a6 3e 65 fb 15 3e a5 86 84 be
       -0.05451939 0.3260324 0.1464668 -0.25883976
000350 4d c0 8e 3d cc 72 96 be e4 4e 44 3e d0 7f a3 3c
       0.06970272 -0.29384458 0.1917072 0.019958407
000360 3d 09 93 be f7 2b b6 3a 27 91 4b bd a6 ee aa 3d
       -0.28717986 0.0013898601 -0.049698975 0.083463
000370 e1 df 8c be 7c 78 24 be 80 5b 8a 3d 23 b9 37 bc
       -0.27514556 -0.16061586 0.067557335 -0.011213574
000380 ce ba f2 bc 57 ad 39 bd 7c e7 fb bb cd d2 1a 3e
       -0.029630091 -0.045331325 -0.007687507 0.15119477
000390 19 60 56 3c 6c 5e d4 be 11 50 3e 3e ce 1e 25 be
       0.013084435 -0.41478288 0.1858523 -0.16125032
0003a0 71 1a 15 3d 33 29 4d bd be b9 53 bd 77 24 5a bd
       0.03640217 -0.05008812 -0.05169081 -0.05325743
0003b0 ba 15 95 3d 01 d7 d2 bd 8a 61 b0 bc 8d 06 d3 bd
       0.07279535 -0.10294915 -0.021530885 -0.10303984
0003c0 70 60 e2 3d ae 4d ac 3d f6 68 0d bd b7 47 43 3d
       0.1105355 0.08413254 -0.034523927 0.047675814
0003d0 e4 50 a3 3c bb bb b6 3d d8 94 5c bd 1a 14 82 bd
       0.019936033 0.089225255 -0.053852886 -0.0635149
0003e0 d4 71 c3 3d 0f 36 4c be d0 7c 5e 3d 1d 13 b4 3d
       0.09543195 -0.19942497 0.05431825 0.08792708
0003f0 5e 2f 36 3d 8f a8 53 3e 9c f5 2a be b3 fe 00 be
       0.044478767 0.20669769 -0.16695255 -0.1259716

layers.6.bias f4 [128]
000000 3a 08 37 be a9 0c 3c 3f 07 94 e0 bd 14 ad 4f be
       -0.17874232 0.7345682 -0.10965734 -0.20280868
000010 f4 20 77 be 51 7b 04 3e bc 82 97 be 36 1f b4 be
       -0.24133664 0.12937666 -0.2959193 -0.35180062
000020 07 80 1a be 0c e0 8a bd c6 fd da bd 6b 57 b7 be
       -0.15087901 -0.06781015 -0.10692935 -0.35808882
000030 ab 8a 82 be 55 70 49 be 88 96 d2 3e 93 18 b3 be
       -0.2549642 -0.19671758 0.4113047 -0.34979686
000040 75 04 69 be 4b 19 24 bd f9 1e 3f be e5 4e 4d be
       -0.22755606 -0.040063184 -0.18664159 -0.20049627
000050 8f 47 5d be 0b 0c 56 be be 21 ab be f4 1a 85 be
       -0.21609329 -0.20903032 -0.3342418 -0.25997126
000060 74 e6 6c be ee 32 d4 bd 5d c4 9c be 1c 67 10 be
       -0.23134786 -0.103612766 -0.30618563 -0.14101833
000070 01 75 66 be 76 d9 28 3e 4c 87 89 be ad cb c2 be
       -0.22505571 0.16489205 -0.26861036 -0.38046017
000080 b3 0d 46 be 0a 88 57 be c0 3c d9 be eb fb 64 be
       -0.19341163 -0.21047989 -0.4242916 -0.22361724
000090 3a 7f 8d be 78 57 04 3f 89 7e 79 be b5 e9 40 be
       -0.2763613 0.51695967 -0.24364676 -0.18839152
0000a0 b5 28 a7 be ae e8 06 be 41 26 32 be ca f9 c5 bd
       -0.32648245 -0.13174698 -0.17397405 -0.09666784
0000b0 eb 4a 5b be 30 df 3c be 86 1f 57 be f3 93 bc be
       -0.21415298 -0.18444514 -0.21008119 -0.36831626
0000c0 2c 6d 91 be db f8 8a be 52 b0 39 be 4b c0 8f be
       -0.28403604 -0.27142987 -0.18133667 -0.28076395
0000d0 ff 0c a5 be c5 54 95 be eb e1 63 be ca 3a a4 be
       -0.32236478 -0.29166237 -0.2225415 -0.32076102
0000e0 4a d8 73 be 4a 85 63 be b4 a7 b5 be 66 7e 77 be
       -0.23812976 -0.22218814 -0.3547951 -0.24169311
0000f0 45 9d a0 be 04 0f 86 be 7b bc cd 3a d9 46 8d be
       -0.31369987 -0.2618333 0.001569643 -0.27593115
000100 29 bc 74 be ae 8f 96 be 42 80 dc bd a0 36 c2 bd
       -0.23899902 -0.29406494 -0.10766651 -0.09483075
000110 28 d6 a4 be 1b e4 25 be 6f 05 53 3f 1f d6 85 be
       -0.32194638 -0.16200297 0.82430166 -0.26139924
000120 0c 7f 66 be 4d 43 61 be 12 be 8e be 74 d8 43 be
       -0.22509402 -0.2199833 -0.27879387 -0.19125539
000130 ba b0 b0 be 35 c3 b8 be d0 0c 3f be 5c b9 0d be
       -0.34509832 -0.3608643 -0.18657231 -0.1384024
000140 6b 57 cd be 88 db a0 be b0 31 20 be c9 65 8a be
       -0.40105757 -0.3141749 -0.15643954 -0.2703078
000150 0d 29 58 be 78 75 a8 3c e0 29 49 be bd 13 54 be
       -0.2110941 0.020563826 -0.1964488 -0.20710655
000160 36 ca 37 be 50 fc 80 be fb a5 5f be e4 21 84 be
       -0.17948231 -0.251925 -0.2184066 -0.25807106
000170 70 b6 a3 be ed 01 34 be 41 81 91 be a9 5d 40 be
       -0.31975126 -0.1757886 -0.28418925 -0.18785729
000180 68 8f 6c be 5f f8 51 be bf 28 38 be 79 30 14 3e
       -0.2310158 -0.20504902 -0.17984293 0.14471616
000190 20 46 cb be 04 01 30 3e 27 cd bd be ac 2f 7e be
       -0.3970194 0.17187887 -0.3707058 -0.24822873
0001a0 04 5f 9f be a6 6b 38 be 0b 91 8c be 52 ad cf bd
       -0.3112718 -0.18009815 -0.2745441 -0.1014048
0001b0 87 ba 9a be df 49 85 be 10 71 8e be a0 64 13 be
       -0.30220434 -0.26032922 -0.27820635 -0.14393854
0001c0 e0 a2 86 be 90 52 85 be b1 ca 05 be 56 07 2b be
       -0.2629614 -0.26039553 -0.13065602 -0.16702017
0001d0 24 37 8a be af 0a 86 be 0f 59 2f be d7 80 8f be
       -0.26995194 -0.26180026 -0.17123817 -0.28027984
0001e0 9e 53 43 3f 55 bb 5e be 18 4c 1a be 6a 8d 37 be
       0.76299465 -0.21751149 -0.1506809 -0.17925039
0001f0 8c b3 46 be 3c 70 90 be d9 c5 2e be a2 65 92 be
       -0.19404429 -0.28210628 -0.1706766 -0.28593165

layers.8.weight f4 [128, 128]
000000 16 c4 10 be 31 9f 0b bd 5a 64 48 be 85 ec c0 bd
       -0.14137301 -0.034087364 -0.19569531 -0.094201125
000010 7f 53 e8 bd 13 26 0b be 62 ad 41 be 87 30 22 3e
       -0.113440506 -0.13588743 -0.18913797 0.15838824
000020 3f dc 66 be 48 3f 5e be 99 1c 50 be cf ed dd bd
       -0.22544955 -0.21703827 -0.20323409 -0.10836374
000030 ae 8a 4d be de 46 4f be ed 87 cc bd de 88 3a be
       -0.20072433 -0.20241877 -0.09986863 -0.18216273
000040 81 72 2f be 4a 54 97 3d ac 24 10 3e f0 62 6a 3d
       -0.17133524 0.07389124 0.14076489 0.05722326
000050 5c 75 47 be 8c e8 67 3d c1 71 08 be 6b 0c e0 3d
       -0.19478363 0.05661826 -0.13324644 0.109398685
000060 43 3d 36 3e d8 2a d2 3d 1e fe 47 be f4 de c1 bd
       0.17796807 0.10262078 -0.19530532 -0.09466353
000070 b8 1f bd bd 9c c0 b9 3c 59 e5 74 3d a7 f2 08 be
       -0.092345655 0.022674851 0.059789035 -0.13373815
000080 e6 cc e3 3d 6f 29 a3 3d 36 16 05 3e 79 f6 e0 3d
       0.11123066 0.07966887 0.12996754 0.10984511
000090 90 45 66 bd 4d df cf bd 39 18 00 bc 14 6b ca 3d
       -0.056218684 -0.10150013 -0.007818275 0.09883705
0000a0 8d 00 12 be 2d 54 b6 3c a9 b0 98 3d 83 c3 29 bc
       -0.14258023 0.022256935 0.0745557 -0.010361555
0000b0 21 d1 55 3d 56 be 5e be ee f0 16 3e 37 7c 60 3d
       0.052201394 -0.21752295 0.14740345 0.05480596
0000c0 41 00 80 3c 25 00 49 bd 16 90 86 be 23 58 5b bd
       0.015625121 -0.049072403 -0.26281804 -0.05355085
0000d0 cf a9 4f 3c 19 ef ac bd 3c 45 33 be 8e f4 ce 3c
       0.012674763 -0.08444042 -0.1750688 0.025263097
0000e0 1f f4 0a be 6a 4b 23 3d 26 9d f3 3d da c2 9f bd
       -0.13569687 0.039866842 0.11895208 -0.07800837
0000f0 8c 99 62 bd a3 f2 2a bd 12 38 af 3c 6f 79 eb bd
       -0.055322215 -0.041735303 0.021389041 -0.11497771
000100 25 48 1e be d7 e4 50 bc e7 66 65 3e 42 13 c5 3d
       -0.15457208 -0.012749872 0.22402535 0.09622814
000110 04 b4 12 be df 5f 49 be 61 eb bc bd 3e 11 86 3d
       -0.14326483 -0.19665478 -0.092245825 0.065462574
000120 5c b8 92 bd 8c d8 d9 bd d9 a7 0f 3e 46 70 5b be
       -0.0716407 -0.10637006 0.14028873 -0.21429548
000130 f6 cf 4a be 79 19 d5 3d e3 61 96 bd 1f 0f ef bd
       -0.19805893 0.10405249 -0.07342889 -0.11672806
000140 b3 1e 34 3e e1 c2 a9 3d b8 4a 45 be 56 d7 6d be
       0.17589836 0.08289123 -0.19266784 -0.23226675
000150 08 e0 f1 3d cd 28 5a 3d 47 aa aa 3d 24 e0 80 be
       0.11810309 0.053261567 0.08333259 -0.25171006
000160 85 fd 1b bd 21 d4 07 3e 06 30 03 be d7 58 02 3d
       -0.038083572 0.13264515 -0.12811288 0.031823006
000170 5b 60 c0 3d d4 64 3d be 71 02 dc bc 30 3b 38 bd
       0.09393378 -0.18495494 -0.026856633 -0.04497832
000180 80 17 de 3d 44 ab 10 be 11 97 42 3e 97 6a 4f bd
       0.10844326 -0.14127833 0.1900294 -0.05063876
000190 d0 7c f3 bc 59 a6 a6 3c ae 33 4c 3e 8a 7c 42 be
       -0.029722601 0.020342993 0.19941589 -0.1899282
0001a0 26 6f e2 bc 4d ba c8 bc 17 5c 11 bc be 7f 9a bd
       -0.02764089 -0.024502898 -0.008872054 -0.07543896
0001b0 56 0d 4b 3d 58 fc d6 bd 54 c8 14 be e8 c0 08 be
       0.049573265 -0.104973495 -0.14529544 -0.13354838
0001c0 3d d6 79 3c 79 22 01 be e4 0b 32 3c e9 6c 33 be
       0.015248832 -0.12610807 0.010867093 -0.17522015
0001d0 1c c2 bd ba a5 f3 ba bc f9 d2 33 3e 15 cc 59 3e
       -0.0014477405 -0.022821257 0.17560948 0.21269257
0001e0 b3 63 4a be 31 6b 01 3e a1 6b b0 bc 8b b3 69 bd
       -0.19764595 0.12638547 -0.021535696 -0.05705599
0001f0 d4 f8 48 3e 09 22 85 bc 86 87 d7 3d f5 fa 76 3d
       0.1962617 -0.01625158 0.10523896 0.060297925
000200 33 e4 02 3d 18 70 58 be db 30 b9 3c 1e 42 ec bd
       0.03195591 -0.2113651 0.022606304 -0.11536048
000210 ea 91 b9 bd cc d2 8c be 9a b2 ad 3b 64 2f 0b be
       -0.09061034 -0.27504575 0.005300832 -0.13592297
000220 b6 01 70 be 0f 8d 99 bd cf ef 39 be 2f e0 e8 3d
       -0.23438153 -0.07497608 -0.18157886 0.113708846
000230 80 54 47 3e bb 8e 1d 3e 86 6c 76 be 24 9b fb bc
       0.19465828 0.15386479 -0.24064836 -0.030713625
000240 02 dc bc bc 58 15 30 3d c2 c5 12 3e 95 36 c8 3d
       -0.023054127 0.042989105 0.14333251 0.09776036
000250 81 71 3c 3e db d6 e7 bc 48 7f 7c be 95 72 5b be
       0.18402673 -0.028300693 -0.24657929 -0.21430428
000260 e3 f6 7a be 87 2d a9 bd 4d 24 10 3e 84 8a c9 3d
       -0.24508242 -0.08260637 0.14076348 0.09840873
000270 49 51 9c bd 3f c2 a9 be 24 98 46 be 04 f3 5f bb
       -0.076326914 -0.3315601 -0.19393975 -0.0034171948
000280 0b 36 54 be 7d db 13 bc 61 eb 0a 3d b1 27 2d 3d
       -0.20723741 -0.009024498 0.03391588 0.04227418
000290 09 e8 d5 3d 72 b6 37 be d6 44 01 be b7 6c a8 3d
       0.10444648 -0.17940691 -0.12623915 0.08223861
0002a0 e4 4e 01 bd 2e 65 aa 3d 2e ad 66 3d 0b 97 99 bc
       -0.031569377 0.0832008 0.0563175 -0.01874878
0002b0 cb d0 33 bd 6f 22 ea 3d 0b a5 7d 3c 5c bc eb bd
       -0.043900292 0.11432349 0.015481244 -0.11510536
0002c0 0d ec 0a 3d 5d 0e 3d 3e f8 a1 93 bd 35 51 01 3e
       0.03391652 0.1846251 -0.072086275 0.12628634
0002d0 9f 67 84 be c9 55 12 bd 99 fb c3 3d a7 8e c6 3d
       -0.25860307 -0.035726342 0.09569473 0.096951775
0002e0 59 2a ea 3c d0 77 ee bc b2 47 4f 3d 3f d5 df 3d
       0.028584646 -0.029109865 0.050605483 0.10929345
0002f0 2c 60 df 3d b7 75 c8 3d 0d ce 13 bd b1 a2 2f be
       0.10907015 0.09788077 -0.036085177 -0.17151906
000300 aa 61 4c be 42 2d 2f be cf b6 18 be 98 05 33 3e
       -0.19959131 -0.17107108 -0.14913486 0.17482603
000310 fd 8e 5b 3d 5c 0f ee 3d ef 8a 59 bd 0a 13 49 be
       0.05360316 0.11624023 -0.053111013 -0.19636169
000320 1c 36 1d bd 39 2b 16 3e 9c 33 c4 bd e4 c6 66 be
       -0.03838168 0.14664926 -0.09580156 -0.22536808
000330 1a 57 14 be 10 32 05 bc d9 a4 5f be 5d 39 21 3e
       -0.14486352 -0.008129612 -0.21840228 0.15744539
000340 87 18 1e 3e 7c 5f 55 3e 65 cf 93 be 44 85 1b 3e
       0.15439044 0.20837206 -0.28869167 0.15187556
000350 c5 d5 4a bd b8 c5 73 bd e9 f0 e3 ba d2 cc 1a 3e
       -0.049520273 -0.05951473 -0.0017390522 0.15117195
000360 82 66 d8 bb db 82 27 be e6 bd 21 be 6d ba 6a 3e
       -0.0066040168 -0.16358511 -0.15795097 0.22922678
000370 a3 d1 06 be de ec ee bd 7a 65 2a 3d 1c 61 a4 bd
       -0.13165908 -0.116662726 0.04160068 -0.08026335
000380 43 8e d2 3d 45 21 0e be 1c ac 63 bd 76 72 47 3c
       0.102810405 -0.13879879 -0.05558406 0.012173286
000390 ff 9d 84 be 79 04 d8 3c a8 da 6b be 43 de b7 bd
       -0.2590179 0.02636932 -0.2303263 -0.0897794
0003a0 48 84 50 3e ea 89 4c 3e 98 e9 00 3e bb 25 06 be
       0.20362961 0.19974485 0.12589109 -0.1310033
0003b0 22 c8 1a be 7d bf 3e 3e e1 ab 47 3e 3e 31 23 3e
       -0.15115407 0.18627734 0.1949916 0.15936753
0003c0 3d a3 06 be fb 2d 71 bd 7b a2 45 3e 0e 6d fa bd
       -0.13148208 -0.05888174 0.19300263 -0.12227832
0003d0 88 87 34 be c0 f1 66 be 40 a3 08 3e 3b 56 1e be
       -0.17629826 -0.22553158 0.13343525 -0.15462582
0003e0 09 3b 6a be 4e 84 1e bd c7 d7 d9 3d 6c 4d 5e be
       -0.22874083 -0.038700394 0.106368594 -0.21709222
0003f0 25 cf de bd d4 f2 5b 3d fc 2c 3f bd ca f3 39 3c
       -0.108793534 0.053698376 -0.04667376 0.011349628
