stocks_google.pt (torch, 23765 bytes, 8 tensors)

layers.0.weight f4 [1, 1, 20, 1]
000000 ce 1c 91 3c 6e 77 a7 3e 73 d5 c1 bc 69 3c 89 bf
       0.01771393 0.32708305 -0.02366135 -1.0721561
000010 58 14 0c 3f 5d d8 1e bf db d7 b3 bd b4 82 33 bd
       0.5471854 -0.62048894 -0.087814055 -0.04382582
000020 11 62 24 bb fc a9 e1 bb 94 f3 00 3e cd 2b db 3e
       -0.0025082866 -0.006886719 0.12592918 0.42806855
000030 cc 8e bc 3d bd e1 b4 3e 18 f8 7a 3e b0 78 9a 3e
       0.09206924 0.35328475 0.24508703 0.30170202
000040 f6 cb 96 bd 80 8c 87 3e b0 94 c0 bd 6a 31 41 bf
       -0.07363121 0.2647438 -0.0940336 -0.75466025

layers.3.weight f4 [1, 1, 10, 1]
000000 5d f1 66 3e f8 ae 0a 3e 52 6e 1e be 06 61 68 3e
       0.2255301 0.13543308 -0.15471771 0.22693262
000010 af b5 ad 3e 69 a2 dc bd 13 ec 6e 3e 4e df 45 bf
       0.33927676 -0.10773165 0.23332243 -0.7729386
000020 60 86 9e 3d a6 25 c2 3f
       0.07740474 1.5167739

layers.6.weight f4 [1, 1, 10, 1]
000000 f0 41 f3 3e 74 fc 8d 3e 2d 03 4f be c5 77 5a be
       0.47511244 0.2773167 -0.20216055 -0.21334751
000010 86 e7 81 be 67 d1 b5 bd d2 63 1c be ec f5 33 be
       -0.2537195 -0.08877831 -0.15272453 -0.1757428
000020 71 52 a2 bd e4 eb cf 3f
       -0.07925881 1.6243863

layers.9.weight f4 [1, 1, 10, 1]
000000 bb 85 23 3d 52 b2 e0 3e 28 ed ad 3e 09 b7 48 3e
       0.039922457 0.43886048 0.33969998 0.19601072
000010 6d 47 11 3e 67 b9 b4 3d 35 15 1b 3d 72 7b 0e be
       0.14187403 0.08824425 0.03786202 -0.13914278
000020 d8 73 52 bd 2c 95 4c 3f
       -0.05138001 0.7991512

layers.13.weight f4 [64, 70]
000000 ac 73 35 bd 5b d6 0f be 7d cb 10 be d5 19 5a be
       -0.044299766 -0.14046614 -0.14140125 -0.21298917
000010 17 ad 03 3d 67 22 0f 3d e6 b8 9a 3e b6 68 e1 3d
       0.032147493 0.034944918 0.3021919 0.110063
000020 53 50 48 3e 87 8d 26 3d 50 77 8c be 7c 49 ba bd
       0.19561891 0.040662315 -0.27434778 -0.09096047
000030 c1 ea e1 be 4d ba 8b be ca 77 86 be fd 72 36 be
       -0.44124416 -0.27290574 -0.26263267 -0.17817302
000040 f5 44 24 be 56 18 eb 3c a9 a4 70 bd c0 d1 93 be
       -0.1604193 0.028698128 -0.058750782 -0.28870964
000050 8d e2 93 3d dd 2e 66 be bb 36 4c be 0e 48 b0 be
       0.072209455 -0.22478814 -0.19942753 -0.34429973
000060 14 7b aa be db 44 3f be 18 56 bb bd 51 fd 6e 3c
       -0.33297026 -0.1867861 -0.091472805 0.0145867625
000070 dd c6 61 3e 10 3f a7 be 93 b9 6c be b4 c7 95 be
       0.22048517 -0.326653 -0.23117666 -0.29253924
000080 56 5d c2 bd be 80 3a be c9 c3 e3 3d d0 b4 07 3e
       -0.09490459 -0.18213174 0.111213274 0.13252568
000090 33 11 06 3d 19 6e 54 3d 6b 3a 10 3d 78 cc b2 be
       0.032731246 0.05186281 0.03521196 -0.34921622
0000a0 8f 03 22 bf f6 93 be 3e bd 97 0b be ce 40 e3 bd
       -0.6328668 0.3722226 -0.13632102 -0.11096345
0000b0 31 f0 ad bb 6a 24 b1 bc f0 f6 c1 3d b9 8f 92 be
       -0.005308174 -0.021623809 0.09470928 -0.28625277
0000c0 1b 03 03 3f d4 44 06 be 2c 0f 8e 3d e3 0f 14 be
       0.51176614 -0.13112193 0.069364876 -0.14459185
0000d0 12 b8 a0 be 5f 13 48 3e 86 36 17 bf b1 1f 08 3e
       -0.31390435 0.1953864 -0.5906757 0.1329334
0000e0 2f 00 13 be c3 57 1d 3e b5 30 60 be 02 8d a3 be
       -0.14355539 0.1536551 -0.2189358 -0.31943518
0000f0 73 40 4b be 3b fa 12 be ff c9 c7 3e 6e b9 b7 bd
       -0.19848804 -0.14353268 0.39021298 -0.08970915
000100 ac 94 a3 bd 0b 4e 80 3e 14 7d 86 be c1 04 50 3e
       -0.07987341 0.25059542 -0.26267302 0.20314313
000110 30 95 b9 be 9d 9a a3 be 6c 39 b5 be 71 4b af bd
       -0.36246634 -0.31953898 -0.35395372 -0.08559311
000120 c9 72 3c be 45 78 a0 be a4 b7 0b be aa e5 06 bd
       -0.18403162 -0.31341758 -0.13644272 -0.03293387
000130 66 0e 01 be e0 40 04 bf 21 6b 7f be 51 37 22 3d
       -0.12603149 -0.5166149 -0.2494321 0.039603535
000140 8b 7a 86 be 14 bd 82 be c0 c7 c8 3c 74 33 15 bd
       -0.26265368 -0.2553488 0.02450931 -0.036426023
000150 6f be 9b bd 8a 66 a5 be 78 0f f4 be e8 86 88 3d
       -0.07604682 -0.32304794 -0.47668052 0.06666356
000160 f0 dd af be ce 59 9d bd b3 d4 40 be f7 a0 4b be
       -0.34349012 -0.076831445 -0.18831138 -0.19885622
000170 99 70 45 be 00 98 9b bd d4 ce 95 bc f9 81 05 be
       -0.19281234 -0.07597351 -0.0182871 -0.13037862
000180 4d ae d2 3d 38 93 cd 3d c0 c6 37 3c e7 8f 74 be
       0.102871515 0.100378454 0.011216819 -0.2388302
000190 54 8f dd be 4c 33 a4 be d4 25 8b be 02 91 a5 be
       -0.43273413 -0.32070386 -0.27177298 -0.32337195
0001a0 ac 63 2d 3d a0 e5 8e be 6e 2e 61 3d df 99 d7 3d
       0.042331383 -0.27909565 0.05497592 0.105273955
0001b0 9e 69 3c be c7 52 af 3d b9 7b 0e bd e3 f6 c8 3d
       -0.18399665 0.085607104 -0.03478596 0.09812715
0001c0 22 d2 46 3d 75 bb c1 bd 9f 1a 7a bd b2 5b 9e 3d
       0.048540242 -0.09459583 -0.061060544 0.07732333
0001d0 7f 25 04 be 03 67 33 bc 18 e2 29 3e 3d 99 3e be
       -0.12904929 -0.010949853 0.16590154 -0.18613143
0001e0 81 03 9a be 83 cc be bd a0 7d a3 3d af 48 15 be
       -0.30080798 -0.09316351 0.079829454 -0.14578508
0001f0 55 b3 e8 bd 30 5e 50 3e d6 19 e5 be 3f c5 dc be
       -0.1136233 0.2034843 -0.44746274 -0.43119237
000200 6a 4e 25 bd 64 7a 7b 3d 47 e9 83 be b7 f8 9f be
       -0.040357985 0.061396018 -0.25763914 -0.31244442
000210 af bb 6a 3e 58 d4 c6 be 99 6c 11 bd db c4 3f be
       0.22923158 -0.3883388 -0.035503957 -0.18727438
000220 2b 4a b7 bd 5e e0 b4 be 0d e6 0f bf b5 45 1a be
       -0.08949693 -0.3532743 -0.56210405 -0.15065654
000230 4e 1a 51 3d cb cc 7d bd bc ae d1 bd f3 a4 53 3e
       0.051050477 -0.061962884 -0.10238406 0.20668392
000240 93 d4 50 3e 62 94 21 be e6 74 93 be ca d5 0f 3e
       0.2039359 -0.1577926 -0.28800124 0.14046398
000250 7d 81 26 be 0d f1 1f 3c 95 38 a5 be 35 e9 aa 3c
       -0.16260333 0.009762061 -0.3226973 0.020863155
000260 15 48 26 3e c0 e2 04 be a1 19 23 be f6 31 90 be
       0.16238435 -0.12977123 -0.15927745 -0.28163117
000270 9a c7 80 be 7d 1d 48 be 49 95 63 be 29 96 43 bd
       -0.25152284 -0.19542499 -0.22224917 -0.047750626
000280 af 33 0b 3c 3e df 69 be 44 f2 e9 3d 10 05 76 be
       0.008496209 -0.22839066 0.114231616 -0.24025369
000290 0e 91 97 3d 65 3f 0a 3d c1 46 9f 3d 6e 2d 1e 3e
       0.07400714 0.033751864 0.07777167 0.15447018
0002a0 ec f1 bc bd 38 e5 f8 bd 14 d8 18 be ed 77 15 be
       -0.092258304 -0.12153095 -0.14926177 -0.1459653
0002b0 8a c1 48 be e5 59 a8 be 7c 3e 33 bd 8d 0a 9a be
       -0.1960508 -0.32881084 -0.04376076 -0.30086175
0002c0 1e e2 6a 3e ad 7b 19 be 81 8e 8d be 7d 3f 63 3e
       0.2293782 -0.14988585 -0.27647784 0.22192188
0002d0 35 ba 05 be e4 23 41 3e 21 b1 a1 be 02 de 4a bd
       -0.13059314 0.18861347 -0.3158045 -0.04952813
0002e0 32 72 7b 3e 8f 03 c6 bc 1c 12 22 3e a4 92 b6 bd
       0.24555281 -0.024171619 0.1582722 -0.08914688
0002f0 34 a4 4a 3e 84 88 eb 3d fe fb 8d be 84 47 b2 bd
       0.19789201 0.11500648 -0.27731317 -0.08705047
000300 3e 02 9b be 55 53 fe 3c d9 20 17 3e 68 a0 32 be
       -0.30275148 0.031045595 0.14758624 -0.17444003
000310 b0 2b 28 be f6 70 87 be de a0 8e be 4e df 4a be
       -0.16422915 -0.2645337 -0.27857107 -0.19811746
000320 f2 96 da bd 6c 50 85 be fb 08 c7 bd c5 98 79 bc
       -0.10673322 -0.2603792 -0.0971851 -0.015234177
000330 52 21 d5 3d 1e 3a a1 be bc 53 c6 3d a9 79 88 bc
       0.10406746 -0.31489652 0.0968394 -0.016659575
000340 8a 55 ad be ee dc bb bd 0a 37 6b 3e 7a e3 ab 3e
       -0.33854324 -0.09172998 0.22970214 0.33571988
000350 10 b2 b2 3e 08 c7 8c 3e 77 85 08 3f 10 3d 9b 3e
       0.34901476 0.274956 0.5332865 0.30320024
000360 d8 6b 32 bf 9f 59 5d bc 07 97 88 3d 12 d5 89 3e
       -0.69695807 -0.013510137 0.06669431 0.26920372
000370 07 36 9c 3d 4a 60 47 3d 0a 03 c4 bd 65 b4 0d be
       0.076274924 0.048675813 -0.09570892 -0.13838346
000380 56 f8 95 3e da b0 9c 3e a1 33 cd 3d bf b8 29 3c
       0.29291028 0.30603677 0.10019613 0.010358988
000390 f6 c2 9f 3e 2e 0d f5 bc e4 71 5d 3c 97 fc ac bd
       0.3120343 -0.029913511 0.013515923 -0.08446615
0003a0 e4 24 ed 3e 04 4d c9 3e 36 1b 59 3d 16 14 e5 3e
       0.46317208 0.3931657 0.053004466 0.44741887
0003b0 4a dc 88 be ab 2d e8 bd a0 e9 4a 3e 9c d4 30 3e
       -0.26730567 -0.113368355 0.19815683 0.17268604
0003c0 06 32 8f 3e 45 18 db bd b6 92 ce 3e 6b 0a 36 be
       0.27967852 -0.106979884 0.40346307 -0.17777412
0003d0 10 7a 92 bd ae bd 85 3e aa 85 51 3e 1e 83 2e 3e
       -0.07152188 0.26121277 0.20461145 0.17042205
0003e0 ce 0a 10 be cf 69 b3 3b 28 c9 d2 be bc 83 cf bd
       -0.14066622 0.00547526 -0.41169095 -0.10132548
0003f0 9e 92 44 3d 08 a1 49 3e 44 c7 b1 3e 84 9f 82 bb
       0.047991388 0.19690335 0.3472234 -0.003986301

layers.13.bias f4 [64]
000000 50 8b ec bc 9f 94 2a be 04 39 7e bd ba 9f c8 3e
       -0.028875023 -0.16658257 -0.062066093 0.39184362
000010 9e 56 58 bd d9 a8 43 3f 93 d2 2c 3e 74 49 21 3f
       -0.05281698 0.76429516 0.16877203 0.63002706
000020 2e eb 1f 3e 69 c9 38 bd bb e0 57 3f a4 96 12 3e
       0.15617058 -0.045113955 0.84327286 0.14315277
000030 07 44 b6 bd ce 2a 30 3f 5f 11 50 3f a5 fc 37 3f
       -0.08899694 0.68815315 0.81276506 0.7186988
000040 cb c3 23 3f c8 eb 25 3f 4b ac c9 bd ec 40 a1 bd
       0.6397063 0.648129 -0.098473154 -0.07873711
000050 aa 96 fa 3b 28 ef c2 bd 3e 61 85 bd f3 22 26 3f
       0.007647355 -0.09518272 -0.06512688 0.6489708
000060 70 cc de 3c 6d 88 e1 bd fd 88 a9 bc b0 a4 29 be
       0.027197093 -0.11012349 -0.020695204 -0.1656673
000070 fa ad 28 bd 8a 09 a4 bd 65 82 4b 3f dd 2c bf bd
       -0.041181542 -0.08009632 0.7949584 -0.09334729
000080 89 54 1d 3f 5d 0e 37 bd 63 b2 48 3f b1 8d e7 3b
       0.61457115 -0.044691432 0.78397197 0.0070664515
000090 a0 80 ec bd 63 5a 91 bd ee f5 bf 3e e8 ff 8c be
       -0.11547971 -0.07097318 0.37492317 -0.2753899
0000a0 03 aa 37 3f ed cd 05 bd 8b 55 2c bc 47 b1 e7 bd
       0.7174379 -0.03266709 -0.010518442 -0.1131311
0000b0 e2 7b cf bd 0e ee bb bd 00 00 00 00 b8 16 34 3e
       -0.10131051 -0.09176265 0.0 0.17586792
0000c0 b9 f2 a9 bd c2 bc 0b be 8e 68 29 be b6 e3 dd 3e
       -0.08298249 -0.13646224 -0.1654379 0.43337792
0000d0 56 04 6e be 78 9f 2a be 9a 62 83 bd 8f 0f 82 3d
       -0.23243842 -0.16662395 -0.06415291 0.06350624
0000e0 f0 ba 0e 3f c0 c7 5b 3e f0 33 bf 3e 6c 49 20 bc
       0.55753994 0.21462917 0.37344313 -0.00978313
0000f0 ed 59 28 3f e1 48 01 3f 04 f0 19 3f 9b 94 9d bd
       0.65762216 0.5050183 0.6013186 -0.0769436

layers.15.weight f4 [5, 64]
000000 bd c0 ff 3e 54 08 83 3e 65 24 02 be 59 57 a9 3e
       0.49951735 0.2559229 -0.12709196 0.33074453
000010 74 04 d7 bb 9f b9 0f 3f 5f 37 aa bb dc 6d c2 3e
       -0.00656181 0.5614261 -0.005194589 0.3797444
000020 1c 58 21 3d f0 99 26 3f 47 e5 84 3f 6d 38 c5 3f
       0.03939067 0.6507864 1.038247 1.5407845
000030 b9 92 68 3e 25 e0 fd 3e e8 a7 7a 3f 68 20 57 3f
       0.2271222 0.4958507 0.97912455 0.84033823
000040 d2 f4 af 3e 08 1a bb 3e 77 76 2b 3d c3 a1 54 3e
       0.3436647 0.36543298 0.041861024 0.20764832
000050 cf e5 1c 3f bc 4c 00 be ac ee 88 be 70 97 d2 3e
       0.6128816 -0.12529272 -0.26744592 0.41131163
000060 87 03 8d 3f a9 ba b9 3e f1 83 09 3e b3 c0 f3 3e
       1.1016701 0.36275223 0.13429238 0.47607955
000070 d2 79 ea bd 20 cc 6a bc 51 d0 f6 3e 79 24 b5 3e
       -0.11449017 -0.014330894 0.48205808 0.3537939
000080 05 44 98 3f e0 f7 7f be 25 96 ef 3e 4c 65 4c bc
       1.1895758 -0.249969 0.4679424 -0.012475323
000090 a5 aa a8 bc 85 0c 9b 3e d9 ca 93 3e b9 ec 25 be
       -0.020589182 0.3028299 0.28865698 -0.16203584
0000a0 a5 2d 68 3f 9a a9 4f 3d d8 78 63 3e 3f 86 73 3e
       0.9069465 0.050698854 0.22214067 0.2378168
0000b0 17 ca 6b 3e 63 fa 61 3e ed f5 8d 3e 2f fb ca 3f
       0.2302631 0.22068171 0.2772669 1.5857905
0000c0 1f c4 cd bb a6 48 88 be cb 0f c4 3c 7c 27 e8 3f
       -0.006279483 -0.26617926 0.023933312 1.813705
0000d0 27 3f 3d be 7a 52 22 bd 99 5d cf bd 75 fb 44 3e
       -0.18481122 -0.039629437 -0.10125274 0.19236548
0000e0 8f e3 98 3e 0e 0f 8e 3d 21 ac f4 3d 86 a6 d9 3e
       0.29861113 0.06936465 0.119468935 0.4250986
0000f0 ec 1e d1 3e 65 21 81 3f d1 e6 7f 3e e3 42 9b 3e
       0.40843904 1.0088316 0.24990393 0.30324468
000100 b0 34 b4 3e e5 95 89 3e b5 f9 22 3e da 7e dd 3e
       0.35196447 0.26872173 0.15915568 0.43260843
000110 84 fa 5e be ff 68 23 3f 50 0b fa 3c b2 b3 cd 3e
       -0.21775252 0.63832086 0.030522972 0.4017616
000120 fb db 94 3d 87 e0 0b 3f e7 5f 87 3f 1a 22 b1 3f
       0.072685204 0.54639477 1.0576142 1.3838532
000130 39 2a 06 be 57 b3 f7 3e 66 f0 78 3f 06 6c 5e 3f
       -0.13102044 0.48379013 0.9724182 0.8688358
000140 bf 72 de 3e f0 5f 4f 3e 61 5d 92 3b 07 4e b3 3d
       0.4344692 0.20251441 0.004466698 0.08755117
000150 04 23 ec 3e 0d 86 b1 bd a6 bf c5 be 4c c0 af 3e
       0.46120465 -0.08668146 -0.3862278 0.34326398
000160 04 5e 6d 3f a7 0c 3e be 43 8e 97 bd ae f6 57 3d
       0.9272158 -0.18559514 -0.07400181 0.052725486
000170 2b 77 e4 3e 4d bc 1e bd 74 e8 e7 3e 75 18 75 3e
       0.44622168 -0.038753796 0.45294535 0.23935111
000180 5f 85 96 3f ce c5 a7 be 46 72 d0 3e d3 82 d5 3d
       1.1759452 -0.327681 0.40712184 0.10425343
000190 cd 55 a5 be 2b 0f 41 be ae 25 95 3e b2 f8 69 be
       -0.32292023 -0.18853442 0.2913031 -0.22848776
0001a0 73 b0 5f 3f 6d cf a4 3d 2e fb a9 bd 18 df 28 bd
       0.87378615 0.08047376 -0.08299862 -0.041228384
0001b0 7d 8b c5 bd ce bc ab 3d a8 8a 81 bd 2c 6c d3 3f
       -0.09645746 0.08385621 -0.06325275 1.6517386
0001c0 ae a8 ef 3c 79 5b 2b 3d e8 9b 74 bd a8 f7 ec 3f
       0.029255237 0.041835282 -0.059718996 1.8513079
0001d0 d3 84 0b bd 09 8d 32 3e 56 53 49 be 5b 4c 7c 3e
       -0.034062218 0.17436613 -0.19660696 0.24638502
0001e0 e8 9f ba 3e 35 03 fd bd 17 f9 63 3d b9 d3 99 be
       0.36450124 -0.12354127 0.055657472 -0.30044344
0001f0 9b 7c f0 3e 81 8d 88 3f 85 4a 85 3e 9e e9 69 3e
       0.46970066 1.0668184 0.26033416 0.22843024
000200 56 a9 29 3f f8 6f b1 3e a0 d4 14 bd 4f 64 b4 3e
       0.6627401 0.34655738 -0.036335588 0.3523278
000210 48 9b fa 3e 9c fc 2c 3f 48 1c 29 3d cf 9b 9a 3e
       0.48946595 0.6757295 0.041286737 0.30196998
000220 38 08 b1 3d 38 e1 06 be 94 19 87 3f 5d 6d 93 3f
       0.08644146 -0.13171852 1.0554681 1.151775
000230 ba 7e 8e be 03 d5 e6 3e 9f 05 80 3f c6 e9 55 3f
       -0.2783106 0.4508439 1.0001715 0.83559835
000240 a8 bc ac 3e 6e e3 f3 3e 08 d2 73 3d 20 4b 23 be
       0.33737683 0.47634453 0.059526473 -0.15946627
000250 3a 7f e4 3d 8f 5c 47 be 3b b4 e0 bc d4 5c c0 3e
       0.11157079 -0.19468902 -0.02742969 0.37570822
000260 23 7a c4 3f c3 4a bd 3e c4 ae a5 3e ab 9d 14 3e
       1.5349773 0.369711 0.32359898 0.1451327
000270 2a e7 3c 3e ac b4 12 bd ed df f9 3e dd df aa be
       0.18447557 -0.035816833 0.48803654 -0.3337392
000280 20 ad 93 3f 57 2a bc 3d a2 16 e8 3e 3e 08 6f 3e
       1.1537209 0.09187763 0.45329767 0.23342988
000290 d6 8d 8c be 1f 58 7d be 6c 05 fb 3e d8 b3 74 be
       -0.27451962 -0.24740647 0.49027574 -0.2389673
0002a0 26 60 65 3f 64 74 35 3e 3f fa 72 3e 1c c4 8c be
       0.89599836 0.17720181 0.23728274 -0.2749337
0002b0 19 41 95 3c e1 46 2d 3e fe 1f 64 3e 8d 89 bb 3f
       0.018219518 0.1692157 0.22277829 1.4651352
0002c0 ec 00 19 be 28 36 88 3d 6e c4 00 3e 9f e7 ee 3f
       -0.14941758 0.066509545 0.12574932 1.8664435
0002d0 6f 81 74 bd 86 37 85 be 89 5b 60 be ca bb 0a 3e
       -0.05969375 -0.26018924 -0.21909918 0.13548198
0002e0 e5 d4 6a 3e 2e 34 88 3b cb 2d 3c 3e c0 d7 20 bc
       0.22932775 0.004156611 0.18376844 -0.009817064
0002f0 b4 98 ba 3e 1b ae 81 3f c1 be 85 3e 6c 4b 2c be
       0.36444628 1.0131258 0.26122096 -0.16825646
000300 62 1e ee 3e 25 87 cd 3e 05 69 0b be f1 22 cb 3e
       0.46507555 0.4014217 -0.1361428 0.39675096
000310 81 be 3c 3e 2d e1 04 3f a9 c5 01 3d 58 0c 7d 3e
       0.18432046 0.5190609 0.031682644 0.2471174
000320 a6 ff cc 3c ce 3b ff 3e af fb 86 3f 36 a2 9f 3f
       0.025024246 0.49850315 1.0545558 1.2471378
000330 bf 6f 3f be b9 eb d6 3e 57 52 80 3f 3a d2 4c 3f
       -0.18694972 0.41976717 1.0025128 0.8000828
000340 7f f6 a2 3e 23 dd f3 3e 3e 12 82 3b 94 8e ac be
       0.31828687 0.4762965 0.00396946 -0.33702528
000350 6b e8 31 3d 20 85 f4 3b 98 65 fa 3c 55 b2 9d 3e
       0.04343454 0.007462159 0.030566022 0.3080012
000360 5a 5f 87 3f 6f 62 da bd eb e4 e9 bc 6d 15 4a be
       1.0575974 -0.10663306 -0.02855154 -0.19734736
000370 eb 4d b9 be 3c cf 79 bd 5a 3b 13 3f 3d c9 70 be
       -0.3619226 -0.06098865 0.5751244 -0.23514266
000380 08 ef 9c 3f fb f5 ce 3e 63 43 ff 3e a8 24 53 3e
       1.2260447 0.40422043 0.498561 0.20619452
000390 99 3c a4 be b2 36 16 bd 97 80 d4 3e 75 4a 3d bc
       -0.32077482 -0.036673255 0.41504356 -0.0115533965
0003a0 f4 1f 64 3f 7a 03 ea 3d b1 11 00 3f 2f e1 6c 3e
       0.89111257 0.11426444 0.50026995 0.23132776
0003b0 2a 22 f2 bd d9 d3 99 be 09 26 83 3e f2 75 d2 3f
       -0.118229225 -0.3004444 0.25614956 1.6442244
0003c0 24 0f 75 be 3b 34 16 be 9e 28 19 be e8 17 e5 3f
       -0.23931557 -0.14668362 -0.149569 1.7897921
0003d0 7b 8c 8d be 66 65 65 be b6 4e 2a be 01 8e f3 bd
       -0.2764624 -0.22401962 -0.16631588 -0.118923195
0003e0 ef 56 c3 3e f8 c2 c4 3d 9c af 58 3e 61 df 84 3e
       0.38152263 0.096075 0.2116074 0.25951675
0003f0 fe 78 94 3e 1c ec 89 3f 12 eb bc 3e 5b 33 b7 bc
       0.2899856 1.077518 0.36898094 -0.022363355

layers.15.bias f4 [5]
000000 1a fb 10 3f 73 a4 12 3f 00 32 0c 3f ef 64 18 3f
       0.5663315 0.5728218 0.54763794 0.5952901
000010 a9 aa de 3e
       0.43489578
