stocks_google.pt (torch, 23765 bytes, 8 tensors)

layers.0.weight f4 [1, 1, 20, 1]
0	0x3eb3c10d	0.35108224
1	0xbe36e028	-0.17858946
2	0xbdd9f82d	-0.10643039
3	0xbed3135c	-0.41225708
4	0x3e06d604	0.13167578
5	0xbee77822	-0.45208842
6	0xbe7f44fa	-0.24928656
7	0x3f31f262	0.6951047
8	0x3eb69a7f	0.35664746
9	0xbf244fdc	-0.64184356
10	0xbe88fda0	-0.26756
11	0x3e3136a1	0.17305996
12	0xbe4ccb31	-0.19999386
13	0x3e8ab8cc	0.27094114
14	0x3d1f74ff	0.038929936
15	0xbe97740e	-0.2958073
16	0xbf1b4dca	-0.6066557
17	0x3dffb0d2	0.12484898
18	0x3e337d73	0.17528324
19	0x3eed5ef8	0.46361518

layers.3.weight f4 [1, 1, 10, 1]
0	0x3cfda001	0.030960085
1	0xbd95799a	-0.07298584
2	0x3e8b79a5	0.27241245
3	0xbedc930f	-0.43080947
4	0xbd6209f8	-0.05518529
5	0x3eab7e06	0.33494586
6	0xbd8551d1	-0.06509746
7	0x3ea66702	0.32500464
8	0x3ebabb31	0.3647094
9	0x3f76d5f5	0.9642022

layers.6.weight f4 [1, 1, 10, 1]
0	0x3c9020b7	0.017593725
1	0x3cce6680	0.02519536
2	0x3dd3a7db	0.1033475
3	0x3de685f3	0.112560175
4	0xbdf831b8	-0.12118858
5	0xbf2f0190	-0.6836176
6	0xbfb434df	-1.4078635
7	0xbe529954	-0.20566303
8	0xbdc6efeb	-0.097137295
9	0x3ec87353	0.39150485

layers.9.weight f4 [1, 1, 10, 1]
0	0xbe0015cb	-0.12508313
1	0x3c5749fe	0.0131402
2	0xbde70c22	-0.11281611
3	0xbbba3951	-0.005683102
4	0xbb3b9964	-0.0028625363
5	0xbc3b9b11	-0.011450545
6	0xbb9a0c89	-0.0047012013
7	0xbe9454fb	-0.28971085
8	0xbc1498a4	-0.0090695955
9	0x3e87f3ed	0.26553288

layers.13.weight f4 [64, 70]
0	0x3eb3f5e4	0.35148537
1	0x3b87656e	0.0041319644
2	0xbe936956	-0.28791302
3	0xbe7edf25	-0.2488981
4	0x3edb1a49	0.4279349
5	0xbe2bbe6d	-0.1677186
6	0x3dc75cff	0.097345345
7	0x3ee68d3a	0.45029622
8	0x3e643889	0.22287191
9	0xbe32fe37	-0.17479788
10	0xbebab528	-0.36466336
11	0x3e7f4169	0.24927296
12	0xbd30485d	-0.04303776
13	0xbe8bf3ec	-0.27334535
14	0x3e642c74	0.22282583
15	0xbdfc6be3	-0.12325265
16	0xbd165a5b	-0.036707263
17	0x3da6b9f3	0.08140936
18	0x3eda796e	0.42670768
19	0x3c82963a	0.015940774
20	0xbda15a18	-0.07878512
21	0xbf3107bc	-0.69152427
22	0xbf1b568d	-0.6067894
23	0xbf3be2bd	-0.7339285
24	0xbf482563	-0.7818205
25	0xbf274d3c	-0.65352225
26	0x3eab28ee	0.33429664
27	0xbe85d8bf	-0.26141927
28	0xbde46dee	-0.1115378
29	0xbfa7f589	-1.3121806
30	0xbee03077	-0.43786976
31	0xbf879e40	-1.0595169
32	0xbeda95a7	-0.426923
33	0x3f15e21c	0.5854814
34	0xbec8676b	-0.39141402
35	0xbe9eff7d	-0.31054297
36	0xbf56df68	-0.8393464
37	0xbf10255d	-0.5630701
38	0xbf899075	-1.074721
39	0xbf4ad334	-0.7922852
40	0xbf05f9d0	-0.5233431
41	0x3e1b8a24	0.15189415
42	0xbf2b131d	-0.6682604
43	0xbf86d9cf	-1.053522
44	0xbf29a184	-0.6626208
45	0xbf4d9cb2	-0.80317223
46	0xbedfdd4c	-0.43723524
47	0xbe4c8028	-0.19970763
48	0x3e706d16	0.23479113
49	0xbfa703ca	-1.3048031
50	0xbf4bf4af	-0.7967023
51	0xbfb00094	-1.3750176
52	0xbffcca29	-1.9749194
53	0xbf7a7144	-0.9782908
54	0xbfa33e1b	-1.2753328
55	0xbef2817c	-0.47364414
56	0xbfa72d3f	-1.3060683
57	0xbf35f290	-0.71073246
58	0xbfa63041	-1.2983476
59	0xbff0c1ed	-1.8809181
60	0xbfae3531	-1.3609983
61	0xbf1e7871	-0.6190253
62	0xbe7c2cfc	-0.24626535
63	0x3f69a763	0.91271037
64	0x3f64f9a8	0.89443445
65	0x3fa3d57e	1.2799528
66	0x3ed9d82e	0.42547745
67	0x3f9a4fc8	1.2055597
68	0x3f046abc	0.51725364
69	0x3d76ceb2	0.060255714
70	0xbeb84f6c	-0.35998094
71	0xbddbc4e4	-0.10730913
72	0xbe5553b7	-0.20832716
73	0xbea02c1d	-0.31283656
74	0xbe11e399	-0.14246978
75	0x3b4fb2cd	0.0031692267
76	0xbe7e1b10	-0.24815011
77	0xbf07fd59	-0.5312095
78	0xbe8876e0	-0.26653194
79	0x3c935952	0.017986927
80	0xbe88adea	-0.26695186
81	0xbe8a35c8	-0.26994157
82	0xbb8059fa	-0.003916976
83	0xbd96b1b2	-0.073581114
84	0xbd71ff18	-0.059081167
85	0xbe9f3f72	-0.31103092
86	0xbeeed11c	-0.46643913
87	0x3db8e9fa	0.090290025
88	0xbea72e2a	-0.32652408
89	0xbe17d5e5	-0.14827688
90	0xbe8d4294	-0.27589858
91	0xbe5639a0	-0.2092042
92	0xbe48acd4	-0.19597179
93	0xbda178b4	-0.078843504
94	0xbc95c123	-0.018280571
95	0xbe101aa7	-0.14072667
96	0x3de28975	0.11061374
97	0xbcd4074f	-0.025882391
98	0x3bd160da	0.0063897194
99	0xbe7855c4	-0.24251467
100	0xbede655e	-0.43436712
101	0xbea22df7	-0.31675693
102	0xbe8d9e7e	-0.27659982
103	0xbe9ac6e2	-0.3022986
104	0xbe11d566	-0.14241561
105	0xbe8cd57c	-0.27506626
106	0x3d505424	0.050861493
107	0x3dda0ad7	0.10646599
108	0xbe38941e	-0.18025252
109	0x3db79384	0.08963683
110	0x3d4e0169	0.050294314
111	0xbd3f4300	-0.046694756
112	0x3d41cee6	0.047316454
113	0xbdd83e66	-0.105587766
114	0xbd8bef65	-0.0683277
115	0x3d8da936	0.0691704
116	0xbe056693	-0.1302741
117	0x3d439363	0.04774798
118	0x3cf6cee3	0.030127948
119	0xbe3b257c	-0.18276018
120	0xbe9db49e	-0.30801862
121	0xbdc36d98	-0.09542388
122	0x3da379fa	0.079822496
123	0xbe11d50f	-0.14241432
124	0xbc48d99b	-0.012258912
125	0x3d8795d4	0.06620374
126	0xbedee84f	-0.43536612
127	0xbedd57e7	-0.43231127
128	0xbd1914f5	-0.0373735
129	0x3d7febc5	0.062480707
130	0xbe7b6ea3	-0.24553923
131	0xbdff1267	-0.12454682
132	0x3e11905b	0.14215223
133	0xbec48a81	-0.3838692
134	0xbcd32e20	-0.02577883
135	0xbe3d3351	-0.18476607
136	0xbdaa7313	-0.0832273
137	0xbeb2965f	-0.3488035
138	0xbec06ccf	-0.37583014
139	0xbe93e402	-0.28884894
140	0x3de2b65b	0.11069938
141	0x3b362a3a	0.0027796165
142	0xbc9c8006	-0.019104015
143	0x3e8378f4	0.25678217
144	0x3e86f4b8	0.2635858
145	0xbe27398f	-0.1633055
146	0xbe93a0a6	-0.28833503
147	0x3e82755d	0.25480166
148	0xbd7caa8c	-0.061686084
149	0x3e0b9b27	0.13633405
150	0xbe67f7a6	-0.22653064
151	0x3e0a721e	0.13520095
152	0x3e379185	0.17926605
153	0xbe27ae6e	-0.16375133
154	0xbd8be803	-0.06831362
155	0xbe528432	-0.20558241
156	0xbe20df35	-0.15710147
157	0xbdfb0bd9	-0.12258119
158	0xbe066fd6	-0.131286
159	0xbd0cadc6	-0.03434541
160	0xbe53ed8a	-0.20696083
161	0xbe10a366	-0.14124832
162	0x3e3ddd84	0.18541533
163	0xbe19d646	-0.15023145
164	0x3e0bb509	0.13643278
165	0x3df7970a	0.12089355
166	0x3d755d7c	0.059903607
167	0x3dc228f4	0.094804674
168	0xba5ba9c4	-0.0008379484
169	0xbd8af241	-0.067844875
170	0xbd818f1e	-0.063261256
171	0xbdb7d01d	-0.08975241
172	0xbdd64884	-0.1046305
173	0xbea28516	-0.31742162
174	0xbd715c9b	-0.058926206
175	0xbe807d4c	-0.25095594
176	0x3e78323b	0.24237911
177	0xbdf3f0e7	-0.11911183
178	0xbe84df27	-0.25951502
179	0x3e8b2cee	0.27182716
180	0xbe2bb289	-0.16767325
181	0x3de28d0e	0.1106206
182	0xbe9cc5d4	-0.3061968
183	0xbd9342ac	-0.07190451
184	0x3e74f36d	0.23920985
185	0xbd065516	-0.032795988
186	0x3e2be80d	0.16787739
187	0xbe1c210d	-0.15246983
188	0x3e1084de	0.14113185
189	0x3dd24948	0.102678835
190	0xbea82211	-0.3283849
191	0xbe0120b1	-0.12610127
192	0xbeb19821	-0.34686378
193	0x3c99582e	0.018718805
194	0x3e30391f	0.1720929
195	0xbe4c635b	-0.19959776
196	0xbe4e48c1	-0.20144941
197	0xbea9db15	-0.3317496
198	0xbeb0153c	-0.343912
199	0xbe8462ba	-0.25856572
200	0xbe1368d5	-0.14395459
201	0xbe578458	-0.21046579
202	0xbdcd991b	-0.10038968
203	0xbd8891d3	-0.06668439
204	0x3d2490bb	0.04017709
205	0xbec61fdd	-0.38696185
206	0x3d0285d3	0.031865906
207	0xbd8b7d25	-0.06810979
208	0xbe8d14b5	-0.2755486
209	0xbd65a9d7	-0.056070175
210	0xbe96772a	-0.2938779
211	0xbda3ab68	-0.079916775
212	0xbe4cde72	-0.20006731
213	0xbe7d418a	-0.24732032
214	0x3c1f06e2	0.009706231
215	0x3cb82c74	0.022482134
216	0xbd806069	-0.06268389
217	0x3dbe4434	0.092903525
218	0x3e56b2e7	0.20966683
219	0x3ed3ba58	0.41353106
220	0x3e43b6cc	0.191127
221	0x3e1ed04e	0.1550915
222	0xbf20afb8	-0.62768126
223	0xbdaca039	-0.084289975
224	0x3e72bc03	0.23704533
225	0x3ee0d09a	0.4390915
226	0x3e09396d	0.13400812
227	0x3d83383c	0.0640721
228	0x3e832881	0.2561684
229	0x3d74b938	0.05974695
230	0xbd23fb51	-0.040034596
231	0xbeaa8a24	-0.33308518
232	0x3eab0e31	0.33409265
233	0x3e967e7d	0.29393378
234	0xbcdf92cf	-0.027291683
235	0x3e4b9211	0.19879939
236	0x3ed16992	0.40900856
237	0x3e25fe37	0.16210257
238	0x3d77c810	0.06049353
239	0x3d045796	0.03231009
240	0x3e89f1c2	0.2694226
241	0xbdc07af2	-0.0939845
242	0x3e881569	0.26578835
243	0x3e9024e9	0.2815316
244	0x3d3629d8	0.0444735
245	0x3ee9220f	0.45533797
246	0x3ebe096c	0.37116563
247	0x3edf86d1	0.43657544
248	0x3e365660	0.17806387
249	0x3e4c642d	0.19960089
250	0xbc6de4cd	-0.014519882
251	0xbdb5d0dc	-0.088777274
252	0x3e94101a	0.28918535
253	0x3eb5a9e7	0.35481188
254	0x3f1b742c	0.6072414
255	0x3eaddc00	0.3395691

layers.13.bias f4 [64]
0	0xbd9d7246	-0.076878116
1	0xbe1c6b35	-0.15275271
2	0xbe5fec76	-0.21867546
3	0xbea074e0	-0.3133917
4	0xbdd74f4b	-0.10513171
5	0xbdf45940	-0.119310856
6	0xbe7ed06f	-0.24884199
7	0xbd7d2b01	-0.06180859
8	0xbdfb813d	-0.122805096
9	0xbe374a8c	-0.17899531
10	0xbea7b061	-0.32751754
11	0xbe7fb1f2	-0.24970224
12	0xbe385ad0	-0.18003392
13	0xbcc1e09d	-0.023666674
14	0xbda08899	-0.07838554
15	0xbdedabea	-0.11605056
16	0x3df0ee79	0.11764235
17	0x3dc9ab5e	0.09847139
18	0xbe5f7bc3	-0.21824555
19	0xbe0dcee2	-0.13848451
20	0xbd92b4b1	-0.071633704
21	0xbf052386	-0.5200733
22	0xbe16e6b8	-0.1473645
23	0x3d7ebd16	0.062192045
24	0x3d1c2a93	0.03812654
25	0xbe191488	-0.14949238
26	0xbcff6dcd	-0.031180287
27	0xbe0120ca	-0.12610164
28	0xbe0382c0	-0.12842846
29	0xbea88492	-0.32913643
30	0xbe49a3c4	-0.19691378
31	0xbed3068d	-0.41215935
32	0xbe9480b9	-0.29004458
33	0xbe278b79	-0.16361798
34	0x3dd4089c	0.103532046
35	0xbdc4a5c8	-0.09601933
36	0xbe2f2caa	-0.17106882
37	0xbe855e05	-0.26048294
38	0xbc892c73	-0.016744828
39	0xbea2894f	-0.31745383
40	0xbbb7e935	-0.0056125172
41	0x3b547e56	0.0032423935
42	0x3cb944b5	0.02261577
43	0xbea519cf	-0.32246253
44	0x3e2ca159	0.16858424
45	0xbe339d25	-0.17540415
46	0xbd81bfd2	-0.06335415
47	0xbe9034c0	-0.28165245
48	0xbe4b0bb8	-0.19828689
49	0xbe567bee	-0.20945713
50	0xbe534be9	-0.20634426
51	0x3d73b6ed	0.059500623
52	0xbea3cb2b	-0.31990942
53	0xbe7c0e46	-0.2461482
54	0xbe208ae7	-0.15677987
55	0xbe2895a9	-0.16463341
56	0x3d146dbe	0.03623747
57	0xbe3c9018	-0.18414342
58	0xbdd86ac2	-0.105672374
59	0xbd8c2d73	-0.06844606
60	0x3d86cf82	0.06582548
61	0xbe0b34aa	-0.13594308
62	0x3d4f9bd4	0.05068572
63	0xbdd17c13	-0.102287434

layers.15.weight f4 [5, 64]
0	0xbe253c05	-0.16136177
1	0x3ded4de9	0.11587126
2	0xbd286319	-0.041110132
3	0x3e475df1	0.1946943
4	0xbd10420b	-0.035219233
5	0x3df61d00	0.1201725
6	0xbb0d3e1a	-0.0021551908
7	0x3e26d014	0.16290313
8	0x3d4e2580	0.05032873
9	0x3d8d78a8	0.06907779
10	0x3e1d5c65	0.15367277
11	0x3e988dfb	0.29795823
12	0x3d2a6c60	0.04160726
13	0x3de9e622	0.114208475
14	0xbda8ab02	-0.08235742
15	0x3e8553e9	0.2604058
16	0x3e73a33f	0.23792742
17	0x3e3f0419	0.18653907
18	0x3dc33009	0.09530646
19	0x3e4bedf3	0.19914989
20	0x3e8bae59	0.27281454
21	0xbe4759e2	-0.19467881
22	0xbe9ee628	-0.3103497
23	0x3e41f4b2	0.18941
24	0x3e6baa5a	0.23014203
25	0x3ebea73f	0.37236974
26	0x3e4a46ab	0.1975352
27	0x3e14aa89	0.14518179
28	0xbe42d0aa	-0.19024912
29	0x3ee42ca8	0.4456532
30	0xbe1a1413	-0.1504672
31	0xbefc54cb	-0.49283442
32	0x3e42ca79	0.1902255
33	0xbeb86a02	-0.36018378
34	0x3e176514	0.14784652
35	0xbd847980	-0.06468487
36	0xbccae5c4	-0.024767764
37	0x3e534311	0.20631053
38	0x3e9f3fe0	0.3110342
39	0xbee5ef07	-0.44908926
40	0x3e217a4d	0.1576931
41	0x3e3a6bdb	0.18205206
42	0x3f4e71d8	0.8064246
43	0x3e8a96ff	0.27068326
44	0xbe9e79d3	-0.3095232
45	0x3e0d8d3a	0.13823405
46	0x3e805b3c	0.25069606
47	0x3e772b9b	0.24137728
48	0x3d6c4f76	0.057692967
49	0xbe8237f5	-0.25433317
50	0x3dba8c0a	0.091087416
51	0x3ea5c768	0.32378697
52	0x3e2a988e	0.16659757
53	0xbe146de5	-0.14495046
54	0x3d0afd9a	0.03393326
55	0xbec16fa8	-0.377805
56	0x3e411783	0.18856625
57	0x3dac387d	0.08409212
58	0x3d8d2886	0.06892495
59	0x3ea54da6	0.32285804
60	0x3e436365	0.19080885
61	0x3da79b79	0.08183951
62	0x3df99fe7	0.12188702
63	0x3e32866f	0.17434095
64	0xbe080eba	-0.13286868
65	0xbde68a4c	-0.11256847
66	0x3d519189	0.051164184
67	0x3e7d3218	0.2472614
68	0xbbc6502f	-0.006052039
69	0x3e3f0ab0	0.1865642
70	0x3ca719ab	0.020397982
71	0x3d9afc1d	0.07567618
72	0x3e0f01ac	0.13965482
73	0xbe7f5cda	-0.24937764
74	0x3e7fe0c1	0.2498808
75	0x3e40aa65	0.18815
76	0xbe384163	-0.17993693
77	0x3e11aa63	0.14225154
78	0x3e179d78	0.14806163
79	0x3e07fea7	0.13280736
80	0x3e694638	0.22780693
81	0x3e2a92d3	0.16657571
82	0x3e3c2746	0.18374357
83	0xbb3fc9b7	-0.0029264519
84	0xbd7acf49	-0.06123284
85	0xbe452d39	-0.19255532
86	0xbeae0e2a	-0.3399518
87	0x3e417c65	0.18895109
88	0x3e457868	0.19284213
89	0xbdb5f300	-0.08884239
90	0x3d9cc7b9	0.076552816
91	0xbe9f1bee	-0.31075996
92	0xbe0414fe	-0.12898633
93	0x3e58522a	0.21125093
94	0xbe8580ae	-0.26074737
95	0xbee4d146	-0.44690913
96	0x3ddeda10	0.10881436
97	0xbec92295	-0.39284196
98	0x3e17bb9f	0.14817666
99	0x3d99a137	0.075014524
100	0xbe8d55d0	-0.27604532
101	0x3e85c54d	0.2612709
102	0x3e9c7154	0.30555212
103	0xbec6ed01	-0.38852695
104	0x3e2a18ba	0.16610995
105	0x3d98c144	0.074587375
106	0x3f63f6a4	0.8904822
107	0x3dffbc1e	0.124870524
108	0xbea5b9eb	-0.32368407
109	0x3e28fc74	0.16502553
110	0xbd0eee34	-0.034895137
111	0x3e6004fb	0.218769
112	0x3d07ad20	0.03312409
113	0x3c161fef	0.009162887
114	0x3db0c9dd	0.08632252
115	0x3ea6b4a6	0.325597
116	0x3e1c49ea	0.15262571
117	0xbe1aab6e	-0.15104458
118	0x3dfe874a	0.12428148
119	0x3e51619f	0.20447396
120	0x3e5286c2	0.20559219
121	0xbd6d4d89	-0.05793527
122	0xbc12274a	-0.0089205
123	0x3ea1d38f	0.3160672
124	0x3e3d99ce	0.18515703
125	0x3e218d62	0.1577659
126	0x3e271e6d	0.163202
127	0x3e40982f	0.18808053
128	0xbe407bf0	-0.18797278
129	0x3e282e63	0.16423945
130	0x3d0b8648	0.034063607
131	0x3e89f55f	0.26945016
132	0x3ed02024	0.4064952
133	0x3e3698f5	0.17831786
134	0x3d64db8a	0.05587343
135	0x3db832e0	0.08994079
136	0x3dbb69c8	0.091510355
137	0xbeae4515	-0.3403708
138	0x3de7bc06	0.113151595
139	0x3e819d6d	0.2531542
140	0xbdade439	-0.08490796
141	0x3daae7ab	0.083449684
142	0xbd71ffa9	-0.059081707
143	0x3e82045f	0.2539396
144	0x3e6c7a1f	0.2309346
145	0x3e5433d3	0.20722894
146	0x3d697d5e	0.057004325
147	0xbe1ab2de	-0.15107295
148	0xbea1037b	-0.31447968
149	0xbe2e7da0	-0.1704011
150	0xbcad3109	-0.021141546
151	0x3e1dc91c	0.15408748
152	0x3e8a235f	0.2698011
153	0x3e8f79c5	0.2802259
154	0x3e054ae1	0.13016845
155	0x3e2646bb	0.16237919
156	0x3e84de4e	0.25950855
157	0x3e4eb158	0.20184839
158	0xbe21eeba	-0.15813723
159	0xbf070c66	-0.52753294
160	0x3d98803e	0.07446335
161	0x3e20c48d	0.15699978
162	0x3e1146b6	0.1418713
163	0x3e5c5e91	0.21520449
164	0xbea014de	-0.3126592
165	0x3e9fc430	0.31204367
166	0x3e918958	0.28425097
167	0xbee70b42	-0.45125777
168	0x3e464996	0.19364008
169	0x3e313ebc	0.17309088
170	0x3f64fe7b	0.89450806
171	0x3e36290b	0.17789094
172	0xbeac4c4b	-0.33651957
173	0x3e44d54e	0.19221994
174	0x3e641ffe	0.22277829
175	0x3e132eaa	0.1437327
176	0xbb8e9ccd	-0.004352188
177	0x3d955491	0.072915204
178	0x3de08ef5	0.10964767
179	0x3ea61bd7	0.32443115
180	0x3df8dc0c	0.121513456
181	0xbdfa842d	-0.12232242
182	0x3d22418d	0.039613295
183	0xbe772030	-0.24133372
184	0x3e4aee4f	0.1981747
185	0x3e176783	0.1478558
186	0x3dac983e	0.084274754
187	0x3e9f38fb	0.3109816
188	0x3e4df0f0	0.20111442
189	0xbe485ee8	-0.19567454
190	0x3e020e73	0.12700824
191	0x3e6e06dd	0.23244806
192	0xbdf87cbe	-0.12133168
193	0xbda7d01b	-0.0819399
194	0xbcece142	-0.028916005
195	0x3ee0bce9	0.43894127
196	0x3dad2df6	0.08456032
197	0x3e538dfa	0.20659629
198	0x3db4dad4	0.08830801
199	0x3cb51f95	0.022109786
200	0x3e0b8b7f	0.13627432
201	0x3d91bbb2	0.07115878
202	0x3dabdb2a	0.083914116
203	0x3e827375	0.25478712
204	0x3e135f4f	0.14391826
205	0x3daf01e7	0.08545285
206	0x3e9b3383	0.30312738
207	0x3e63020a	0.22168747
208	0x3e6a2a45	0.22867687
209	0x3e87aa8d	0.26497307
210	0xbc94143f	-0.01807606
211	0xbebcab80	-0.36849594
212	0xbe77c9b9	-0.24198045
213	0xbe15ac08	-0.14616406
214	0x3ccb7923	0.024838036
215	0x3e0044e2	0.12526277
216	0x3e89ba94	0.2690016
217	0xbd818d2d	-0.06325755
218	0x3cf57063	0.029960817
219	0xbeada92f	-0.3391814
220	0xbe7c2523	-0.24623542
221	0x3e95886f	0.29205653
222	0xbe58272f	-0.21108697
223	0xbf065efc	-0.52488685
224	0x3e7eda30	0.2488792
225	0x3e25342a	0.1613318
226	0x3e13b966	0.14426193
227	0x3e568323	0.20948462
228	0xbe7e0693	-0.24807195
229	0x3ea785c1	0.32719234
230	0x3ea96ecd	0.33092347
231	0xbec6de9e	-0.38841718
232	0x3e163bf6	0.14671311
233	0x3e776a7f	0.24161719
234	0x3f5f2ce5	0.8717788
235	0x3e998b24	0.29988968
236	0xbe92f6ac	-0.2870382
237	0xbe50707e	-0.20355412
238	0x3e832609	0.25614956
239	0x3e30e875	0.17276175
240	0xbe497189	-0.19672216
241	0xbde9aa57	-0.11409443
242	0x3e4c79cd	0.19968338
243	0x3eb9cad1	0.3628755
244	0x3e074340	0.13209248
245	0xbe6a104f	-0.22857784
246	0xbeac0d04	-0.3360368
247	0xbe929596	-0.2862975
248	0x3e397d39	0.18114175
249	0xbd9e4022	-0.07727076
250	0x3e24b306	0.16083917
251	0x3e82e1c7	0.2556288
252	0x3da94570	0.08265197
253	0xbdf8b2b7	-0.12143462
254	0x3e0ee815	0.1395572
255	0x3e1ce6b9	0.15322389

layers.15.bias f4 [5]
0	0x3e8f9bc5	0.2804853
1	0x3e8fa128	0.2805264
2	0x3e8fe496	0.28104085
3	0x3e8bda0d	0.27314797
4	0x3e8993a7	0.26870462
