stocks_google.pt (torch, 23765 bytes, 8 tensors)

layers.0.weight f4 [1, 1, 20, 1]
000000 ce 53 c5 3d dc a8 a6 3e d2 e2 1f 3d 98 d2 9b be
       0.09635125 0.32550704 0.039034672 -0.30434108
000010 b7 f0 d9 3e e6 1d 9e be 68 0a 54 bd 28 0b f2 3e
       0.42566463 -0.30882186 -0.051767737 0.47274137
000020 fa df 9d 3e 0a 05 94 be c0 d9 86 bc cc 81 98 be
       0.30834943 -0.28910094 -0.016461253 -0.29786527
000030 e0 c9 88 be 4b 1f 3b 3e 60 2c 7a be ef 05 e2 be
       -0.26716518 0.18273656 -0.2443099 -0.44145152
000040 15 78 d3 be 3b ec 54 3d f8 5e 9f 3e 29 a9 ea 3e
       -0.41302553 0.0519831 0.31127143 0.45832184

layers.3.weight f4 [1, 1, 10, 1]
000000 da f5 52 3e 60 97 63 3e ce 37 9d be f6 aa 0e 3f
       0.20601597 0.22225714 -0.30706638 0.55729616
000010 df 7f 93 3e 41 b3 df 3d 22 7c e7 3d 97 db e1 be
       0.28808495 0.10922862 0.11302973 -0.44112846
000020 1d d0 38 3f 50 03 3a bf
       0.72192556 -0.72661304

layers.6.weight f4 [1, 1, 10, 1]
000000 13 8f d1 3e 58 36 22 bf 7e f9 ed be 24 7e 04 3f
       0.4092947 -0.6336417 -0.4647941 0.51754975
000010 e1 72 25 bf fa f8 11 3e b5 c2 33 bf 66 73 34 be
       -0.64628416 0.14255133 -0.70218974 -0.17622146
000020 d0 22 f0 3e 36 ec 77 3e
       0.4690156 0.24211201

layers.9.weight f4 [1, 1, 10, 1]
000000 04 92 09 be 57 f2 ef 3e c0 48 0e bf 0c cf 14 3f
       -0.13434607 0.46864578 -0.5557976 0.5812843
000010 2c bc f8 be e7 97 13 3f d3 e9 67 3c 22 4d 10 be
       -0.48581064 0.5765366 0.014154869 -0.14091924
000020 88 54 1a 3f bf 04 07 bf
       0.60285234 -0.52741617

layers.13.weight f4 [64, 70]
000000 ec 07 11 3d 2d 5c b7 bd 76 69 6a bd 9f 14 08 be
       0.035407946 -0.08953128 -0.05722948 -0.13289116
000010 55 14 e5 3d ce f2 2b 3e 52 a7 a3 3e 5c a3 36 3e
       0.11185519 0.16791841 0.31963593 0.17835754
000020 49 62 74 3e 2b f5 f1 3d 2f 69 63 be ab ac b9 bc
       0.23865618 0.1181434 -0.22208093 -0.022665342
000030 01 83 7e be da 4a 6e be b3 75 38 be f7 7b eb bd
       -0.24854662 -0.23270741 -0.18013649 -0.11498254
000040 c0 a5 ae bd da fd ad 3d 61 86 c2 3c 35 7f 07 bd
       -0.08527708 0.08495684 0.023745717 -0.0330803
000050 81 ac 29 3e 8b 4c 01 be 4d 97 e9 bd fc e0 81 be
       0.16569711 -0.12626855 -0.114058115 -0.25366962
000060 d9 3c 8b be 05 c4 b4 bd 47 97 39 3e 6e e5 1d 3c
       -0.2719486 -0.0882645 0.18124114 0.00963722
000070 56 b7 9a 3e 20 12 87 be 6f b7 26 be 8e a9 74 be
       0.30218 -0.26381016 -0.16280912 -0.23892805
000080 cf 68 58 bc 6e 56 1c 3e f4 e3 cc 3d 8e 2e 4f 3e
       -0.013208582 0.15267345 0.10004416 0.20232603
000090 dd ac df 3d 02 03 e4 3d 33 4e b7 3d d4 0f 8f be
       0.10921643 0.11133386 0.08950462 -0.27941763
0000a0 b3 6d 44 be bc b2 2b 3e bc 42 b7 bd f7 f3 37 bd
       -0.19182472 0.167674 -0.089482754 -0.044910397
0000b0 12 ed 60 3d ee 10 3b 3d b1 f1 10 3e 69 5e 31 3d
       0.054913588 0.045670442 0.14154698 0.043302927
0000c0 f3 95 88 3e a9 76 88 bd d5 47 28 3e 45 ec 98 bd
       0.26676902 -0.06663258 0.16433652 -0.0746694
0000d0 04 00 6e be 57 0e 85 3e 8b 02 56 be e0 0e 21 be
       -0.23242193 0.25987503 -0.20899408 -0.1572833
0000e0 c2 3e 78 bd 27 c9 82 3e 8d 45 24 be a7 09 74 be
       -0.060606726 0.25544092 -0.16042157 -0.23831807
0000f0 b8 9f ec bd e5 4f 74 3e 7b 22 f7 3d b6 ea bc ba
       -0.115539014 0.23858602 0.120671235 -0.0014413211
000100 3c b5 73 3c 0f e3 9f 3e d6 c8 40 be ca 33 95 3e
       0.014874753 0.3122792 -0.18826613 0.29141074
000110 71 be 49 3d d1 80 84 be 84 dd 3d be 7d 9a aa 3d
       0.049253885 -0.2587953 -0.18541533 0.083302476
000120 4b 8c f1 bc ae 8d 12 be 77 78 03 3d 33 85 cb 3c
       -0.029485842 -0.14311859 0.032097306 0.024843788
000130 3b 8f 53 be 93 75 b3 be c2 4d 99 bd 76 d7 4e 3e
       -0.20660107 -0.3505064 -0.07485534 0.2019938
000140 ee a4 bd bd af c2 b6 bd aa 93 8a 3d 0d 6d 43 bc
       -0.092599735 -0.08923852 0.06766446 -0.011927855
000150 0b 17 a5 3d 38 21 23 be 82 a5 a3 be 5d 24 68 3e
       0.08061036 -0.1593064 -0.3196221 0.22670121
000160 07 51 3f be a3 94 24 bd 58 85 53 be 00 f9 37 bd
       -0.18683253 -0.040180814 -0.20656335 -0.0449152
000170 73 82 f1 bc 54 f6 a7 3d 76 55 13 3e 8d 05 c1 3c
       -0.029481148 0.0820128 0.1438807 0.023562217
000180 cf b5 2a 3e 08 0a cc 3d 80 fd 22 3e 60 60 a0 bd
       0.16670917 0.09962851 0.15917015 -0.07830882
000190 26 68 8f be 55 e6 2a be 3a 95 fd bd ed df 63 be
       -0.28009146 -0.16689427 -0.12381978 -0.2225339
0001a0 d7 29 0d 3c c5 1a 0a be db 96 57 3e 13 04 80 3e
       0.008615932 -0.13486774 0.2105364 0.25003108
0001b0 b5 5e 16 bd 02 5a 6b 3e 29 63 bf 3d f9 b2 b7 3c
       -0.036711413 0.22983554 0.09345085 0.022424208
0001c0 b5 f8 39 3e 00 20 47 3d 21 f3 8f 3d 1a 73 5b 3e
       0.1816128 0.048614502 0.07028795 0.21430627
0001d0 35 d0 83 3b 62 bc bd 3d 58 99 be 3d 77 1f 22 bd
       0.004022623 0.09264447 0.09306592 -0.03958079
0001e0 fc 8e 1a be 51 19 3e 3d 93 30 6d 3e 9c af 48 3a
       -0.15093607 0.046410862 0.23163061 0.00076555624
0001f0 c2 4e 94 3c 6f 15 04 3e 5b 97 97 be 7b 9d 92 be
       0.01810396 0.12898801 -0.29607663 -0.28635773
000200 00 14 d1 3d 6b cd 55 3e ba 99 d9 bd eb 9c fd bd
       0.10208893 0.20879142 -0.10625024 -0.12383445
000210 1b 31 47 3e f0 cf 68 be 59 f4 fb 3d 78 1b 09 bd
       0.19452326 -0.22735572 0.12302465 -0.033473462
000220 99 7a a4 3d 96 e7 44 be cb e1 a1 be 9a 85 db bd
       0.08031196 -0.19228968 -0.3161758 -0.10718842
000230 52 fe ac 3d ca 0d ff bc b0 1b 8f bd 3c 98 76 3e
       0.08446945 -0.031134505 -0.06987703 0.2408151
000240 07 0d 73 3e fe 5a 08 be 26 21 8b be 47 8f 34 3e
       0.23735438 -0.13315961 -0.27173728 0.17632781
000250 d2 7d 01 be d8 2b 40 3d 15 5b 93 be c6 5a 68 3d
       -0.12645653 0.046916813 -0.28780428 0.056727193
000260 76 d3 42 3e ec 05 f5 bd f6 4b fe bd bc 07 7d be
       0.19025978 -0.1196402 -0.12416832 -0.24709982
000270 3f 05 5a be 25 e0 24 be a8 a1 3f be be b2 e8 3a
       -0.21291064 -0.1610113 -0.1871401 0.0017753465
000280 a7 b0 32 3c 22 e3 42 be a5 e5 1b 3e 17 5f 4a be
       0.010906375 -0.19031957 0.15224321 -0.19762836
000290 75 e2 e4 3d e7 17 93 3d de 76 fe 3d c6 72 2b 3e
       0.11176006 0.071822934 0.12425016 0.16743001
0002a0 53 e4 6a bd c5 99 b0 bd 32 d0 df bd ec 12 e5 bd
       -0.057346653 -0.08623079 -0.10928382 -0.1118525
0002b0 ab 01 25 be 63 57 8f be 72 58 c8 bc 8d 46 87 be
       -0.16113918 -0.27996358 -0.024456237 -0.26421013
0002c0 09 34 86 3e c8 db e5 bd 44 a3 75 be be 63 84 3e
       0.26211575 -0.112235606 -0.23988062 0.25857347
0002d0 89 b5 b0 bd 0f c4 58 3e 39 57 8f be 4a ee 5d bc
       -0.08628375 0.2116854 -0.27996233 -0.013545582
0002e0 6c c3 8f 3e d2 4c f8 3b cc c5 46 3e 8d ed 3a bd
       0.28078783 0.007577517 0.19411391 -0.045636702
0002f0 30 97 62 3e 48 3b 16 3e f4 88 7b be 49 14 71 bd
       0.22127986 0.14671052 -0.24563962 -0.058857236
000300 88 4f 8e be f3 82 80 3d db 9b 47 3e c3 ec 18 be
       -0.27795053 0.062749766 0.19493048 -0.14934067
000310 f4 3e 04 be 15 b3 67 be 6a 4e 79 be ba 1c 2f be
       -0.1291464 -0.22626908 -0.24346319 -0.17100802
000320 49 bd 92 bd 6d 5c 59 be 4a e4 96 bd 1b 1d 9e 3c
       -0.071650095 -0.21226664 -0.073677614 0.019300988
000330 39 c5 0d 3e 5e 7d 90 be c6 16 f6 3d df 6f 92 3c
       0.13844766 -0.28220648 0.120160624 0.01787561
000340 b3 88 95 be 61 ea 48 bd b9 c2 b1 3d 4a 55 59 3e
       -0.29205856 -0.049051646 0.086797185 0.21223941
000350 9d b7 50 3e 13 f6 26 3e 6e df c7 3e 33 a0 bd 3e
       0.20382543 0.16304807 0.3903765 0.37036285
000360 18 e4 4e 3e f7 82 33 be a1 93 a3 bd 28 a3 be 3d
       0.20204198 -0.17530428 -0.07987142 0.09308463
000370 00 85 82 bd 9d aa e7 bd 80 e7 37 3e 44 d3 d5 3d
       -0.06373024 -0.11311839 0.17959404 0.10440686
000380 06 96 03 3e c7 84 09 3e f5 00 ab bd 93 64 0e be
       0.12850198 0.13429557 -0.08349792 -0.13905554
000390 09 2b 17 3e 98 7c a1 3e 13 e8 dd 3d c6 8a 84 be
       0.1476251 0.3154037 0.1083528 -0.25887126
0003a0 ed fc 91 3e 8e b0 54 3e 24 81 dc bd eb c7 8b 3e
       0.2851328 0.20770475 -0.10766819 0.27300963
0003b0 6e 63 87 3d 7b cc 5b bd 64 d1 19 3d ad cf f4 3b
       0.066107616 -0.053661805 0.037553206 0.007471046
0003c0 be c7 f2 3d e1 bc 84 be e0 ad 78 3e ff 75 85 3e
       0.11854504 -0.25925353 0.24285078 0.26066586
0003d0 6e f2 7f bd a0 05 ca 3d b6 e7 0e 3c 1e ec 41 bc
       -0.06248706 0.09864354 0.008722236 -0.01183608
0003e0 db 2a 97 be a5 dd 20 be 09 84 b0 bd e2 1f 83 3e
       -0.29524884 -0.1570955 -0.08618934 0.25610262
0003f0 cc 59 f9 bd 68 ec 71 3b 7c bc 38 3e fc 2f 13 be
       -0.121753305 0.003691459 0.18040651 -0.14373773

layers.13.bias f4 [64]
000000 9f fd bf 3c 4c d6 85 bd 31 5a 0e bd d7 ec a6 3d
       0.023436366 -0.065350145 -0.034753982 0.08150642
000010 f3 db be 3b 04 e9 82 3d 10 ab 1e 3d 88 30 c3 3d
       0.00582456 0.063921005 0.038737357 0.09530741
000020 12 ab 32 3d 4a e3 8d bd a0 7d 8a 3d 91 80 33 3c
       0.043620177 -0.069281176 0.06762242 0.010955946
000030 a4 d9 81 bd 1c 80 a4 3d 3f 4a 4c bc e4 c9 46 3d
       -0.0634034 0.080322474 -0.0124688735 0.04853238
000040 e6 87 98 3d 89 7b 94 3d 7c 97 b2 bc be 82 ea bc
       0.074477956 0.07250125 -0.021800749 -0.028626796
000050 67 ec 8e bc f2 64 1a bd 46 86 69 bc e5 45 9c 3d
       -0.01744671 -0.037693925 -0.014253205 0.07630519
000060 f8 5c f2 3c 30 a4 5f bd bd eb 6e 3b f6 b0 9b bd
       0.029585347 -0.05459994 0.003645643 -0.07602112
000070 57 33 15 bd 85 12 69 3c ce 75 a1 3d 10 67 21 bd
       -0.036425915 0.014225607 0.078837976 -0.03940493
000080 94 78 5e bc 30 a5 0b bd 09 88 1d 3e ae 42 87 bc
       -0.013578553 -0.034093082 0.15383925 -0.016511288
000090 08 7b 82 bd 3d 1c 0f 3c 4a c2 87 3d af 77 85 bd
       -0.063711226 0.00873476 0.066288546 -0.065169685
0000a0 8b 01 81 3d 4b 0a 1f 3d f6 df 96 3b 22 96 5a bd
       0.062991224 0.038828176 0.004604335 -0.053365834
0000b0 d3 b6 4a bd 5e d6 3f bd 00 00 00 00 e2 45 fb 3c
       -0.04949076 -0.046835296 0.0 0.030672971
0000c0 95 68 36 bd be 24 66 bd 6d 2c 77 bd e4 58 c8 3c
       -0.04453333 -0.056187384 -0.060345102 0.024456449
0000d0 ff df 10 bd 04 7a 5b bd c3 90 89 bd b9 b2 22 bd
       -0.03536987 -0.05358316 -0.06717064 -0.039721224
0000e0 da 5e bf 3d cb 48 cd 3c c6 16 8c 3d 9c 79 11 bc
       0.093442634 0.025059124 0.06840281 -0.008879092
0000f0 38 81 bb 3d 4c b0 ac 3c 81 7f c3 3d 69 a3 b5 bc
       0.09155506 0.021080159 0.09545804 -0.022172647

layers.15.weight f4 [5, 64]
000000 8b 0c a8 3e b3 40 7b 3e 67 da 46 be 0a 8f f3 bd
       0.3282207 0.245364 -0.19419251 -0.11892517
000010 64 89 36 3d 1b 6b 91 be c8 9b 95 3d ab 7d da 3e
       0.04456462 -0.28402027 0.073051035 0.42674002
000020 4e 8e 82 be d1 6f a6 3e 3d ec 4f be 26 b3 a8 3e
       -0.25499195 0.32507184 -0.20304962 0.3294918
000030 1b b4 5c 3e e1 17 82 3e 7d c5 28 3d 9a a6 a1 3e
       0.2155308 0.25408843 0.041203965 0.3157242
000040 1f da ff 3d 20 b2 93 3e 59 46 ab 3e 20 31 e0 3d
       0.12492775 0.28846836 0.33452109 0.1094687
000050 bd 02 b2 3e 1d 44 2f be 9a f6 3b be 73 2f d0 3e
       0.34767714 -0.17115827 -0.1835579 0.406612
000060 00 7e b2 3e aa 08 9f 3e 3a 37 9b 3a a4 9b 9e 3e
       0.34861755 0.31061298 0.001184202 0.3097812
000070 81 09 82 be 95 72 44 be 77 fa 77 bd 23 61 c8 3e
       -0.25397876 -0.19184335 -0.060541596 0.3913661
000080 ae 87 bb bd db a5 81 be c9 80 96 3e 97 ea 83 bd
       -0.09156738 -0.2532185 0.2939513 -0.06441229
000090 1b f9 82 bd e4 86 b1 3e c3 43 26 bb 9e 5c 78 be
       -0.06395169 0.34673226 -0.002536998 -0.2425408
0000a0 1e 69 f5 3d 8f fb 6b bd 98 08 94 3e e8 1f 60 3e
       0.1198294 -0.05761295 0.28912807 0.21887171
0000b0 7b 0c 31 3e bc 03 4d 3e ed f5 8d 3e c2 67 dc bd
       0.17289917 0.20020956 0.2772669 -0.10761978
0000c0 7d 06 da bc 08 12 9a be 0d e1 32 bc c3 bf ca be
       -0.026614422 -0.30091882 -0.010917914 -0.39599428
0000d0 ed 3d 1c be b1 b5 83 be 77 f5 eb bd 07 ef a7 be
       -0.15257998 -0.25724557 -0.11521428 -0.3279955
0000e0 ed b0 62 3e 37 ec c0 bd 0c e2 e1 3c f7 56 d5 3e
       0.22137804 -0.094200544 0.027573608 0.4166791
0000f0 a1 49 b7 3e 59 f4 ed 3d 48 0d 74 3e a2 6a 98 3e
       0.35798362 0.11618871 0.23833191 0.29768854
000100 a7 ff 1a bd 4f 10 35 be 60 8c 1f 3e f3 58 8b 3e
       -0.037841465 -0.17682002 0.15580893 0.272163
000110 08 88 ae bd 08 17 f2 3d e6 c5 af be 60 ec ca 3e
       -0.0852204 0.11820799 -0.34330672 0.39633465
000120 31 b8 76 3e 9e 21 63 be 17 c9 bb 3e af f2 57 3e
       0.24093701 -0.22180793 0.36676857 0.2108867
000130 d8 ad 1c be c9 f4 c3 3d 94 db cc 3d 2b e5 c5 3e
       -0.15300691 0.095681734 0.10002819 0.38651404
000140 1a 61 c4 3e 62 1b 43 be 4d 9d a7 3e 8f 85 ae 3d
       0.38355333 -0.19053414 0.32737198 0.08521568
000150 28 aa 9b ba eb 73 d4 bd 26 99 b8 be a1 3b 3f 3e
       -0.0011876272 -0.10373672 -0.36054343 0.1867509
000160 3c 87 9f 3d b4 ff 7d be 4f 67 e0 bd 1f ea 97 be
       0.07789466 -0.24804574 -0.109572046 -0.29670808
000170 d0 44 7f be 99 2a a1 be fc 9e 22 3b 1c 26 66 3e
       -0.24928594 -0.31477812 0.0024814 0.22475475
000180 18 38 9e be b8 3d c1 be 25 58 0c 3e fa 88 b9 3d
       -0.3090217 -0.377424 0.137055 0.09059329
000190 88 fc a6 be 28 be 31 be 0d 10 ce bc bd ac b8 be
       -0.3261454 -0.17357695 -0.025154138 -0.3606929
0001a0 ba 50 c7 bc b1 c4 1d be 6e 2c ae be 93 49 be bc
       -0.024330486 -0.15407063 -0.34018272 -0.023228442
0001b0 8b 9a 5f be f7 54 d2 3d a8 8a 81 bd 62 26 f2 3e
       -0.21836297 0.10270112 -0.06325275 0.4729491
0001c0 3b f9 22 bd 18 fd 7e 3d f2 c6 a9 bd d3 a9 d9 be
       -0.039788466 0.062253088 -0.08289899 -0.42512378
0001d0 f3 8a 01 3e 36 04 d1 3e 15 8e 47 be dc 4d 13 3e
       0.12650661 0.40823525 -0.19487794 0.1438517
0001e0 eb fd b2 3e 8b ac d2 3d 32 16 60 be a3 45 9d be
       0.3495935 0.10286816 -0.21883467 -0.3071719
0001f0 ca 91 d4 3e 9b 48 1f 3e d2 e4 8f 3e 8b 01 89 3e
       0.41517478 0.1555504 0.28104264 0.2675899
000200 17 77 8c be fe 11 23 3e d2 2d 03 bd 81 dc 59 be
       -0.27434608 0.15924832 -0.03202612 -0.21275522
000210 d2 af f7 3e 14 9f db 3e 41 8d 6e 3d 11 a5 69 3d
       0.48376328 0.42894804 0.05824018 0.057042185
000220 9c e5 c5 3e 0f e9 b1 be 0e d2 ee 3b 8b d7 92 3e
       0.3865174 -0.34748122 0.007288224 0.2868007
000230 31 70 92 be 55 ff 54 bc a5 b5 9a be 05 f5 d0 3e
       -0.2860122 -0.013000329 -0.3021671 0.40811935
000240 64 c8 88 3e b6 fe de 3e 3d 64 9d bc f6 14 60 be
       0.26715386 0.43553704 -0.019212836 -0.21882996
000250 00 87 a6 be b3 12 3f be 0a e8 a8 bd 7c d4 c2 3e
       -0.32524872 -0.18659477 -0.08247383 0.38052738
000260 3d 9c 04 be 1f 20 b6 3e 73 c5 a2 3e a8 c1 82 3e
       -0.12950225 0.3557138 0.31791267 0.25538373
000270 35 ce 84 3e 34 bd ae be 73 b9 18 3e db 01 a1 be
       0.25938573 -0.34128726 0.14914493 -0.31446728
000280 c8 77 55 3e a4 9c aa 3d 34 54 78 3e 8b 21 5a 3e
       0.20846474 0.08330658 0.24250871 0.21301858
000290 49 52 a2 be a5 71 8f be d9 e7 28 3e b5 a9 bc be
       -0.31703404 -0.2801639 0.16494693 -0.36848226
0002a0 d2 50 6d 3e 97 5a 9b 3e b6 9f 5a 3e 70 c9 89 be
       0.23175362 0.30342552 0.21349987 -0.26911497
0002b0 5a 36 42 be 10 75 21 3e fe 1f 64 3e c3 9d 1c be
       -0.18966046 0.15767312 0.22277829 -0.15294556
0002c0 28 13 35 be b9 e1 d5 3d a9 b8 d4 3e 52 ed 16 3e
       -0.17683089 0.10443444 0.41547135 0.14738968
0002d0 50 e5 a0 bd 10 1c 9b be 7d 55 5d be e8 2e bb be
       -0.07856238 -0.30294847 -0.21614642 -0.36559224
0002e0 2b 0e e9 3d fd b4 37 3e 1e 3c 28 3e 2b c5 7a bb
       0.113796555 0.17940135 0.16429183 -0.0038264494
0002f0 21 a0 33 3e 0b dd 7b be 6c 12 6f 3e c1 21 3e be
       0.17541553 -0.2459604 0.23346871 -0.18567564
000300 de 7b 1a be 7a f0 07 be fe 61 13 be 12 2f 44 3e
       -0.15086314 -0.13275328 -0.1439285 0.19158581
000310 84 39 53 3e d9 e1 d3 bd 24 6d 58 3e 63 3b e2 3c
       0.20627409 -0.103458114 0.21135384 0.027616208
000320 c7 7c 2c be 44 05 d4 3d 8e 7b 36 3e 67 45 b4 be
       -0.16844474 0.10352567 0.1782057 -0.352092
000330 ec 34 1f be 4e 41 c1 bd 0d 5d 25 3e 59 87 41 be
       -0.15547532 -0.09436284 0.16148777 -0.18899287
000340 05 3b 09 3e 63 e3 c0 3e b1 db 22 be 5e 9a bd be
       0.1340142 0.37673482 -0.15904118 -0.37031835
000350 0e 71 77 be d8 f8 60 bb 6f 13 66 3d 51 68 aa bd
       -0.2416422 -0.003432801 0.056170877 -0.08320678
000360 2b 36 1d be eb b7 d5 bd 09 31 06 be 33 22 af be
       -0.15352695 -0.1043547 -0.13104643 -0.3420578
000370 d7 4f c5 be 11 8c b3 3e 5f 49 ab 3e 73 50 8c be
       -0.38537475 0.350678 0.33454415 -0.27405128
000380 b1 08 97 bd f1 8e c9 3e 58 fe c1 3e 41 b3 49 3e
       -0.07374705 0.39366868 0.3788936 0.19697286
000390 84 8a a1 be de 52 ad bd ec 7b 85 3d 98 c2 99 3d
       -0.31550992 -0.08463071 0.06517777 0.07507819
0003a0 65 06 8f 3e 95 ba b3 3d c4 b9 ad 3e 6b 80 8c 3e
       0.27934566 0.08775822 0.3393079 0.27441725
0003b0 e6 1f 81 be 9c 87 b5 be 09 26 83 3e 22 d9 d6 3d
       -0.2521965 -0.35455024 0.25614956 0.104906335
0003c0 a2 75 83 be 3b f0 0f be 52 27 17 be 0c 1b 1d 3e
       -0.25675684 -0.14056484 -0.14761093 0.15342349
0003d0 ff 17 c0 be 0c 24 b5 be 4b f8 25 be 32 b6 a1 be
       -0.37518308 -0.35379064 -0.16207998 -0.31584316
0003e0 9c 7e d7 3e 9f f8 5d be e5 83 ce 3e 61 df 84 3e
       0.42088783 -0.21676873 0.40335003 0.25951675
0003f0 b2 e4 9a be c5 61 d5 bd 4e da 9a 3e 45 d7 2f bd
       -0.30252606 -0.10419039 0.30244678 -0.042929906

layers.15.bias f4 [5]
000000 d5 28 a6 3d 95 c4 9c 3d 82 7c 45 3d 23 53 a6 3d
       0.08113257 0.076546825 0.048214443 0.08121326
000010 96 2c 5c 3d
       0.053753458
