stocks_google.pt (torch, 168527 bytes, 7 tensors)

layers.0.weight f4 [1, 1, 20, 1]
0	0xbbba77c6	-0.0056905476
1	0x3d9dba88	0.07701594
2	0x3e9c98b6	0.3058526
3	0x3eb4af41	0.35289958
4	0x3e9b1665	0.30290523
5	0xbd354b23	-0.04426111
6	0x3efa3a6e	0.48872703
7	0xbe829360	-0.25503063
8	0x3e9315df	0.28727624
9	0xbe6befae	-0.2304065
10	0x3dbea6a5	0.09309129
11	0xbeb1ce57	-0.34727737
12	0x3e7060a0	0.2347436
13	0x3cd4f7ca	0.025997061
14	0xbdc02525	-0.09382085
15	0xbf046c00	-0.51727295
16	0xbda8043e	-0.08203934
17	0xbedb60a1	-0.4284716
18	0x3de6e725	0.11274556
19	0x3ddd7cc0	0.1081481

layers.3.weight f4 [1, 1, 10, 1]
0	0xbe83a349	-0.25710514
1	0x3eb90fdf	0.3614492
2	0xbdfa47cf	-0.12220728
3	0x3db17fc0	0.086669445
4	0xbe1e79da	-0.1547617
5	0x3e0c14d0	0.13679814
6	0x3d1ade47	0.037809636
7	0x3dec6246	0.11542182
8	0xbef524e7	-0.47879717
9	0x3ed3600f	0.41284224

layers.6.weight f4 [1, 1, 10, 1]
0	0x3db56ce0	0.08858657
1	0xbe9db167	-0.3079941
2	0xbd24c17e	-0.04022359
3	0xbd731f1b	-0.059355836
4	0x3e16df76	0.14733681
5	0x3ea8d858	0.32977557
6	0xb80717ec	-3.2208787e-05
7	0x3d9134e9	0.0709017
8	0xbf25cbc9	-0.64764076
9	0x3f0345f4	0.51278615

layers.10.weight f4 [128, 316]
0	0xbe08b8e5	-0.13351782
1	0xbece42b1	-0.40285257
2	0xbdca2cc4	-0.098718196
3	0xbe52ed46	-0.20598325
4	0x3b95112f	0.0045491676
5	0xbda5dc5c	-0.08098671
6	0xbe8df33d	-0.2772464
7	0xbf224881	-0.6339188
8	0xbdbb494e	-0.09144841
9	0xbf027d1a	-0.5097214
10	0xbea36908	-0.3191607
11	0xbee22506	-0.44168872
12	0xbe9e8f66	-0.3096878
13	0xbec7978e	-0.38982815
14	0x3d3c6d7c	0.04600285
15	0xbece101e	-0.4024667
16	0xbc6498cf	-0.013952448
17	0xbd8517c1	-0.06498671
18	0x3f08dd9a	0.5346314
19	0x3c4a6b10	0.012354627
20	0x3eccebc2	0.4002362
21	0x3b033355	0.002001961
22	0x3e92df70	0.28686094
23	0xbb85d18e	-0.0040838188
24	0x3e957ff0	0.2919917
25	0x3d6a46f7	0.057196584
26	0xbd86b063	-0.06576612
27	0xbe6f290a	-0.23355499
28	0xbeb15905	-0.3463823
29	0xbf199f05	-0.6000827
30	0xbf3ff5ca	-0.7498442
31	0xbf3aeaa0	-0.7301426
32	0xbeb233c9	-0.34805134
33	0xbe92405a	-0.2856472
34	0x3ee5e352	0.44899994
35	0x3e665ed0	0.22497106
36	0x3f024e2c	0.5090053
37	0x3d56687c	0.052345738
38	0x3ecd5d29	0.40110138
39	0x3b916456	0.00443701
40	0x3e7116d2	0.23543862
41	0x3d2871e3	0.041124236
42	0x3ce35890	0.02775219
43	0xbf0746a2	-0.5284215
44	0x3d544f6b	0.05183355
45	0xbe6338de	-0.22189662
46	0xbf0d1dcc	-0.5512359
47	0xbf3196f4	-0.6937096
48	0xbd3290e7	-0.04359522
49	0xbf23c97b	-0.6397931
50	0xbe8464aa	-0.2585805
51	0xbf231caa	-0.6371561
52	0xbdf39a5d	-0.11894677
53	0xbe653779	-0.22384442
54	0x3ce715ea	0.028208692
55	0xbea2b06b	-0.3177522
56	0x3dcb682a	0.09931977
57	0xbe671a0e	-0.22568533
58	0x3e3acb5c	0.18241638
59	0xbe41fbb6	-0.18943676
60	0x3e6d7cca	0.23192134
61	0xbd9773cf	-0.073951356
62	0x3e877d0f	0.264626
63	0x3e35428c	0.17701167
64	0x3f0eca63	0.5577757
65	0x3e294744	0.16531092
66	0x3f1d073f	0.6133918
67	0x3e06d9ac	0.13168973
68	0x3e65c9bb	0.22440235
69	0x3b5fb30d	0.0034133822
70	0xbdd45a52	-0.1036879
71	0xbec46788	-0.38360238
72	0xbe95bfb3	-0.29247817
73	0xbebe80dd	-0.3720769
74	0xbe97b114	-0.29627287
75	0xbeb183a7	-0.34670755
76	0xbc9d6695	-0.019213954
77	0xbe9ea61a	-0.309861
78	0x3e762a38	0.24039543
79	0xbdeaa231	-0.11456717
80	0x3e8ec39b	0.2788361
81	0xbdde7157	-0.108614616
82	0x3ed7c738	0.4214418
83	0x3dc4f08c	0.09616193
84	0x3e869b46	0.2629034
85	0xbdd3a61f	-0.103344195
86	0x3c3651fe	0.011127947
87	0xbec581b9	-0.38575533
88	0xbdb99bec	-0.09062943
89	0xbf2ad85f	-0.66736406
90	0xbd480827	-0.0488359
91	0xbeeab5a6	-0.45841712
92	0xbeb63ef0	-0.35594893
93	0xbeeedfb7	-0.46655056
94	0xbee159a1	-0.44013694
95	0xbf27688e	-0.6539391
96	0xbef81808	-0.48455834
97	0xbf3e34ce	-0.74299324
98	0xbdeea347	-0.116522364
99	0xbeeb2484	-0.45926297
100	0x3994d260	0.000283855
101	0xbf0d15cd	-0.5511139
102	0xbdfb90bc	-0.12283465
103	0xbe7bf121	-0.24603702
104	0x3e277387	0.16352664
105	0x3df10e60	0.1177032
106	0x3e9c6ff7	0.30554172
107	0x3cfa77f0	0.030574769
108	0x3cb14573	0.021639561
109	0x3d6cbb13	0.057795595
110	0xbed4e292	-0.4157911
111	0xbebe5227	-0.37172052
112	0x3d0e5987	0.03475335
113	0x3d4309f1	0.047616903
114	0x3e0e9baf	0.13926576
115	0xbe02ca10	-0.12772393
116	0xbcadb390	-0.021203786
117	0xbdd2b0aa	-0.10287602
118	0x3e5287dc	0.20559639
119	0xbe332579	-0.17494763
120	0x3e664560	0.22487402
121	0xbe43fadb	-0.19138663
122	0x3ecb4bec	0.3970636
123	0x3e6492ce	0.22321627
124	0x3f21dd06	0.6322788
125	0xbd767c9e	-0.060177438
126	0x3f1d8f18	0.6154647
127	0x3bd408ca	0.0064707743
128	0x3f06404e	0.5244187
129	0x3dcc67ba	0.09980722
130	0x3ed1c9b4	0.409742
131	0x3c52a38b	0.0128563745
132	0xbdb8f61f	-0.09031319
133	0xbedf10c3	-0.43567476
134	0xbe4b663c	-0.19863218
135	0xbf1ef5b6	-0.62093675
136	0xbea1f9b5	-0.31635824
137	0xbed23889	-0.41058758
138	0xbe1da1c1	-0.15393735
139	0xbea2d508	-0.31803155
140	0xbdd7ac1b	-0.105308734
141	0xbeb2c4f5	-0.3491589
142	0xbdec4341	-0.11536265
143	0xbeb169f2	-0.34651142
144	0xbeea0839	-0.45709398
145	0xbf282537	-0.65681785
146	0xbf2e1d14	-0.6801312
147	0xbf292a88	-0.6608052
148	0xbf8bf546	-1.0934227
149	0xbf4399db	-0.7640664
150	0xbf7e79bd	-0.9940451
151	0xbf68f9cc	-0.9100616
152	0xbf105060	-0.5637264
153	0xbf3eab80	-0.7448044
154	0x3d6414f4	0.055684045
155	0xbe85f00c	-0.26159704
156	0x3d907fda	0.07055636
157	0xbe252c79	-0.16130246
158	0x3dd9a64b	0.10627421
159	0xbde7ed3a	-0.11324544
160	0x3e883871	0.2660556
161	0x3e0b281d	0.13589521
162	0x3f08837f	0.5332565
163	0x3d40f8c2	0.047112234
164	0x3edb7bb2	0.4286781
165	0x3dec7fdb	0.11547824
166	0x3e3185d7	0.17336212
167	0x3ea1b699	0.31584623
168	0x3d4dad6b	0.050214212
169	0x3e7bb1ec	0.2457959
170	0xbdf768f8	-0.12080568
171	0xbe44539a	-0.19172516
172	0xbe80ff8f	-0.25194976
173	0xbe566ff3	-0.20941143
174	0xbd9b9e9f	-0.07598614
175	0xbe889ae5	-0.26680675
176	0x3e035e88	0.1282903
177	0xbe496bc7	-0.1967002
178	0x3e3dd518	0.1853832
179	0xbbd3f30b	-0.006468182
180	0x3ed3c895	0.4136397
181	0x3d5d84c8	0.05408171
182	0x3ef200e1	0.47266296
183	0x3e55c4d3	0.20875864
184	0x3eb85439	0.36001757
185	0x3e5d3715	0.21603043
186	0x3e8396f3	0.25701103
187	0x3d1f6304	0.038912788
188	0x3db8e8ca	0.09028776
189	0xbe813207	-0.2523348
190	0x3e2bf56f	0.16792844
191	0xbd88a442	-0.06671955
192	0x3e454707	0.19265376
193	0xbc1918b5	-0.0093442695
194	0xbe2e902d	-0.17047186
195	0xbe165796	-0.14681849
196	0xbd5f83a0	-0.054568887
197	0xbe424964	-0.18973309
198	0xbe3ef80f	-0.18649314
199	0x3a7cc0e7	0.0009641782
200	0xbdb972eb	-0.09055122
201	0xbd9ff0ab	-0.07809576
202	0x3e62ffa4	0.22167832
203	0xbe16fbb0	-0.14744449
204	0x3e2f9734	0.17147523
205	0xbd8ecdc2	-0.06972839
206	0x3ea5a747	0.32354185
207	0x3e86e6a3	0.26347837
208	0x3ebfb25b	0.37440762
209	0x3e805839	0.2506731
210	0x3e919081	0.2843056
211	0xbd04ce18	-0.03242311
212	0xbd92a92c	-0.07161173
213	0xbe9d86a9	-0.307668
214	0x3d68c4ba	0.056828238
215	0xbe4b4abe	-0.1985273
216	0x3d881c35	0.06646005
217	0xbe8909b3	-0.26765212
218	0xbc1e3e8b	-0.009658466
219	0xbef292be	-0.4737758
220	0x3e354b6c	0.17704552
221	0xbda57e04	-0.08080676
222	0x3e844a7f	0.25838086
223	0x3e0d5f8b	0.13805978
224	0x3f15d236	0.5852388
225	0x3e6cdff6	0.2313231
226	0x3eadad12	0.33921105
227	0x3e4d30af	0.20038103
228	0x3e287e05	0.16454323
229	0x3dd885c2	0.10572387
230	0x3ec5efab	0.38659415
231	0xbd98f79a	-0.07469101
232	0x3e307cad	0.1723506
233	0xbe9943d1	-0.29934552
234	0xbb1706ed	-0.00230449
235	0xbe687f02	-0.227047
236	0xbe91473b	-0.28374657
237	0xbe6ea97b	-0.23306839
238	0xbee23c22	-0.44186503
239	0xbe05a7ae	-0.13052246
240	0xbe9a08a5	-0.3008472
241	0xbebb21f4	-0.36549342
242	0xbe5e7c0d	-0.21727009
243	0xbec8fab4	-0.3925377
244	0xbea6c9ce	-0.3257584
245	0xbe05a818	-0.13052404
246	0xbe5347d0	-0.20632863
247	0xbe8b9431	-0.272615
248	0xbef0b2d9	-0.4701145
249	0xbec71bde	-0.38888448
250	0xbf0f8da8	-0.56075525
251	0xbeb9b775	-0.3627278
252	0xbedb8c07	-0.4288027
253	0xbe54ed27	-0.20793591
254	0xbf246fd7	-0.64233154
255	0xbe56e284	-0.20984846

layers.10.bias f4 [128]
0	0xbeeb66ce	-0.4597687
1	0xbdac0d4c	-0.08400974
2	0xbec7c578	-0.39017844
3	0xbe915a70	-0.2838931
4	0xbe55efca	-0.20892254
5	0xbe5f2656	-0.21791968
6	0xbeb8c270	-0.36085844
7	0xbe9c42cc	-0.30519712
8	0xbe48fb70	-0.19627166
9	0xbec39b62	-0.38204485
10	0xbea69519	-0.32535627
11	0x3edda564	0.43290246
12	0xbe32e1f0	-0.17469001
13	0xbf0a092c	-0.53920245
14	0xbe125bc5	-0.1429282
15	0xbef69105	-0.48157516
16	0xbf2116b7	-0.62925285
17	0xbed7e302	-0.4216538
18	0xbed8fbd4	-0.4237963
19	0xbeb3509c	-0.35022438
20	0xbea77b52	-0.32711273
21	0xbe8ab00b	-0.27087435
22	0xbe9bbfb2	-0.3041969
23	0xbe97cb95	-0.29647508
24	0xbe3f56cb	-0.18685453
25	0xbec42d72	-0.38315922
26	0xbe53af14	-0.20672256
27	0xbee6e3d0	-0.45095682
28	0xbe92d535	-0.2867829
29	0xbd0881dd	-0.033326972
30	0xbea37d26	-0.31931418
31	0x3e3d38d5	0.18478711
32	0xbeb2fe38	-0.3495958
33	0xbe576e1d	-0.21038099
34	0xbed89dd1	-0.42307904
35	0xbe653eae	-0.22387192
36	0x3bfd32ac	0.007726988
37	0xbe95e858	-0.29278827
38	0xbe87b6b5	-0.26506582
39	0xbed23dfa	-0.4106291
40	0xbe8f68b5	-0.28009573
41	0xbe87046b	-0.26370558
42	0x3e7d51f4	0.24738294
43	0xbf030b9d	-0.51189595
44	0xbe8db268	-0.27675176
45	0xbe6d83c4	-0.23194796
46	0xbee5e80f	-0.4490361
47	0xbe0f0ffb	-0.1397094
48	0xbdb48f76	-0.088164255
49	0xbe0fd5dd	-0.14046426
50	0xbeb9dcc7	-0.36301252
51	0xbea77366	-0.3270523
52	0xbe4061e7	-0.18787347
53	0xbe293c5a	-0.16526929
54	0xbe0a75fd	-0.13521571
55	0xbe935b2e	-0.28780502
56	0xbe83a58c	-0.2571224
57	0xbd873cc0	-0.06603384
58	0xbe916ecf	-0.28404853
59	0xbed705ac	-0.41996515
60	0xbe49f96d	-0.19724055
61	0xbe852245	-0.26002708
62	0x3e5bb8ac	0.21457165
63	0xbecef337	-0.40419933
64	0xbeda80ca	-0.42676383
65	0xbefca2ff	-0.49343106
66	0xbde6b2e7	-0.11264592
67	0xbeb82d18	-0.35971904
68	0xbf1fca68	-0.6241822
69	0xbee307e1	-0.4434195
70	0xbe9f6be9	-0.31137016
71	0xbf028284	-0.509804
72	0xbe35884f	-0.17727779
73	0xbe3ffa49	-0.1874782
74	0xbe1e74ba	-0.15474215
75	0x3f021bbb	0.50823563
76	0xbed76807	-0.42071554
77	0xbde37a14	-0.11107269
78	0xbee6a24d	-0.450457
79	0xbe4e0b66	-0.20121536
80	0xbe9170ab	-0.2840627
81	0xbe129485	-0.14314468
82	0xbec3ee31	-0.38267663
83	0xbea6e4bf	-0.32596394
84	0xbe37f7c3	-0.17965607
85	0xbe933a1b	-0.28755268
86	0x3e2c0fd9	0.1680292
87	0x3e62f2db	0.22162955
88	0xbe9786cd	-0.29595032
89	0xbe0ac290	-0.13550782
90	0xbe31f219	-0.17377509
91	0xbec5aea9	-0.38609818
92	0xbef13968	-0.4711411
93	0x3b738465	0.003715777
94	0xbe6505e6	-0.22365531
95	0xbe81d86e	-0.25360435
96	0xbe78fe53	-0.24315767
97	0xbe8a85c9	-0.27055195
98	0xbed639d8	-0.41841006
99	0xbecf0af9	-0.4043806
100	0xbe7974a7	-0.24360906
101	0xbecab047	-0.39587614
102	0xbe21dcdd	-0.15806909
103	0xbe58da46	-0.21177015
104	0xbd1c515e	-0.038163535
105	0xbf09c5a7	-0.5381722
106	0xbe9242fc	-0.2856673
107	0xbeeff5a9	-0.4686711
108	0xbf167ccb	-0.5878417
109	0xbe3eb102	-0.1862221
110	0xbf058c8b	-0.52167577
111	0x3c18a8a7	0.009317554
112	0xbf02f664	-0.5115721
113	0xbe6d1262	-0.23151544
114	0x3e1f9a79	0.1558627
115	0xbe377913	-0.1791728
116	0xbe0edef3	-0.13952236
117	0x3ed245cb	0.41068873
118	0xbefe4a35	-0.4966599
119	0xbed094b9	-0.40738466
120	0x3de321cc	0.110904306
121	0xbe2367a6	-0.15957507
122	0xbe72d416	-0.23713717
123	0xbea6c28a	-0.32570297
124	0xbee4987f	-0.44647595
125	0xbda64e75	-0.08120433
126	0xbec7b2c2	-0.3900357
127	0xbde7a8b4	-0.113114744

layers.12.weight f4 [5, 128]
0	0x3e84694b	0.25861582
1	0x3e76a856	0.24087653
2	0x3ea57f77	0.3232381
3	0x3e325a3c	0.17417234
4	0x3ddfb58d	0.109233
5	0x3e9917fb	0.29901108
6	0x3e7a4fe2	0.24444535
7	0x3e802d56	0.2503459
8	0x3e42e729	0.19033493
9	0x3e7698ba	0.24081698
10	0x3e1bde36	0.15221485
11	0xbdaf61e9	-0.08563597
12	0xbd7a2a46	-0.06107547
13	0x3e1da3a3	0.15394454
14	0x3e7df331	0.24799801
15	0x3e2c050d	0.16798802
16	0x3e459668	0.19295657
17	0x3e852865	0.2600738
18	0x3e4f0890	0.2021811
19	0x3e9eed46	0.310404
20	0xbe0716b2	-0.13192251
21	0x3e96ca4d	0.29451218
22	0x3e047bf8	0.12937915
23	0x3e478d1b	0.19487421
24	0x3e5ce73b	0.21572582
25	0x3e399421	0.18122913
26	0xbe04192b	-0.12900226
27	0xbe035fcd	-0.12829514
28	0x3e7c2017	0.24621616
29	0x3e8f91ad	0.2804083
30	0x3e2219f0	0.15830207
31	0x3ea1e57a	0.3162039
32	0x3e0d44b9	0.13795747
33	0xbe6b0b03	-0.2295342
34	0x3e664533	0.22487335
35	0x3df7b7e0	0.12095618
36	0xbdae4ad2	-0.085103646
37	0x3e4c5a7e	0.19956395
38	0x3e4d5e32	0.20055464
39	0x3ea6f5cd	0.32609406
40	0x3e85a841	0.2610493
41	0x3e25efc6	0.16204748
42	0x3eb68c96	0.35654134
43	0x3e4c86cc	0.19973296
44	0x3e8112f2	0.25209767
45	0x3de73f90	0.112914205
46	0x3e676c8b	0.226
47	0xbe418937	-0.189
48	0x3e918473	0.28421363
49	0xbe2735b7	-0.16329084
50	0x3e5252e4	0.20539433
51	0xbe195aa9	-0.1497599
52	0x3e692e7a	0.22771636
53	0x3d37ddb0	0.044889152
54	0x3dfcab52	0.12337364
55	0x3df1bdb2	0.1180376
56	0x3e145b2c	0.14487904
57	0x3e246f9f	0.16058205
58	0x3e188a0f	0.14896415
59	0x3e2d8b29	0.16947617
60	0x3e2f37db	0.17111151
61	0x3e6898c7	0.2271453
62	0x3e3b0906	0.18265161
63	0x3e4c76a5	0.19967134
64	0x3de1456f	0.109995715
65	0x3e2bc84f	0.1677563
66	0x3dbe67e3	0.092971586
67	0x3e4795d6	0.19490752
68	0x3e3c2e90	0.18377137
69	0x3e6966f6	0.22793183
70	0x3e4ff3ff	0.20307921
71	0xbdfb63ba	-0.12274881
72	0xbdce3591	-0.10068811
73	0x3dd0aa0f	0.10188686
74	0x3e6a116e	0.22858211
75	0xbd9a0c64	-0.075218946
76	0x3e3415c4	0.17586428
77	0x3cf92d20	0.030417025
78	0x3eaefd03	0.34177408
79	0xbe19d004	-0.15020758
80	0xbdb42969	-0.08796961
81	0x3e29a508	0.1656686
82	0x3e7a28ff	0.24429701
83	0x3e3411ec	0.17584962
84	0x3cdf050d	0.027224088
85	0x3dac1588	0.08402544
86	0x3eb72f5a	0.35778314
87	0x3e5548df	0.2082858
88	0x3ec77511	0.38956502
89	0x3e5d0190	0.21582627
90	0x3e47b745	0.19503506
91	0x3e55a284	0.20862776
92	0x3e81f10e	0.25379223
93	0xbda933ba	-0.08261819
94	0x3e521fe8	0.20519984
95	0x3d4a498b	0.049386542
96	0x3e8262f3	0.25466117
97	0x3e4a4b27	0.19755231
98	0x3e6a1a38	0.22861564
99	0x3e2403d0	0.1601708
100	0x3e62a786	0.22134218
101	0x3e9bbd45	0.3041784
102	0x3e0706df	0.13186215
103	0x3e6668df	0.22500943
104	0x3e9c2b7c	0.30501926
105	0x3e7949fa	0.24344626
106	0x3e927d80	0.28611374
107	0x3e034d54	0.12822467
108	0xbd5e1d39	-0.054227088
109	0x3dd48de0	0.10378623
110	0x3e6910fe	0.22760388
111	0x3e6d6b94	0.23185569
112	0x3ea9433b	0.33059105
113	0x3dfcb34a	0.12338884
114	0x3eb48328	0.35256314
115	0xbe348efb	-0.17632668
116	0x3d98de2e	0.074642524
117	0x3e9589a0	0.29206562
118	0x3df4c6ac	0.11951956
119	0x3e8d0ee0	0.2755041
120	0xbe720174	-0.23633367
121	0xbe705d04	-0.23472983
122	0xbca3d8fc	-0.020000927
123	0x3e0fc468	0.14039767
124	0xbe0ae0a1	-0.13562252
125	0x3e6ee74c	0.2333042
126	0x3d01f8fb	0.031731587
127	0xbe2cb4ac	-0.16865796
128	0x3e8286df	0.25493523
129	0x3e74933f	0.23884295
130	0x3e96c2f6	0.29445618
131	0x3e462673	0.19350605
132	0xbb349232	-0.002755296
133	0x3e8b8b9f	0.2725496
134	0x3e878cba	0.26474553
135	0x3e5e310f	0.21698402
136	0x3e1ab57e	0.15108296
137	0x3e067e99	0.1313423
138	0x3e208924	0.15677315
139	0xbda47b9c	-0.08031389
140	0xbd0726d5	-0.032996017
141	0x3e1aeb15	0.15128739
142	0xbe32ee38	-0.17473686
143	0x3e363aee	0.17795917
144	0x3e65db8d	0.22447033
145	0x3e98326b	0.29725966
146	0x3e877b7b	0.26461396
147	0x3ebc6a41	0.36799815
148	0xbeb6d09f	-0.3570604
149	0x3e6bd266	0.2302948
150	0x3e66d4e8	0.22542155
151	0x3e7f7535	0.24947055
152	0x3e6c466d	0.2307374
153	0x3de6542e	0.11246525
154	0xbe69ad1b	-0.22819941
155	0xbd72d014	-0.05928047
156	0x3e3e8b7a	0.18607894
157	0x3e919ded	0.284408
158	0x3e059738	0.13045967
159	0x3eab46ea	0.3345254
160	0x3e095931	0.1341293
161	0xbe95862a	-0.29203922
162	0x3e4b23f6	0.19837937
163	0x3e8bbb4f	0.27291343
164	0xbd589998	-0.052880853
165	0x3e2ca734	0.16860658
166	0x3e4c6b6d	0.19962855
167	0x3e6d4a14	0.2317279
168	0x3e3e7298	0.18598402
169	0x3dfee784	0.12446502
170	0x3eba918a	0.36439162
171	0x3e478899	0.19485702
172	0x3e06df00	0.13171005
173	0x3e049f45	0.12951382
174	0x3e754db3	0.23955421
175	0xbdd2ca8e	-0.102925405
176	0x3e95dc67	0.29269716
177	0xbe2abd6d	-0.16673823
178	0x3e6aa413	0.22914152
179	0xbe21f3b6	-0.15815625
180	0x3e2d6932	0.1693466
181	0xbe84abce	-0.25912327
182	0xbd6eeb15	-0.05832966
183	0x3e3a65b2	0.18202856
184	0x3e48ec81	0.19621469
185	0x3e3611dc	0.1778025
186	0xbe26a6a8	-0.16274512
187	0x3e53a53d	0.20668502
188	0x3e0c1bfa	0.13682547
189	0xbee758c6	-0.45184916
190	0x3e0c0eb0	0.13677478
191	0x3e34bc6e	0.17650005
192	0x3e2d7d40	0.1694231
193	0x3e15c1e3	0.14624743
194	0xbde5074c	-0.111830324
195	0x3e620ae1	0.22074462
196	0x3e46f5ca	0.19429699
197	0x3e772e44	0.24138743
198	0x3e29134d	0.16511269
199	0xbdfef3c3	-0.124488376
200	0xbc9797da	-0.018505026
201	0x3d7fc562	0.0624441
202	0x3e5ba902	0.2145119
203	0xbd77ca5b	-0.060495716
204	0x3e310649	0.17287554
205	0x3de68c66	0.112572476
206	0x3e9710fb	0.29505143
207	0xbc0b3f72	-0.008499013
208	0xbe1196b5	-0.14217646
209	0x3ea4bf30	0.32177114
210	0x3e557981	0.20847131
211	0x3e1f9ed5	0.15587933
212	0x3e3708a0	0.17874384
213	0x3df68eab	0.120389305
214	0x3eb0ffa3	0.34570035
215	0x3e27e06f	0.16394208
216	0x3ebbe35a	0.36696893
217	0xbe15588f	-0.14584564
218	0xbe3e3f9f	-0.18578957
219	0x3e43a9b2	0.19107702
220	0x3e63d807	0.22250377
221	0xbdbd0162	-0.092287794
222	0x3e33566b	0.17513435
223	0x3d745c84	0.059658542
224	0x3e08c2ee	0.1335561
225	0x3e17805b	0.14795057
226	0x3e1653e1	0.14680435
227	0x3de81ef6	0.1133403
228	0x3e866991	0.26252416
229	0x3e9b5d64	0.3034469
230	0x3de0ac2e	0.10970341
231	0x3e54620a	0.20740524
232	0x3e9bb9f6	0.30415314
233	0x3e9b8aa3	0.3037921
234	0x3e9fbab1	0.31197122
235	0x3e770074	0.24121267
236	0xbd9fbf9d	-0.07800219
237	0xbe2e9a68	-0.17051089
238	0x3e8ba099	0.27270964
239	0x3e84f56c	0.25968492
240	0x3e885b46	0.26632136
241	0x3e15cdbc	0.14629263
242	0x3eae173f	0.3400211
243	0xbd48270d	-0.048865367
244	0xbdae0e11	-0.08498777
245	0x3e91d8da	0.28485757
246	0x3e34dad3	0.176616
247	0x3e82fb9e	0.25582594
248	0xbe60b038	-0.21942222
249	0x3c9aef24	0.01891286
250	0xbe25ef3d	-0.16204543
251	0xbe66266a	-0.22475591
252	0x3e05c48e	0.13063261
253	0x3e468a1a	0.19388619
254	0x3dcf1ce4	0.10112932
255	0xbb0338c1	-0.0020022842

layers.12.bias f4 [5]
0	0x3ea3dd22	0.32004648
1	0x3ea62e57	0.3245723
2	0x3ea50869	0.3223298
3	0x3ea04092	0.31299263
4	0x3ea08dee	0.31358284
